ddpg_critic_model_weights.pth (torch, 92547 bytes, 9 tensors)

v1.0.weight f4 [128, 33]
00000000: b9d8 523d a0f4 c0bd e566 3d3b 2248 dfbc
00000010: daa6 ffbc 3ed2 9fbc dda4 abbd 443a 943c
00000020: e92a 7a3d 26ef e53c fbf8 ffbb e71c 73bc
00000030: ee20 0f3c 5061 f3bd 142c 173e 494d a8bd
00000040: a134 d93a 2c55 36bd 79ec d0bb 3694 99bb
00000050: cd84 7f3c e2d5 d53a 5a0c 1e3c eed8 683c
00000060: e8a4 303d 5f86 29bd db31 083e 43a6 e03c
00000070: fa7d aa3d 3f6a bebc 96c9 253d 483f 323d
00000080: 8aa5 babe ad33 d6bd d971 10bd f996 a63d
00000090: ca44 05be 2d73 1c3a cc3e 913c 6398 473e
000000a0: a433 2d3c c802 633e 7748 a63c 42e2 a4bd
000000b0: 5360 62bb 17d1 dfbc 8a3e c93c ec97 b43c
000000c0: d636 af3c e061 0dbc a3f0 bfbc 4914 0fbe
000000d0: d340 ec3b cb96 adbc 6807 b33c 4e3a bb3d
000000e0: 07ec 9f3d 45fa 0a3d 62c9 8fbd d229 523d
000000f0: df77 8dbd e516 c1bd e961 74bd 67d3 48bd
00000100: c172 2fbd cac2 a53e 18d8 36be 6ac2 bc3c
00000110: 0f69 cfbc 3068 0abe 8768 553c ad00 743d
00000120: 16d1 15bc 5c61 8db9 4640 343d 3d80 fe3d
00000130: 45d7 293a b994 90bb d5a0 893d 70c3 11bb
00000140: 7906 a0bd 9799 d43a 70a8 523c 31b9 3bbd
00000150: e52b 8a3d a384 933d e273 773d 6ab8 483d
00000160: ee92 f7bc 94b9 76bc 520f a63b 719f 0a3e
00000170: 456e 0d3d bc54 64bd c773 113e 367f 07bd
00000180: bba0 23bd a5de 853d 0bfc 7ebe 1a86 8fbb
00000190: ad63 b53d 5b0b 8abd 9245 02be 7eb2 0ebd
000001a0: 558c e0bd bb08 aebd 92ce f83b 8b5f 463d
000001b0: 76fe 99bb 0468 76bc 20b4 8fbd 879f 3d3d
000001c0: 03c0 fc3d 7056 ebbd e1ac ab3b 45c5 0e3d
000001d0: 488b d63c 5e47 a4bd 563a 133c c50c 0bbc
000001e0: b0e3 553b b4fe a23d 0250 fdbc 8758 7ebd
000001f0: 9217 ab3d 635b 00be cd68 76bd cfd7 4e3d
00000200: 6cbf 473d fe30 6e39 40cf 533b 30b4 893e
00000210: 4916 2bbe cd5c aabd e32e 8fbd 7e07 b9bc
00000220: b98f c2bd ea9e bf3d cfe3 01bd 18fa 633c
00000230: 8759 703d bca8 40bd 2808 57bc af90 b3bb
00000240: 1209 f4bc cff9 ab3d 1c4a d73d 5556 d73c
00000250: 8352 7abd b8fc a23c 0e01 963c 553d 66bd
00000260: bc72 84bc 37d5 9d3d ba87 ed3b 5bc0 28bb
00000270: 078e 4fbc 8b69 48bd 1d41 ff3d 09c9 55bd
00000280: b372 053e c745 913c 9e86 003c e6b1 a83c
00000290: 92be c0bd 2737 40be e537 673d 8986 e1bb
000002a0: 76d7 393c 9c87 cbbd 29a0 03be 1266 0fbe
000002b0: d341 613b affb 563d 4cc5 e63c 4ae5 893d
000002c0: 3243 0f3d 7fbc e1bc 093a 253d cc99 e9bd
000002d0: 35e2 e23d 37ad 13bc fdad c13d 1917 d8bd
000002e0: 7cb8 a23d d249 05bd d9e9 fa3c c06a 83bd
000002f0: f08e 12bd a347 64bd 623d 203e 5e4a a9bd
00000300: 4fbc 2a3d 83a6 a8bd b27c 38bd 1aad d53c
00000310: 4dfe 2b3d 084c b63d 1c75 8d3d 2a97 40be
00000320: 397a 293e b937 3abd 0321 233a a46b 85bb
00000330: b4bb c13a bf00 85bc 7aba dfbd dc38 9039
00000340: 5e15 97b6 8ab0 ccba c172 e7bc c4d5 2e3c
00000350: 77ef a23d 4edf 1dbd b884 593c 7a73 57bd
00000360: 97ee 273d 50c7 423d 533a 6ebe 7548 983d
00000370: a53f 56bc 83fc 8cbd 1d02 5f3d 3e8a 893d
00000380: 535d 86bc 997f ffbc 2506 e93d ca54 7f3d
00000390: 3d89 b6bc e561 4fbd 73f1 91bd 051c 40be
000003a0: da71 2ebd 9275 c9bd bc2c 873c 55b2 9fbd
000003b0: b27d 153d 5252 54bd 2a73 413d 2313 1e3d
000003c0: 1a35 1dbc 0b3d 89bc 8bf0 cc3a 6ed0 e0bc
000003d0: 138a 723c 0481 ac3d 4922 9fbb dbce 323c
000003e0: 5714 35bd 571c f8bc 2297 323c 16ad 2a3c
000003f0: 6ff7 8cbc d28e 0bbd e153 433d bee5 2d3d
0.051476214 -0.094216585 0.0028900441 -0.027256075 -0.03120749 -0.019509431 -0.083810546 0.01809419
0.06107608 0.028068136 -0.007811663 -0.014838434 0.008735878 -0.11883795 0.14762908 -0.08217866
0.0016571471 -0.04451482 -0.006375846 -0.0046868576 0.015595627 0.0016314352 0.0096464995 0.014211876
0.043126017 -0.041387912 0.13300268 0.02742303 0.08324809 -0.023244021 0.04047545 0.04351738
-0.3645442 -0.10459075 -0.035264824 0.081342645 -0.13014522 0.000596809 0.01773014 0.19491725
0.010571394 0.2216903 0.020298226 -0.08050968 -0.0034542277 -0.027321381 0.024565954 0.022045098
0.021388453 -0.008629292 -0.023430174 -0.13972582 0.007209876 -0.021190068 0.021854118 0.0914198
0.078086905 0.033930082 -0.070208326 0.051309414 -0.06907629 -0.09428195 -0.059663687 -0.049029734
-0.042834047 0.32375175 -0.1785587 0.023041923 -0.02531865 -0.13516307 0.01302541 0.059570957
-0.009144088 -0.00026966154 0.04400661 0.12426803 0.0006478916 -0.0044122604 0.067201294 -0.0022241734
-0.078137346 0.001622009 0.012857541 -0.04583091 0.067466535 0.07203033 0.06041325 0.049003996
-0.030221429 -0.015058894 0.0050677443 0.13537385 0.03452899 -0.05574487 0.14204322 -0.033080302
-0.039948206 0.06536607 -0.24900834 -0.00438 0.08856902 -0.06740447 -0.12721851 -0.034838192
-0.10964266 -0.08497759 0.0075929845 0.04843096 -0.0046995236 -0.015039448 -0.07016778 0.046294715
0.12341311 -0.11491096 0.0052391146 0.0348561 0.026189461 -0.08021425 0.008986076 -0.008486931
0.0032636933 0.07958737 -0.03092194 -0.062096145 0.08354105 -0.12534861 -0.06015854 0.05049878
0.04876654 0.000227157 0.0032319576 0.26895285 -0.1670772 -0.083184816 -0.06991365 -0.02258658
-0.09500069 0.09356482 -0.031711396 0.013914607 0.05867913 -0.047035918 -0.013124503 -0.005479894
-0.029789481 0.083972566 0.10512182 0.026286284 -0.061113846 0.019895896 0.01831105 -0.056210835
-0.01616799 0.07706683 0.007248846 -0.0025749418 -0.012668139 -0.04892878 0.12463591 -0.052193675
0.13032036 0.017733468 0.007844595 0.020592641 -0.094113484 -0.18771039 0.05644979 -0.006882493
0.011342874 -0.09937975 -0.12854065 -0.1400378 0.003437151 0.052486118 0.02817025 0.067331865
0.03497619 -0.027555702 0.04033855 -0.114062876 0.11078302 -0.009013466 0.09457014 -0.105512805
0.07945344 -0.032541104 0.030629085 -0.06416845 -0.035780847 -0.05573238 0.15648416 -0.082661375
0.04168349 -0.082348846 -0.045040794 0.026083518 0.041990567 0.089012206 0.069071025 -0.18807665
0.1655053 -0.045463298 0.00062228757 -0.0040716697 0.0014780671 -0.016235707 -0.109242395 0.00027508184
-4.502638e-06 -0.0015616578 -0.028252961 0.010671083 0.079558305 -0.038543038 0.0132762715 -0.05260036
0.04099902 0.04755336 -0.23264436 0.07435695 -0.0130766975 -0.068841 0.054445375 0.06715821
-0.016401922 -0.031188773 0.11378125 0.06233672 -0.022282237 -0.05063047 -0.07126131 -0.18760689
-0.042589046 -0.09836878 0.016500823 -0.07797686 0.036496826 -0.05183632 0.04722897 0.03859247
-0.00959518 -0.01675274 0.0015635652 -0.027443137 0.014803427 0.08423045 -0.004856382 0.010913576
-0.04420885 -0.030286951 0.010900291 0.0104172435 -0.01720783 -0.03407175 0.047687415 0.042455427

v1.0.bias f4 [128]
00000000: 0c72 7c3d 23b4 e23d 5012 083e c06c f53d
00000010: 0bfc 9cbd ce7a 023d faeb b2bd 6ecb 453b
00000020: 860b eb3d c49b 8c3d c999 03be 82fb 74bd
00000030: b37b f0bd 4823 863d 7230 8fbc f615 d0bd
00000040: ba25 35bd 4582 3b3d 8826 533c 58c4 053e
00000050: cd08 f1ba 8e62 333d 50b9 2cbd 2cad 873c
00000060: 119a a23b 08ce f43d dcee 6e3d 7174 a2bd
00000070: 6767 fdbd edaa 07be 5f16 4fbd 3f16 933c
00000080: de44 063e 8b07 62bc 7169 5f3d f4de 903d
00000090: 0c57 dabd ad59 ebbd 0df3 573d cdef 843d
000000a0: bdb5 84bd f668 b13c 3dfc 0abe 153a e33a
000000b0: 8391 0a3d 1d42 b73a 050d b3bc 4c94 6d3d
000000c0: 2abe 1cbd 7449 d43d 2713 f6bd 3e23 a3bd
000000d0: cbfd edbd 56f2 00be 5019 d33d e357 0dbd
000000e0: e9fe dfbd 9761 ec3c 2921 d8bd 7135 ec3b
000000f0: 6ce7 873d a2f7 efbc 13cd 923d 0a80 ec3c
00000100: 93b9 e4bd 225c df3c 56e1 b73d 34d9 03bd
00000110: 646c 563c 09ba 913c 09ca 453c 7dd9 143d
00000120: ab80 08be 4263 d83d 0182 783d 34ac 8c3c
00000130: fbb9 cf3c fcda e5bd 24ab 23bd bad3 b7bb
00000140: a340 073d 4af6 9bbd d105 733c 2606 31bd
00000150: b69e cf3d 2db4 f4bd d351 6d3c 4e15 c13d
00000160: 15e7 dcbd 6a43 83bb 15d4 833d cc51 663d
00000170: 9e88 863c fc7f 663d 205f c6bd 1431 ed3d
00000180: e1f9 533b e22b b83d 0c1f fc3c af1b 7ebc
00000190: 4e4e 743d 125e 073e 28d3 0c3e 3c1b f0bd
000001a0: ce33 0b3c dead ccbd 6fcc a53d 1dc8 cc3d
000001b0: 5432 c8bd 7be9 03bc 7652 c53d c196 bc3d
000001c0: afac d6bd 12b0 bf3d 60ff c9bc 7f98 f2bd
000001d0: 219e e13c 92e6 843d d526 ab3d 61a5 c1bd
000001e0: 4c76 cebd 7aa6 bfbd e96f a13d 8e0e f9bd
000001f0: 6dcd 63ba e4a2 27bd 5a71 793d 0480 e03c
0.0616322 0.110695146 0.13288236 0.11983633 -0.07665261 0.031855397 -0.08736415 0.0030181068
0.11476807 0.068656474 -0.12851633 -0.05981017 -0.11742344 0.06549698 -0.017479155 -0.10160439
-0.044225432 0.04577853 0.012887605 0.1306318 -0.0018389464 0.04379516 -0.042168915 0.016562067
0.004962214 0.1195336 0.058333263 -0.07932366 -0.12373238 -0.13248797 -0.050558444 0.017954944
0.13112208 -0.013795744 0.054543916 0.07073775 -0.10661134 -0.11491714 0.052722026 0.06491051
-0.06479976 0.021656495 -0.13572784 0.0017336035 0.033830177 0.0013981495 -0.021856794 0.058002755
-0.038267292 0.103655726 -0.12015372 -0.07965706 -0.11620673 -0.12592444 0.10307562 -0.034507643
-0.10937292 0.028855128 -0.105532 0.007208519 0.06635937 -0.029292885 0.07168021 0.028869648
-0.11168208 0.027265612 0.08978526 -0.032189563 0.013087366 0.017788904 0.012072095 0.036340225
-0.13330333 0.10565807 0.060670856 0.017171957 0.025357237 -0.112234086 -0.039958134 -0.0056099566
0.033020627 -0.07615335 0.01483293 -0.043218754 0.101376936 -0.11948428 0.01448484 0.09427892
-0.10786263 -0.004005839 0.06436936 0.05623035 0.016422566 0.0562744 -0.096861124 0.115816265
0.0032344984 0.08992745 0.030776523 -0.01550953 0.05964499 0.13219479 0.13752425 -0.117239445
0.008496238 -0.099941 0.08095633 0.09999106 -0.09775224 -0.008051272 0.09634869 0.092084415
-0.104821555 0.093597546 -0.024657905 -0.118454926 0.027541222 0.0648929 0.08357016 -0.09455372
-0.10081157 -0.09357925 0.07882673 -0.12160979 -0.00086899736 -0.04092683 0.060899116 0.027404793

v1.1.weight f4 [128]
00000000: 33bf 563f 49a1 343f d608 433f 9ce5 243f
00000010: 52ec 473f 5d33 233f 3b76 273f f1cc 533f
00000020: 980f 4e3f 4347 443f c31e 213f 87de 293f
00000030: f41c 3e3f 07de 343f 84f2 473f c620 583f
00000040: d12c 543f 0b40 753f 755a 2f3f 1217 543f
00000050: c984 273f e731 413f f50e 273f c72a 4b3f
00000060: 1dc9 3d3f 9a2b 463f 19ca 433f e02f 2e3f
00000070: 6e94 123f 0413 5a3f 64b0 433f ad5d 2d3f
00000080: ee91 653f fd91 2c3f eadc 1b3f 75b0 473f
00000090: 724b 313f ff9c 293f ba5a 333f 01d1 0c3f
000000a0: 3255 4c3f ad35 3e3f 2a5e 713f 5d69 4b3f
000000b0: d030 883f da53 4b3f 94fc 3e3f 0d86 223f
000000c0: fdc5 323f f91f 393f 4294 5d3f c1d6 443f
000000d0: 2c0f 333f 6f39 533f 1210 383f ec8e 443f
000000e0: 0df7 333f 5b2e 483f 6e39 563f 8be2 363f
000000f0: 8b1c 4a3f e381 4d3f a545 473f cb13 743f
00000100: 181f 283f e078 623f f2dc 1c3f 6be6 1e3f
00000110: ec9a 253f 8d21 3b3f bf21 313f a518 3e3f
00000120: 0a2d 3c3f e913 183f 9d00 243f 1be1 853f
00000130: e40a 403f 60ed 393f 9853 543f 1bc2 7c3f
00000140: 05c2 423f c7e3 5e3f 5fa5 1b3f ce17 5c3f
00000150: 6787 043f 64a6 403f 07df 1e3f fe1d 093f
00000160: cf6b 783f fc77 403f 5dd0 0a3f d150 5e3f
00000170: 80e9 123f 6f64 383f c01b 2f3f b5cf 453f
00000180: 03a1 4a3f 6564 513f 3b27 483f c5dd 183f
00000190: f397 283f d95b 2d3f 29a0 773f 0adc 2c3f
000001a0: 2271 403f 6c18 3a3f f8d5 6a3f 3297 263f
000001b0: 86cc 2e3f 8cdd 3f3f 6e04 193f 9322 033f
000001c0: d02e 3b3f ed4d 533f cdcf 3d3f 5165 f03e
000001d0: 13c1 483f c3f4 543f 52a8 573f 4001 313f
000001e0: 966e 383f 45c8 603f 2278 2a3f df69 293f
000001f0: 7912 593f 1109 253f 828b 593f f71a 303f
0.83885497 0.705586 0.7618536 0.64412856 0.7809497 0.6375025 0.6541478 0.8273459
0.80492544 0.76671237 0.62937564 0.66355175 0.7426293 0.70651287 0.78104424 0.8442501
0.82880884 0.95800847 0.684974 0.828477 0.6543699 0.7546677 0.652572 0.7936215
0.74135 0.7741028 0.7648025 0.680418 0.57257736 0.85185266 0.76441026 0.6772106
0.89675796 0.6741026 0.60883963 0.7800363 0.69255745 0.6625518 0.7006031 0.55006415
0.798175 0.7430065 0.9428431 0.79457647 1.0639896 0.7942482 0.74604154 0.63485795
0.69833356 0.7231441 0.8655435 0.7689019 0.69945025 0.8250951 0.7189952 0.7678058
0.70298845 0.7819573 0.8368138 0.7143943 0.78949803 0.80276316 0.77840644 0.953427
0.65672445 0.8846569 0.61274636 0.6207034 0.6468952 0.7309807 0.6919212 0.74256355
0.73506224 0.5940538 0.64063436 1.0459322 0.7501662 0.7262783 0.82940054 0.9873368
0.760773 0.8706631 0.6079921 0.85973823 0.5176911 0.7525389 0.6205906 0.5356139
0.970395 0.7518308 0.5422419 0.86842066 0.5738754 0.7202825 0.6840172 0.7727006
0.79151934 0.81793815 0.7818486 0.59713393 0.65856856 0.67718273 0.9672876 0.6752325
0.75172627 0.72693515 0.9173274 0.65074456 0.6828083 0.7494743 0.59772384 0.5122463
0.73118305 0.8254078 0.74145204 0.46952298 0.7841961 0.83185977 0.8424121 0.6914253
0.7204374 0.8780559 0.6658956 0.6617717 0.8479381 0.6446696 0.849785 0.68791145

v1.1.bias f4 [128]
00000000: c2ba 35be d772 f1bd 1cce 443e d5e0 0dbe
00000010: 7f3d 313e 3a83 96be 2857 e5bd dd54 813e
00000020: 2ebb 94be 55aa 343d 1575 063d 6083 aabe
00000030: 5d54 46be 95f3 5dbe e2fe aabe 37a3 803e
00000040: e2aa ddbe 99c9 26bd 17c2 5ebe 8f34 f1bd
00000050: 0b7e 24be 14cf 1b3e 7757 a3be 39ce 853e
00000060: 5a5e 9cbe dcff 3e3e 88ad 4e3e dd8a eb3b
00000070: 92e6 90be 27ee 833e c6c5 463e 6b94 3c3d
00000080: e8ff 98be 0e29 acbe a6f6 04be f235 7e3e
00000090: 6c56 97bc 7f51 b5be f72a 78be 7c3d 15be
000000a0: 0a30 8c3e 3419 12be 6bec 83be 362c 763e
000000b0: c8a3 0bbe 7094 4f3e 2d69 9fbe c8d4 8abd
000000c0: 9e00 e6bd 305f 543d 1d8c 1e3e 2c69 233e
000000d0: b466 30be a932 84be 7561 8f3e 08c6 773e
000000e0: 2bbd 1dbe 4eb5 763e 544d debd 402a dc3d
000000f0: 4a15 40be fbae d93d 0e18 23be e528 1ebe
00000100: 5e9f 3fbe 2ae7 53be c067 9abe 5847 5ebe
00000110: 0b8c 25bd b6f9 ddbd 1c49 4bbe 97ca b8be
00000120: a28e fcbd f80d 7dbe d3b8 bfbe 7a7b 9abe
00000130: ce3c 7ebd e749 33bd 86e5 bbbd 8511 11be
00000140: 1f52 623c c782 913d 8aac 9cbe 5b0c 043d
00000150: c9b5 86be 6b1d 8ebc 2886 99bd 3dd1 00be
00000160: 4659 86be 8fd0 a5be 94c5 1ebf 0bc1 a4bd
00000170: a73c b9be 8d97 663e d6dc f2be c156 2d3e
00000180: f824 7a3e 18fa 263d 0a10 ea3d 6a38 fbbd
00000190: 2543 8cbe 0941 113e cb25 c7bd 0d9f c53d
000001a0: 39a3 583e 3e8d 05bd 7c51 45be ba7e cbbe
000001b0: c56e a4be 0fa5 fabd 6bcf a3be eb24 7fbe
000001c0: c0b5 b3be 7de1 523e f1e9 f53d 0ff5 87be
000001d0: 4d34 523e 14fd 4ebe f72d 54be fff4 e9be
000001e0: 2aad 223d 9189 77be 31f7 a8bd 55c1 aebe
000001f0: 740d 5fbe 147a 9cba 1d96 8b3d 85be 32bb
-0.17747024 -0.11789482 0.1921925 -0.13855298 0.17308615 -0.29396993 -0.11198264 0.25260058
-0.29049057 0.044107754 0.032826502 -0.33303356 -0.1936812 -0.2167495 -0.33397585 0.25124523
-0.43294436 -0.040719602 -0.21753727 -0.11777603 -0.16063707 0.15215713 -0.31902668 0.26133898
-0.30540735 0.1865229 0.20183384 0.0071881847 -0.2830091 0.25767633 0.19411382 0.04603998
-0.2988274 -0.33625072 -0.12984714 0.24825266 -0.018473826 -0.3541374 -0.2423514 -0.14574236
0.273804 -0.14267427 -0.2576631 0.24040303 -0.13636696 0.20271468 -0.3113493 -0.06778866
-0.112305865 0.05184859 0.15483136 0.15958089 -0.17226678 -0.258199 0.2800404 0.24196637
-0.15404193 0.240926 -0.10854593 0.10750246 -0.18758121 0.10629078 -0.15927145 -0.15445288
-0.18713138 -0.20693651 -0.3015728 -0.21706903 -0.04041676 -0.10838644 -0.19852108 -0.36092064
-0.123318925 -0.2471236 -0.37445697 -0.3017233 -0.062069707 -0.04377165 -0.091746375 -0.1416684
0.0138135245 0.07105022 -0.30600387 0.032238346 -0.26310566 -0.017348012 -0.074962914 -0.12579818
-0.26239985 -0.3238568 -0.6202023 -0.080446325 -0.36179087 0.2251875 -0.4743411 0.16927625
0.24428165 0.04076585 0.114288405 -0.122666195 -0.27394977 0.14184965 -0.09724005 0.09649477
0.21156015 -0.032605402 -0.19269365 -0.39745122 -0.3211576 -0.12238514 -0.31994185 -0.24916427
-0.35099602 0.2059383 0.120075114 -0.26554152 0.20527764 -0.20213729 -0.20720659 -0.4569473
0.039715923 -0.24173571 -0.08250273 -0.34131876 -0.21782476 -0.0011938238 0.06815741 -0.0027274203

v1.1.running_mean f4 [128]
00000000: b399 843c d5dd 00bd 6e52 533e 0709 093e
00000010: 7350 7dbc 6124 6e3d 542d 3f3e c198 f4bc
00000020: f9be 1f3d 4ba4 b1be e5c9 8d3e a901 0ebe
00000030: 4f78 d03e 9407 97bd 2a0c 81be eea7 8e3d
00000040: 3497 87be ba66 1fbe 88a7 b6be 6244 573e
00000050: a8ba adbe 42b8 3c3e 8b9c ffbd 6ad1 053f
00000060: 516e af3e f713 8bbe f9c5 51bd 2787 9f3e
00000070: 5d6b f4bd e735 003c 60a8 953e e2de 253e
00000080: 9461 153d 6a56 92be faec e4be 0f6b cf3e
00000090: d60e 403e b4c1 49be f14e 4c3d 85ce 37bf
000000a0: e4ba 273d d7f5 a3bd b613 c6bd e65d a43e
000000b0: f519 963e 0c68 0b3f 0e5a 4dbe 0bcc bd3e
000000c0: 578e 3f3e feb0 cc3d 3b27 9abe 05b2 ae3e
000000d0: c463 5bbe 4ce2 ddbe 39ae efbd 6eca 30be
000000e0: 4569 13be ac64 743d 4aa5 52be 9a1f d9bd
000000f0: 184b 183d 3a94 44ba 8255 e03e 0dbf a1bc
00000100: c337 d23e 9de4 6abd e3c1 23be 5ea1 0b3c
00000110: 511c e73e 7838 943e 6994 0bbf c3f9 15bd
00000120: 9f11 dc3d 1e98 663d f9f3 92be 319b a73e
00000130: dd81 c4be de1b abbd 3819 4d3d 5d56 94be
00000140: 1f24 283d 0846 56be b285 5dbe f7ea 7e3e
00000150: 635a 823e b9cf 10bf ab3b b93e 3e2c 27be
00000160: 9efd abbe 8894 c0be 3ab6 cd3e 3c76 a0bb
00000170: 3094 a3bf f1a8 853e 2202 8cbe ea66 20be
00000180: 178d 923e 147d 773e 4707 9cbe fd4f 8fbd
00000190: a9fe 79bd cdf4 85be b07d 86bd 774e 133e
000001a0: d3e9 963e 6c9c ebbe d6bc a0bb 9254 043e
000001b0: 35c1 f9be c3f7 0b3e 1dd1 b13c b158 e23c
000001c0: 37ab 973e d957 2e3d 2e00 39be 4d33 a33e
000001d0: 43df 9cbc 222d b1bd 8e0d f43d 610a 7bbe
000001e0: 6197 e23d 9756 96be 69f0 07bd 0cb1 043d
000001f0: 5fda 0a3d ffcd 92bd 0859 c9bc 5e9d 3bbe
0.01618657 -0.031461556 0.20636913 0.1338235 -0.015461075 0.058140162 0.18669635 -0.029857995
0.039000485 -0.34695658 0.27693096 -0.13867821 0.40716788 -0.07374492 -0.25204593 0.06965624
-0.26482546 -0.15566531 -0.3567469 0.2102218 -0.3393147 0.18429664 -0.1248103 0.52272666
0.34263852 -0.2716367 -0.051214192 0.311578 -0.119345404 0.007825351 0.29230022 0.16198304
0.03647001 -0.28581554 -0.4471205 0.40511367 0.1875566 -0.19702798 0.049879972 -0.717995
0.040949717 -0.080058746 -0.09671728 0.3210289 0.2931668 0.5445564 -0.20053884 0.37069735
0.18706642 0.09994696 -0.30108055 0.34120193 -0.21424776 -0.43336713 -0.11703152 -0.17264721
-0.14395626 0.05966632 -0.20570865 -0.10601731 0.03718099 -0.0007498894 0.43815237 -0.01974442
0.41058168 -0.05734693 -0.1599193 0.00852236 0.4513879 0.28949332 -0.5452333 -0.036615144
0.107455485 0.056297414 -0.2870176 0.3273559 -0.38380328 -0.083549246 0.05007288 -0.2897214
0.041050073 -0.20925152 -0.21633032 0.2489432 0.25459585 -0.5656696 0.36178336 -0.16325471
-0.33591932 -0.3761332 0.4017809 -0.004896907 -1.2779598 0.26105455 -0.27345377 -0.15664259
0.28623268 0.24168807 -0.30474302 -0.069976784 -0.06103388 -0.2616333 -0.06566942 0.143854
0.2947527 -0.46017778 -0.0049053235 0.12922886 -0.48780218 0.13668732 0.021706158 0.027630182
0.29622814 0.042564247 -0.18066475 0.31875077 -0.019149428 -0.086511865 0.11916648 -0.24515678
0.110640295 -0.29362938 -0.033188257 0.032395408 0.03389966 -0.07168197 -0.024578586 -0.1832175

v1.1.running_var f4 [128]
00000000: 2314 473e 9d44 953e 28ba 523f 38cc 7f3e
00000010: 3d6f 853f e5b9 103f 8556 663f 7a58 9a3f
00000020: 7069 263d 6e6e 1c3e 3c56 963f b57c 2d3f
00000030: fa29 a73e 3235 083f 92de 6d3e b075 503f
00000040: 119b 8e3d 3201 ea3d 07cf 2f3f 2b72 973d
00000050: 6782 023e 2235 c73f adf7 4f3f 70b8 733f
00000060: 9ee2 863e 9c23 0040 1d09 b83f 6563 a33e
00000070: 7372 d43e e73c a73e 3ee6 633e 5a8f 053f
00000080: b55f 4b3e 77eb 193e decf 7e3e 5288 2240
00000090: 14af 5b3e 0876 733d 0dbc fd3d 8cd0 ce3e
000000a0: 70ca 4b40 27d2 7d3e 95a3 6a3e e335 3e3f
000000b0: 0e23 903e 434e 2a40 674c 003e 5bfa 873e
000000c0: 0df2 7e3f df76 943e 2feb d63e 03f4 1640
000000d0: b74e e13d 72cf 4c3e cbb1 dc3e 9608 a13f
000000e0: 064a 323e a9ae ca3e bc85 4a3e d60c 813e
000000f0: a74d 513e 06bf df3f b7a7 a43e 2155 673e
00000100: 2270 b83e 4cdf 2e3e 6dd3 643f 40ff d33e
00000110: 8486 8c3e 8ff5 513e d172 6f3e d179 c63d
00000120: e35b b23f 89a0 393f 7817 c23e 6b72 593e
00000130: eee6 b93e 0061 553e 8746 303e d175 783e
00000140: 8cb6 1b3f 94da 0c3e f7af 1b3f 9ef2 073f
00000150: 6d91 0a3f 1af2 203e 9df5 243f 435b e23e
00000160: 08bd 3d3e 97f8 2a3e 2208 d93d a301 c03e
00000170: 0765 bc3e bc7d 293f 87a4 1e3d 1736 e13e
00000180: 4bb1 e13f ba2a 153f f1b9 a03e 6127 ea3e
00000190: ce15 f03e 6119 d23e 9a10 363e 9c48 a63e
000001a0: 58a8 8d3f ba22 943f dc26 cd3e 8ae3 253f
000001b0: 9f0b 553f 082d d83e 35ae 823e 08fd 693e
000001c0: f835 333e 9451 2440 3d71 0c3f 93c1 873e
000001d0: d9a9 fe3e 9ace ad3e f19b 2c3e 6225 ed3d
000001e0: 15e6 9b3e f5b0 9d3d 38c0 323f 559f c33e
000001f0: 21ff 293e db80 0d3f de41 3d3e 838c b33f
0.19441275 0.2915391 0.823153 0.24980247 1.0424572 0.5653365 0.8997577 1.2058251
0.040627897 0.152765 1.1745067 0.6776841 0.32649213 0.5320617 0.23229435 0.81429577
0.0696317 0.11426009 0.68675274 0.07394823 0.12745057 1.556309 0.812373 0.95203304
0.2634477 2.0021734 1.4377781 0.3191177 0.41493568 0.32663652 0.22255799 0.5217186
0.19860728 0.15031229 0.24883983 2.5395703 0.21453506 0.059438735 0.123893835 0.40393484
3.1842308 0.24787198 0.22913964 0.74300975 0.28151745 2.6610267 0.12529145 0.26558194
0.9958809 0.2899694 0.41976306 2.3586433 0.11001342 0.20001009 0.43104395 1.2580745
0.1741105 0.3958638 0.19777578 0.25205106 0.20439778 1.7480171 0.32159206 0.22591068
0.3602305 0.17077368 0.8938511 0.41405678 0.27446377 0.2050383 0.23383643 0.096912034
1.3934292 0.7251058 0.3790853 0.21235053 0.36308998 0.20837784 0.17214404 0.24263693
0.6082542 0.13755256 0.60815376 0.5310458 0.5412815 0.15717354 0.64437276 0.44210252
0.18529141 0.16696392 0.10597254 0.3750125 0.36795828 0.6620748 0.038731124 0.4398658
1.763223 0.5826832 0.31391862 0.4573317 0.46891636 0.41034988 0.1777977 0.32477272
1.1067 1.1573098 0.4006871 0.6480032 0.8322086 0.42221856 0.25523534 0.2285043
0.17501056 2.5674791 0.5486029 0.26514873 0.49738958 0.33946687 0.16856362 0.11579396
0.30448976 0.076997675 0.6982455 0.38207498 0.1660123 0.5527474 0.18482158 1.4027256

v2.0.weight f4 [128, 132]
00000000: 2ea5 cd3d fd36 d8bd e413 72bd f36a 2bbd
00000010: 306d bc3d 6395 9cbe 3ee9 be3b c329 8cbd
00000020: eefd ac3d fcc5 dcbc 317e 203d 07d6 933d
00000030: a094 22bd 7991 6bbe 3682 dfbd a031 6fbe
00000040: c122 af3d 9e3a b2bd bfb6 c2bd 52b4 833d
00000050: 0206 2e3d 9740 e9bb 445e 9abd 27c5 89bc
00000060: aa12 0b3d ba55 a1bd f2ef e8bc f9cd 72bd
00000070: 2b2e 523d 982b 2bbd ff9b c53d 2f58 63be
00000080: f137 21be 3c65 95bd fe2a d33d da32 5fbe
00000090: e9c6 a7bd 2ee2 4e3d 3835 cd3d 7795 4c3d
000000a0: c4d8 a2bb 801a d33d b30d 953d 7858 6bbe
000000b0: 56ff 673c 28ae dc3c ecca b73d 06ff c93b
000000c0: 25f4 0cbe 8b8a c6bd f4bd 94bd 38b6 cfbd
000000d0: 0fdd 1f3d fc4c 47be e640 c6bd 70e2 1ebd
000000e0: 1fe4 39bd e283 80bd 3b26 9cbd 421f d7bd
000000f0: 3f6e 11bd 366c 7a3d 15a7 15bd 0ce7 633c
00000100: 5f43 92be cb4f fe3d a149 10be 5307 013d
00000110: 2565 a0be c1cb 65bd 9925 0a3e df53 943d
00000120: 6565 21be 6134 6cbe d97d cd3d b2af 403b
00000130: bb8f bd39 0c66 043e c6ac 9dbe 26b9 df3b
00000140: b1bb 0abd 1d09 fcbd f925 a3bd e619 5ebd
00000150: 8672 e6bc 37a3 bebc 2dc4 bcbd fbcb ddbd
00000160: f40e 2cbc 109f ff3c f067 b7bc dcde 7fbd
00000170: c721 b13c 842a 96be 2bba 07bd 7a23 043e
00000180: c014 17bd 2ebf d03d 0b0a a73c 1925 f23b
00000190: cb84 54bc 72bd d83b 4070 383d b42d e3bd
000001a0: 8252 42bb e433 8bbe abda 1a3e 5fb8 a2bd
000001b0: 22a4 eabd 57a1 94ba 945d b53b f8c5 063e
000001c0: 254a 133d 6810 01be ff36 6ebd 89ce e93d
000001d0: f732 25bd ed3f ad3d d2ad 8f3d 7c6b 8fbe
000001e0: a4b3 cabd 531c 1e3d b6fe 0bbe 8be4 0cbe
000001f0: adc5 4dbe 38c3 5abc e204 44be 2645 223d
00000200: b446 cd3c f5f2 31bd 34cc 9e3d 46aa c1bd
00000210: 45e2 0dbd 6dd4 85be 24b2 ee3c cdd7 ccba
00000220: 2d68 0d3c 56d9 903d d157 b8bc d985 fd3c
00000230: 601c 0a3e c13e f43c 3184 433d be77 d8bd
00000240: b424 923a 7699 a9bc 6ff4 4fbe f77e 173d
00000250: e6da 893d f2ba 2d3d 3766 253d 206f e4bd
00000260: 516e 8bbd 2122 9a3a cf20 c9bb c60c 173d
00000270: a627 c6bd 9fee 373d f3a3 c43d 88a5 b5bd
00000280: 5b45 e3bd b57a 2e3d 53c4 233d 26e8 973d
00000290: 0fe1 573d cc04 903d ae9f 8a3c 4339 4bbd
000002a0: d619 713c b04f 74bd 848c 1bbe 0b65 3c3d
000002b0: 0bac 5abd 1aeb 2abd 63cd 2cbe 9d45 66bd
000002c0: 4803 ddbd b2a7 3abd 3587 babd e3fb 02bc
000002d0: b15e d93c a84b 83bd 0a33 debd d17f 4abd
000002e0: 7247 da3d 2958 79bd 6d9d 54bd 9285 a5bd
000002f0: 15bf d13c e385 853d dd53 acbd 8ef8 4e3a
00000300: 43bc f5bd 5093 00bd e5e6 b23d 51b6 893d
00000310: 1d91 30bc 72ae 77bd 0746 1abd e6af 003d
00000320: c41f c4bc 2763 32bd cf81 bbbc d797 bfbd
00000330: 17ce 6d3d 491f 4d3d 8307 2b3c 8fd8 043d
00000340: 1e04 1b3d 108c 423d 7131 023e dab0 04bd
00000350: d3e1 f3bd 004e c4bd 86e6 cdbd 2023 a23d
00000360: 501c 33be 8c32 b43d 31ea 543d 480b b0bd
00000370: 581b 1dbe fa9d b23d 2e76 c1bd 1f19 1e3d
00000380: d3b7 05be 8384 d13c e5e6 18be 5042 cebb
00000390: 68b4 c7bc 5f64 7bbd 31d4 21bd 6e5b 3b3d
000003a0: 77a2 ce3c d77e 073d cf62 95bd cf0a ffbc
000003b0: 5363 9a3c 5caa 1f3e 166a 4b3d 14c6 37be
000003c0: bb19 79bc 9004 9abd 260c d6bd 13f7 e63d
000003d0: 0b6e 54be d1bd 0bbd 991a a83d ace2 b63d
000003e0: aa2e 1dbd b684 74bd eec2 94bc 1958 143e
000003f0: 4740 d4bc d5ce 44be 8eaa 05bd 000d 1fbd
0.10041271 -0.10557363 -0.059101 -0.04185004 0.09200513 -0.30582723 0.0058261445 -0.06843903
0.08446871 -0.026949875 0.039182846 0.07218557 -0.03969252 -0.23004712 -0.10913508 -0.23358774
0.08551551 -0.087025866 -0.09507512 0.06430878 0.0424862 -0.0071182954 -0.07537511 -0.016817642
0.033953346 -0.07877679 -0.028434727 -0.059278462 0.05131356 -0.04178962 0.096488945 -0.22201608
-0.15743996 -0.072946995 0.103109345 -0.21796742 -0.08192236 0.05050867 0.10019916 0.04994723
-0.004969688 0.10307789 0.072780035 -0.22982967 0.014159998 0.026938513 0.08974251 0.0061644344
-0.13765009 -0.09694394 -0.07262793 -0.10142177 0.039029177 -0.19462961 -0.09680347 -0.038790166
-0.04538357 -0.06275155 -0.076244794 -0.10504009 -0.03550553 0.061138354 -0.036536295 0.013910066
-0.28567025 0.12417563 -0.14090587 0.031501126 -0.31327167 -0.056102518 0.13490905 0.0724256
-0.15761335 -0.23066856 0.10033769 0.0029401598 0.00036155977 0.12929553 -0.30795878 0.0068274913
-0.033870403 -0.12306426 -0.07966227 -0.054223917 -0.02813078 -0.023271186 -0.09217105 -0.10829922
-0.010501612 0.031203777 -0.022388428 -0.062468395 0.021622552 -0.29329312 -0.033136528 0.12904158
-0.036885023 0.10192715 0.020390531 0.0073896763 -0.012971113 0.0066143805 0.045028925 -0.110927016
-0.002965123 -0.27188027 0.15122478 -0.07945322 -0.11457087 -0.0011339587 0.005534837 0.13161457
0.03595938 -0.12603915 -0.058157917 0.114163466 -0.040331807 0.084594585 0.070155755 -0.28011692
-0.09897545 0.03860123 -0.13671383 -0.13759057 -0.20094939 -0.013352208 -0.19142488 0.039616726
0.025058128 -0.043444593 0.077537924 -0.09456305 -0.034639616 -0.2613863 0.029137678 -0.0015628278
0.0086307945 0.070727035 -0.022502812 0.030947613 0.13487387 0.02981508 0.04773349 -0.10569714
0.0011149854 -0.020703059 -0.20308088 0.036986317 0.06731205 0.042414613 0.040380683 -0.11154008
-0.068081506 0.0011759439 -0.0061379443 0.036877416 -0.09675531 0.0449053 0.09601583 -0.08869463
-0.11097213 0.04259749 0.03998215 0.07417326 0.052704867 0.07032165 0.016921844 -0.049615156
0.014715632 -0.05964631 -0.15190321 0.0459948 -0.05338673 -0.041728117 -0.16875224 -0.056218732
-0.107916415 -0.045570083 -0.0910782 -0.007994625 0.02653441 -0.06410915 -0.10849579 -0.0494383
0.10658158 -0.06087509 -0.051907945 -0.08082117 0.02560381 0.065196775 -0.08414433 0.0007895314
-0.11998799 -0.03139049 0.08735446 0.06724227 -0.010776785 -0.0604691 -0.03766444 0.03141775
-0.023940928 -0.04355159 -0.022889046 -0.09355133 0.05805787 0.050078664 0.010438803 0.03243309
0.037845723 0.047496855 0.12714173 -0.03239522 -0.11908307 -0.0958519 -0.100537345 0.07916856
-0.17491269 0.087987036 0.051981155 -0.08595902 -0.15342462 0.08721538 -0.09446369 0.038598176
-0.13058405 0.025575882 -0.1493183 -0.006294526 -0.024378017 -0.06137502 -0.039509002 0.04574149
0.025223954 0.03307995 -0.07294237 -0.031133084 0.01884619 0.1559233 0.04966172 -0.17946655
-0.0152038885 -0.075204015 -0.10451536 0.112775944 -0.20745103 -0.03411657 0.08208198 0.08929953
-0.03837458 -0.059696876 -0.018159356 0.14486732 -0.025909556 -0.19219525 -0.032633357 -0.038830757

v2.0.bias f4 [128]
00000000: 9561 243c c1d8 2dbe 6d87 61bc f8fd aabc
00000010: 97f2 66be 2bb9 ca3e ebe7 b5bd c4c7 32be
00000020: 5bc4 23be 9e13 aebc ce7b 8b3e e718 b5bd
00000030: 8106 5abe 36b7 263e 13c1 e53e 4130 133e
00000040: 106a 61be 1ee3 6e3e 6eb7 01be 3571 15be
00000050: a548 113e 376f 1d3e 5da8 c3bd c22b c1bd
00000060: e612 823e 1183 003e fc43 1cbe 6b0a 7e3e
00000070: d61a 25bd 0e4c 4d3e d969 5ebe f826 abbd
00000080: 0ac8 01be d56c 383e 0000 9e3e a463 59be
00000090: c751 0cbe 44ac 5ebd bfb2 7b3e 3f31 17be
000000a0: eca0 b53d ccc8 673e 0c70 e3bd 475e fe3d
000000b0: 1ee3 5d3e 4edb d73e 1a31 90bd 5455 de3e
000000c0: a70c a8bd 4ba7 00be 908a 1dbc 144e 8c3d
000000d0: aad1 92bd 5c7f 4abe 35c2 98bd cc45 1dbd
000000e0: 11c6 ecba cc5a a23e f046 d03e e22f 93bd
000000f0: ce0a 513e 4249 1ebe a96f 7dbc af1e 5abe
00000100: 73f6 8b3e 90c3 14be c765 163d 6d8b 803e
00000110: 8a2a 66bd 3cb3 793e 9c66 e8bd dc8f 643e
00000120: 2fd5 97bb 7516 51bc 3a71 09be 623b d03e
00000130: 0ea7 85bd ba05 f43d 3a7e 5bbe 4635 43be
00000140: 1b1d 6b3d 0c73 783e a8f7 50bd ebde 873d
00000150: a0bc 2f3e f8c1 3d3e c81d 61be e24b f03d
00000160: a518 ddbd c4e4 58bd 14d2 3f3e c188 983e
00000170: 953e 32be 2ea2 8f3e f51d ea3c 91b5 60be
00000180: cebe b73e 47cb 183e 6ecd 08be fd05 443e
00000190: 9ec0 bf3d f2f3 a5bd d46c 16be 0ce1 133e
000001a0: 4c00 7d3e 3e71 693e 8bf0 17be 2053 733e
000001b0: f150 65be 5fbf 933c 768d debd d91f 38bd
000001c0: 6832 27be 1aed 603e 0de2 22be 2428 b33d
000001d0: 67c0 b93d 2412 24be 1c45 47be ddc8 6c3e
000001e0: 2f98 953e cc66 6dbd d262 2cbe 3c70 863e
000001f0: a48d a4bd 6065 aabd 831f 81bd 0ad7 a23d
0.010033031 -0.16977216 -0.013765198 -0.020873055 -0.22553478 0.39594397 -0.088821255 -0.17459017
-0.15992872 -0.021249589 0.27242893 -0.0884264 -0.21291544 0.16280827 0.44873866 0.14373876
-0.22013116 0.23328826 -0.12667629 -0.14593966 0.14187868 0.15374456 -0.09553597 -0.09432174
0.25405043 0.12549998 -0.15260309 0.24808662 -0.040308796 0.20048544 -0.21720065 -0.08357042
-0.12673965 0.18010266 0.30859375 -0.21229416 -0.1370307 -0.054363504 0.24579905 -0.1476488
0.08868584 0.22635192 -0.111053556 0.12420326 0.2166867 0.42159504 -0.070406154 0.43424475
-0.08205538 -0.12563817 -0.009615555 0.0685083 -0.071688965 -0.19775146 -0.07458917 -0.03839664
-0.00180644 0.31709898 0.4067912 -0.07186867 0.20414278 -0.15457633 -0.015468516 -0.21300767
0.27336463 -0.14527726 0.036718156 0.25106373 -0.056192912 0.24384779 -0.11347696 0.22320503
-0.0046335678 -0.012761702 -0.13422099 0.40670305 -0.06526004 0.11915155 -0.2143487 -0.19063291
0.057400804 0.24262637 -0.051017433 0.06634315 0.17161798 0.18531024 -0.21984017 0.117332235
-0.10795716 -0.052952543 0.18732482 0.29791835 -0.17406686 0.2805342 0.028578738 -0.21944262
0.3588776 0.14921294 -0.13359615 0.1914291 0.09362911 -0.081031695 -0.14689952 0.14441317
0.24707144 0.22797105 -0.14837854 0.23762178 -0.22394158 0.018035589 -0.10866825 -0.044952247
-0.16327822 0.21965447 -0.15906544 0.087478906 0.09069901 -0.16022545 -0.19459957 0.23123498
0.2921767 -0.057959363 -0.16834572 0.26257503 -0.08034828 -0.08320117 -0.063048385 0.07951172

v2.2.weight f4 [1, 128]
00000000: 0d73 02be 6bdf 48bd debc 923d f4a6 25be
00000010: 5879 acbd 0d5d ed3d 61f3 e1bc 1209 3cbd
00000020: 23d1 b2bd 99f3 46be 2355 b93d 3ac3 febc
00000030: b64d 04be cc3e 323d 460c ee3d 7c71 763d
00000040: c8af 9dbd 143f ba3d 0cb5 86bd 5a5e 83be
00000050: e4a7 713d 052e 813d bfb5 e43d 396c d0bd
00000060: 7051 983d 6341 093d d800 f8bd 4318 bc3d
00000070: f9c7 08be fb51 713d 5dc8 4dbd 8fcc 2abd
00000080: b111 cabd 883e 823d 7579 b23d 6116 b3bd
00000090: 523f 26be 5edc e7bd e5c2 a03d 36ab 4cbe
000000a0: dfa3 373d 26f0 213d bf67 a3bd 99d7 353d
000000b0: 6088 c73d cf81 0d3e 6095 b43b d726 1b3e
000000c0: e376 59bd a01c 12be 6e19 5dbe b181 173d
000000d0: e58d 143e 0b5d 15bd 5f65 d9bd 1775 45be
000000e0: 5ba3 a23d 7494 b83d c2e2 083e d2ad 91be
000000f0: 5c5a 893d c2c6 c7bd 0993 0b3e f0c6 cabd
00000100: 26d6 ad3d 5f88 88bd a3a5 c03d 6dbc c43d
00000110: 131c 48be adfa bb3d 5b3c c9bd c647 6f3d
00000120: feed 983d 26b5 d7bc acf7 39bd 2310 fb3d
00000130: 986e 6dbd 04a8 4c3d 0c39 18be c35a 99bd
00000140: 7b85 053d 2a7a bb3d 4984 1dbe 2a53 3d3d
00000150: c46a 903d 0d73 763d 8fc6 aebd 5c71 533d
00000160: af25 93bd 4663 21be df09 2f3d 24f9 cd3d
00000170: 0e55 ebbd 6031 c93d 9641 3f3d 8289 9dbd
00000180: f388 0a3e 3c43 443d 4824 a5bd ee5a 8e3d
00000190: d967 573d b592 a2bd b964 00be 69da 0d3d
000001a0: 6bac ba3d 8a4a 2c3d 2336 f3bc 725b 5c3d
000001b0: d49c b4bd 6a44 b93d 14ec a3bd 47fd 56be
000001c0: e970 68bd c40c b03d 5130 03bd 37df 953d
000001d0: c403 f73c a75e f2bd 14e3 a0bd 62dd 443d
000001e0: 8fbe a23d 06dd 0c3e d1a4 c8bc 8161 b23d
000001f0: 98e7 e3bd c6d5 95bd 7127 29be e5f4 633d
-0.12739201 -0.049041193 0.0716493 -0.16176969 -0.08421582 0.11590014 -0.027581872 -0.045907088
-0.08731296 -0.19428863 0.09049442 -0.03109895 -0.1292027 0.04351692 0.11623435 0.06016682
-0.07699543 0.090940624 -0.06577501 -0.25657922 0.058998004 0.06307606 0.11167478 -0.10176892
0.07437408 0.033509623 -0.12109536 0.09184315 -0.13357534 0.058916073 -0.05023991 -0.04169899
-0.098666556 0.06359583 0.08714572 -0.08744503 -0.16235092 -0.113213286 0.07849673 -0.19987187
0.044834014 0.039535664 -0.07978772 0.044395063 0.09742808 0.1381905 0.005510971 0.15151535
-0.053091895 -0.14268732 -0.21591732 0.036988918 0.14507253 -0.036465686 -0.10615038 -0.19282947
0.07941314 0.0901269 0.13367751 -0.28452927 0.06706688 -0.09754707 0.13630308 -0.099012256
0.08488111 -0.06666636 0.09406593 0.09606252 -0.1954196 0.09178672 -0.09825965 0.058418058
0.074672684 -0.026331495 -0.045402214 0.12258937 -0.0579668 0.04996492 -0.14865512 -0.074880145
0.032598 0.0915416 -0.15382494 0.04622189 0.07051614 0.060168315 -0.08533966 0.05162178
-0.07184922 -0.15760526 0.042734023 0.100572854 -0.11490832 0.09823871 0.046693407 -0.07692243
0.13528804 0.047915682 -0.08063561 0.06950937 0.05258927 -0.079381384 -0.12538423 0.03463212
0.09114917 0.042063273 -0.0296889 0.053798147 -0.08818975 0.09046252 -0.08004013 -0.20995055
-0.056748305 0.08596185 -0.0320285 0.073179655 0.030153163 -0.1183446 -0.07855812 0.04806269
0.079465024 0.13756189 -0.024492653 0.08710004 -0.111281574 -0.07316165 -0.16518952 0.05565347
