ddpg_actor_model_weights.pth (torch, 92020 bytes, 10 tensors)

mlp.0.weight f4 [128, 33]
000000 eb d6 c1 3d b5 62 43 3e ec 1d 71 3d 41 fb 28 bd
       0.094648205 0.19080622 0.058866426 -0.04125524
000010 4d ba 7e 3c c7 22 92 bc 66 c9 67 3d a0 63 db bc
       0.015547347 -0.017838849 0.056588553 -0.026780903
000020 0f 43 bf 3c ce cf 87 3c 26 6e 22 3a 71 86 cd 3c
       0.023347406 0.016578581 0.0006196223 0.02508852
000030 d2 0d 14 bb 7e eb 6b bd 50 53 c5 bd ef 7d 2b 3d
       -0.0022591245 -0.05759763 -0.09635031 0.041868147
000040 8d 82 13 3d 51 c6 39 3c df cf 93 bd 8c 6a 0c 3b
       0.036013175 0.011338786 -0.07217383 0.0021425812
000050 94 68 5c 3d 43 ab 4a 3d 22 cd 95 bc 28 4c eb 3b
       0.05381067 0.049479734 -0.018286292 0.0071807094
000060 5e a4 73 bc 57 41 1a 3d 28 f4 76 bd e3 9e 3b bd
       -0.014870731 0.03765997 -0.06029144 -0.045805823
000070 f9 0f e8 3c 7a d2 24 ba fe c9 13 bd c7 da 21 3c
       0.028327929 -0.0006287467 -0.036081307 0.009878821
000080 4b f2 59 3d 23 04 2f be c9 07 84 bd b1 cf 71 bc
       0.053209584 -0.17091422 -0.064467974 -0.01475899
000090 70 e2 ae bc ca 41 98 bc 07 5e dc bc db da 21 3d
       -0.021348208 -0.018586058 -0.026900304 0.039515357
0000a0 09 d4 4b bc e1 3b ed 3d 53 5e 27 bd 07 6a 80 3b
       -0.01244069 0.115836866 -0.04086144 0.0039188894
0000b0 a8 f1 41 bc 54 9e 3c 3d 6c 36 02 3e 06 75 c4 3b
       -0.0118374005 0.04604943 0.12716073 0.0059953956
0000c0 d8 94 d1 bc 0a a6 9d bd bb cb 18 3c 40 3d 01 3d
       -0.02558367 -0.07697685 0.009325917 0.031552553
0000d0 76 ed c9 bb 28 56 32 3c f1 5e 37 3d 12 16 f7 bc
       -0.0061623408 0.010884799 0.044768278 -0.030161891
0000e0 b4 5e 6f 3d d1 7c 02 3d 63 04 6d 3d f5 a0 fe 3b
       0.058439925 0.031857315 0.05786551 0.0077706524
0000f0 60 39 48 3d b2 e2 b0 3d 47 48 1c bd 21 2e a8 3c
       0.048882842 0.08636989 -0.038154867 0.020529808
000100 d5 5e 3b 3d 27 81 5a be 78 d7 3f 3d 3a e6 1f 3c
       0.045744736 -0.2133833 0.046836346 0.00975948
000110 ed 7c d6 3c 0d 3f c7 3d bd b8 4f 3c 98 89 6d 3b
       0.026182616 0.09728823 0.012678322 0.0036245342
000120 e1 f3 88 3d 1b 6c 86 3d c6 35 87 bd c8 eb 87 bd
       0.06687141 0.06563588 -0.06602053 -0.066367686
000130 e4 b5 df 3c 25 b2 98 3c 5c 48 c3 3c 19 74 07 3d
       0.027308412 0.018639633 0.023838215 0.033069704
000140 af 6c 10 bd c0 59 88 bc 9c f9 8f 3d 05 5a 60 bd
       -0.0352599 -0.016644359 0.07030031 -0.05477335
000150 ad 2c 06 bc 7c 88 5b 3c 01 90 80 3c 60 4d 67 bd
       -0.0081893625 0.01339924 0.015693666 -0.056470275
000160 7f f0 4a 3d bc 90 71 3d da ec 28 bc a1 ac 00 be
       0.04954576 0.05897592 -0.010310376 -0.12565853
000170 63 0a c3 bd 36 a9 d8 bb 93 8d 06 bd 74 08 48 bc
       -0.095234655 -0.0066119684 -0.03284986 -0.012209047
000180 99 af 22 3d d7 53 86 bc 55 93 fd 3d c5 d0 0b bd
       0.039718244 -0.0163974 0.12381617 -0.034134645
000190 97 56 fc bd 31 c8 75 bd f7 3f 67 bd 04 7a ca 3d
       -0.12321203 -0.06000537 -0.056457486 0.09886554
0001a0 59 de 72 bc 23 a5 69 3d 09 ea db bc 86 2a ee bc
       -0.01482352 0.057042252 -0.026844995 -0.029073011
0001b0 a0 f8 b9 3d d8 3a 54 3c 91 cc 00 bd 7b 54 b8 3b
       0.090806246 0.012953483 -0.03144509 0.005625305
0001c0 f8 28 29 3d f8 bd 4d bd 72 fa 16 bc 13 6a 83 bc
       0.041298836 -0.050229996 -0.009214984 -0.016041791
0001d0 27 fb 91 3b 77 f4 84 bb 2f f5 fb ba 6b b8 b9 3c
       0.0044549885 -0.004057463 -0.0019222851 0.022670945
0001e0 e1 60 84 3d f2 8a 39 bd a6 70 d0 bb d7 17 83 bb
       0.06463791 -0.045298524 -0.006361085 -0.0040006447
0001f0 c7 ab 2f 3d 91 50 b8 bd 4b 7f c2 bc a4 0c 68 3d
       0.04288843 -0.08999742 -0.023742339 0.05665268
000200 d8 99 6b 3d 97 da a0 bd 49 90 15 bd 7f c0 a6 be
       0.057519764 -0.07854193 -0.036514554 -0.32568738
000210 b6 5c cc bd f3 18 77 bd e7 06 6d bd 8c d7 ba 3d
       -0.09978621 -0.060326528 -0.05786791 0.091231436
000220 06 48 0e bc 72 3f 4f bc eb 01 24 be 41 93 cd 3d
       -0.008684164 -0.012649404 -0.16016357 0.10037852
000230 59 54 f8 bd 9c 31 3b be c9 28 20 bd 34 d4 20 3d
       -0.12125463 -0.18280643 -0.039101396 0.039264873
000240 10 b9 0b bd 85 ac b1 bc ee 68 48 3d 89 73 08 bd
       -0.034112036 -0.021688709 0.048928194 -0.033313308
000250 bd 1c 4f bd e8 bf 9d 3c 6b dc d1 3c a1 55 8b 3c
       -0.050564516 0.019256547 0.025617799 0.017008604
000260 2f 90 af 3d 8a ad 7c bd 43 17 ab bd 10 06 83 bd
       0.08572423 -0.061688937 -0.08354046 -0.06397641
000270 3e 91 9c 3d da aa 1d 3e 46 d1 11 3d 70 8a f4 3b
       0.0764489 0.15397206 0.03559997 0.007462792
000280 76 f4 62 3d 29 7d 98 bd 72 a6 99 bd a9 2c 90 3d
       0.055408917 -0.074457474 -0.0750245 0.07039768
000290 f7 29 9b b9 58 b4 44 3d 5b 19 6c bd 4b 1b 41 3d
       -0.0002959517 0.04802355 -0.05764137 0.04714517
0002a0 49 4e d9 bc dd c0 fa bc 8c 3b ff bd e4 b1 2c bd
       -0.026526587 -0.030609543 -0.124625295 -0.042161837
0002b0 c0 ef c0 3c 20 89 93 3d 45 98 40 3e f8 57 05 3d
       0.023551822 0.07203889 0.18808086 0.032554597
0002c0 aa 78 55 3d 6f 4e 18 3d 25 56 96 3d 5b c5 a1 3d
       0.052117027 0.037184175 0.073406495 0.07898971
0002d0 fa 0e d0 bd c2 34 0e 3d 49 bd dd bc 19 9d f5 37
       -0.101591066 0.034718283 -0.027067797 2.927943e-05
0002e0 18 10 3f 3c 94 63 6f bd 1f 67 24 3a 79 f6 86 bd
       0.011661552 -0.058444574 0.000627147 -0.0658998
0002f0 01 99 b8 3c 49 5d 52 bd 4a a2 0d 3e 56 48 6d bc
       0.022533895 -0.051358495 0.1383144 -0.014482578
000300 b7 19 a9 bb f8 41 ed 3d 9e 6a a1 bd 32 b9 34 3d
       -0.005160536 0.11584848 -0.07881664 0.04412193
000310 c3 9e 0c bc b4 3a f6 bd 2b 9b ce 3d 21 34 4c be
       -0.008582774 -0.120229155 0.1008819 -0.1994176
000320 c5 88 b5 3c 1e 44 1c bb 17 ec 90 3c b6 be 38 bd
       0.022159943 -0.0023844312 0.017690701 -0.04510375
000330 71 cc bb 3d 92 14 f6 bc 15 ba 49 bd 03 c3 db bc
       0.091698535 -0.030039106 -0.049249727 -0.026826387
000340 12 69 d0 3c f8 98 8b 3d 71 64 af 3c 17 f7 a6 bd
       0.025440726 0.06816286 0.021410199 -0.081525974
000350 48 4d 18 3e 88 91 87 bd 5d d3 2a 3d a0 d8 ca 3c
       0.1487323 -0.06619555 0.041705478 0.024761498
000360 f6 81 5a 3d c3 b0 5c bd 1e 25 85 bc 8a 73 ae bc
       0.053346597 -0.05387951 -0.01625305 -0.021295328
000370 88 6f 09 bd 71 ea e6 bb a2 23 2f 3d 50 42 81 bd
       -0.03355363 -0.0070469906 0.04275859 -0.06311476
000380 d8 96 79 3d 1e 13 e6 bc d5 ff d2 3d 3e 74 f2 bc
       0.06093487 -0.028085288 0.10302702 -0.029596444
000390 7a 32 8d bd 9f 40 44 bd d7 5f 08 be e8 c2 e0 3b
       -0.06894393 -0.04791319 -0.1331781 0.006859172
0003a0 04 6c 3d 3e 97 b4 ae 3d e1 36 02 bd 5d d9 af 3b
       0.18498236 0.085305385 -0.031790618 0.005366488
0003b0 30 f5 8f bd d4 4d 75 3d c5 a7 94 bc 9a af 95 bc
       -0.07029188 0.059888676 -0.018146405 -0.01827221
0003c0 44 e5 a2 bd a0 bd 34 bd e1 3e 0f 3d 16 36 c0 bc
       -0.07953885 -0.044126153 0.034972075 -0.02346329
0003d0 75 f9 92 3b c8 3d 23 bd 38 8f 50 bd 84 19 fb bc
       0.004485304 -0.03985384 -0.050917834 -0.030651815
0003e0 b4 3a 6e bd 83 64 1e bc 51 01 19 3d 80 b3 84 bc
       -0.058161452 -0.009667519 0.03735477 -0.016198874
0003f0 57 c0 06 3c 6a 11 89 3d 65 8f e9 bd a6 61 34 bc
       0.008224568 0.066927746 -0.114043035 -0.011009609

mlp.0.bias f4 [128]
000000 c9 56 9d 3d 2a 85 0d 3e e7 24 2a 3e 2e 48 19 3e
       0.076825686 0.1382033 0.1661564 0.1496894
000010 6c 4c c4 bd 09 d8 22 3d 5d 06 e0 bd 00 ed 8c 3b
       -0.09584889 0.03975681 -0.10938714 0.0043007135
000020 b5 9e 13 3e fc f5 ae 3d ee b2 24 be 26 ad 99 bd
       0.1441601 0.085430115 -0.16083881 -0.075037286
000030 16 66 16 be 23 31 a8 3d 82 b2 b7 bc 56 41 02 be
       -0.1468738 0.08212497 -0.022423986 -0.12720236
000040 0e 5b 62 bd 3a a0 6a 3d 83 ab 83 3c 1a 2e 27 3e
       -0.055262618 0.05728171 0.016072994 0.1632618
000050 11 f6 15 bb 7b 7e 60 3d 96 c5 57 bd 89 41 a9 3c
       -0.0022882263 0.05480812 -0.052678667 0.020661132
000060 80 ff ce 3b 82 33 19 3e b4 33 96 3d e3 39 cb bd
       0.006317079 0.14961055 0.0733408 -0.099231504
000070 2d 92 1e be 3e 9a 29 be 85 47 81 bd 0e 24 b8 3c
       -0.15485449 -0.16562745 -0.063124694 0.02247813
000080 67 c6 27 3e 87 85 8b bc e5 c1 8a 3d e3 49 b5 3d
       0.16384278 -0.017031444 0.06775264 0.088519834
000090 d1 9a 08 be 61 84 13 be 6d 1a 87 3d 0c ce a5 3d
       -0.13340308 -0.14405967 0.06596837 0.08095941
0000a0 6b 90 a5 bd ec b8 de 3c a9 6c 2e be 67 19 12 3b
       -0.08084186 0.027187787 -0.17033638 0.0022292973
0000b0 81 1a 2f 3d 49 9d ef 3a 47 80 e2 bc 93 6e 94 3d
       0.042749885 0.0018281128 -0.027649058 0.07247653
0000c0 f2 0d 44 bd 48 ef 04 3e 47 89 19 be 64 48 cc bd
       -0.04786486 0.12981904 -0.14993773 -0.09974745
0000d0 4e e4 14 be 5d 31 21 be 27 07 04 3e 12 fe 30 bd
       -0.14540216 -0.15741487 0.12893353 -0.04321105
0000e0 67 fe 0b be a3 97 0f 3d 25 cd 06 be 17 27 15 3c
       -0.13671266 0.03505672 -0.13164194 0.009103558
0000f0 47 8b a9 3d f7 60 17 bd 9e 00 b8 3d 33 59 12 3d
       0.08278518 -0.036957707 0.08984493 0.0357296
000100 28 0e 0f be 52 bd 0b 3d b7 bb e5 3d 54 02 25 bd
       -0.13970244 0.034116097 0.112174444 -0.040285423
000110 35 3c 85 3c 92 8e b5 3c 42 6f 74 3c d3 e0 38 3d
       0.01626406 0.02216271 0.014919104 0.045136284
000120 0f c3 2a be ae 3a 07 3e 75 8a 9b 3d 7d aa af 3c
       -0.16675971 0.13205978 0.07594768 0.0214436
000130 b0 de 00 3d 49 3d 0f be b6 7b 4c bd 2f ac f7 bb
       0.03146237 -0.13988222 -0.049922667 -0.0075583677
000140 46 58 29 3d d2 c3 c3 bd d4 50 97 3c dd 70 5d bd
       0.04134395 -0.09558834 0.018471159 -0.054062713
000150 ff f9 01 3e c6 0d 19 be b9 21 94 3c eb 75 f1 3d
       0.12693022 -0.1494666 0.018082486 0.11790069
000160 a3 69 0a be c7 69 a5 bb 16 39 a5 3d f6 57 8f 3d
       -0.1351686 -0.00504801 0.08067529 0.06999199
000170 57 ab a6 3c 81 51 90 3d 4b 5e f8 bd 72 8a 14 3e
       0.020345373 0.07046796 -0.1212736 0.14505938
000180 0f 1d 81 3b b7 e9 e5 3d a1 b6 1c 3d 86 a1 9e bc
       0.0039402316 0.11226218 0.038260106 -0.01936413
000190 e0 05 99 3d f2 1e 29 3e 3b d7 2f 3e c2 11 16 be
       0.07471824 0.16515711 0.17171948 -0.14655212
0001a0 bb 8c 2a 3c ec 1a 00 be 33 6d cf 3d 6a 24 00 3e
       0.010409529 -0.1251027 0.1012825 0.12513891
0001b0 30 9d fa bd 27 71 27 bc 46 d0 f6 3d e6 a8 eb 3d
       -0.122370124 -0.010219849 0.12051444 0.11506824
0001c0 b6 09 06 be 1f d9 ef 3d 25 43 fc bc c2 6b 17 be
       -0.13089642 0.117113344 -0.030793736 -0.147872
0001d0 0e 11 0f 3d 62 ec a6 3d f2 2e d6 3d 4b 4f f2 bd
       0.034928374 0.08150555 0.10458173 -0.1183153
0001e0 8d 11 01 be 2d 08 ef bd 57 aa c9 3d 65 b7 1b be
       -0.12604351 -0.11671481 0.09846943 -0.15206678
0001f0 f6 81 cd ba 2a 98 50 bd a8 99 9b 3d 4a b7 0a 3d
       -0.001567899 -0.050926365 0.07597667 0.033866204

mlp.1.weight f4 [128]
000000 8f ad 98 3f 56 9f b0 3f 8b 21 94 3f bd f0 99 3f
       1.1927966 1.3798625 1.1572737 1.2026592
000010 21 0c 97 3f fc e0 9f 3f a2 05 92 3f b1 1c 97 3f
       1.1800576 1.2490535 1.1407969 1.1805631
000020 f5 fc 8e 3f 18 a0 9f 3f ba 16 9f 3f 8c 28 91 3f
       1.1170946 1.2470732 1.2428811 1.1340499
000030 d1 62 91 3f 67 73 98 3f 3b 56 9b 3f a3 33 94 3f
       1.1358281 1.1910218 1.213569 1.1578258
000040 dc 33 9a 3f 78 18 9b 3f e9 cf a1 3f 27 22 9c 3f
       1.2047076 1.2116842 1.2641574 1.2197922
000050 1a a8 8b 3f be d1 8d 3f c2 9c 98 3f 4e 41 9f 3f
       1.0910676 1.1079633 1.1922839 1.2441804
000060 31 44 90 3f 71 6d 98 3f 08 fc a5 3f 10 d8 91 3f
       1.127081 1.1908399 1.2967539 1.1394062
000070 62 39 97 3f e7 21 a0 3f 80 e1 a4 3f f4 ee 95 3f
       1.1814387 1.2510346 1.2881317 1.1713548
000080 5f 16 97 3f 92 aa 8e 3f b3 19 98 3f 41 a7 9b 3f
       1.1803702 1.1145804 1.1882843 1.2160417
000090 c7 a7 8a 3f 8a bf 96 3f 47 1a 91 3f 88 70 97 3f
       1.0832452 1.1777203 1.1336144 1.1831217
0000a0 96 f1 95 3f fe bd 93 3f ce aa 9a 3f 14 ff 97 3f
       1.1714351 1.1542356 1.2083375 1.1874719
0000b0 b2 1c 95 3f 48 59 96 3f 1b 3d 97 3f 72 bb 8e 3f
       1.1649382 1.1745996 1.1815523 1.1150954
0000c0 31 bf 8d 3f 15 7a 9b 3f 42 4b 9a 3f 65 c4 ac 3f
       1.1073972 1.2146631 1.2054217 1.3497435
0000d0 58 f6 94 3f 05 17 95 3f 82 87 90 3f 8d 3d a6 3f
       1.1637678 1.164765 1.1291354 1.2987534
0000e0 f3 89 9e 3f 53 5a 93 3f 5a 18 a5 3f 43 ce 8a 3f
       1.2385849 1.151194 1.2898057 1.0844196
0000f0 da af 93 3f 04 fe 93 3f e6 11 a1 3f b9 32 95 3f
       1.1538041 1.1561894 1.2583587 1.1656104
000100 5b d4 98 3f cf ef 9a 3f e9 fb 9a 3f 78 68 8c 3f
       1.1939806 1.2104434 1.2108127 1.0969381
000110 7d 47 9a 3f 1b ab a3 3f 2a 0f 92 3f 27 84 91 3f
       1.2053066 1.2786592 1.1410878 1.1368455
000120 3d 90 96 3f f9 9d 98 3f 56 89 90 3f 6f 08 9e 3f
       1.1762768 1.192321 1.1291912 1.2346324
000130 f9 59 93 3f 73 0a a1 3f 29 08 a1 3f 3c de 9a 3f
       1.1511832 1.2581314 1.2580615 1.209907
000140 f5 96 98 3f 57 94 92 3f 21 88 96 3f 7a 02 9d 3f
       1.1921068 1.145152 1.1760293 1.2266381
000150 53 f4 9b 3f 2e e5 91 3f 51 f3 8f 3f 43 a4 98 3f
       1.2183937 1.1398065 1.1246129 1.1925129
000160 62 71 90 3f 41 1a 99 3f a4 8e 99 3f 4b 93 9f 3f
       1.1284602 1.1961137 1.1996655 1.2466825
000170 9f e6 a8 3f 44 7d a6 3f 86 34 96 3f 09 2b 95 3f
       1.319538 1.3006978 1.1734779 1.1653758
000180 89 c5 9d 3f 25 13 a3 3f 83 49 9c 3f 14 16 9f 3f
       1.2325908 1.2740217 1.2209934 1.2428613
000190 37 b0 93 3f 29 f1 96 3f 9c a6 a3 3f 24 2f 9e 3f
       1.1538152 1.1792346 1.278522 1.2358136
0001a0 93 5b 95 3f ca bc 91 3f 27 03 94 3f a2 02 a6 3f
       1.1668571 1.1385739 1.1563462 1.2969553
0001b0 73 a9 9c 3f e6 e6 a5 3f 0c c2 a0 3f a5 c1 9e 3f
       1.2239212 1.296109 1.2559218 1.2402846
0001c0 44 7c 90 3f 17 ab 9b 3f 4c fe 9a 3f 38 1f 96 3f
       1.1287923 1.2161587 1.2108855 1.1728277
0001d0 22 99 b4 3f 6f ed 94 3f 87 b0 88 3f 8a 02 91 3f
       1.4109232 1.1634959 1.0678872 1.13289
0001e0 5a 75 aa 3f 3e 25 a3 3f 22 fb 97 3f 44 29 ad 3f
       1.3317063 1.274574 1.1873515 1.3528218
0001f0 8c fb 91 3f 72 a5 a0 3f ee 06 9e 3f 4f af 95 3f
       1.1404891 1.255049 1.2345865 1.1694125

mlp.1.bias f4 [128]
000000 a8 c0 a4 3d 81 91 0b 3b 24 26 06 3d ff c7 76 bc
       0.08044559 0.0021296444 0.032751217 -0.015062331
000010 fc 7d 4e bb ad ec e7 3d 70 bf db 3d c6 02 a8 3d
       -0.0031508198 0.11324439 0.10729873 0.08203654
000020 21 9e a8 3d 11 e5 74 bd 69 ad 95 3d 09 a8 08 3e
       0.08233286 -0.059788767 0.07308466 0.1334535
000030 c1 82 97 3d e7 69 14 bd 35 1c d4 3c f9 82 ac 3d
       0.07397986 -0.03623381 0.025892356 0.084234186
000040 c5 67 bd 3d f5 ff d4 3d b8 6c ff ba dc 5b 23 bd
       0.09248308 0.104003824 -0.0019487357 -0.039882526
000050 ca 8b b9 3d c3 90 48 bd 08 f0 eb 3d 7b 7e 5a 3d
       0.09059866 -0.04896618 0.11520392 0.053343277
000060 e2 f6 88 bd 9a 71 8d 3d a1 44 22 be ad 5e 62 3c
       -0.06687714 0.069064334 -0.15846492 0.013816518
000070 42 62 9a 3d 03 3f 9d bb 1d 7e 3f 3d bb f9 9e 3d
       0.075382724 -0.0047987713 0.04675113 0.07762476
000080 0b b8 1b 3e f3 76 fe 3d 8a 8e 0b 3e ef f0 09 3e
       0.15206926 0.124250315 0.13628593 0.13470815
000090 ab cb 05 3c e6 29 2c 3a 20 82 bd 3d d7 5f d2 3d
       0.008166234 0.00065675227 0.09253335 0.10272186
0000a0 7b cd a6 ba 41 b8 2b 3d ac 1d 14 3e 22 bb 3f bd
       -0.0012726033 0.041923765 0.14464444 -0.046809323
0000b0 4a 2c 3d 3c 89 21 b0 bc 2f e5 94 3d 3b 8d 4d 3d
       0.011546204 -0.021500366 0.07270276 0.050183516
0000c0 b2 22 37 3d 0c 4f 35 3d d3 a4 80 bd 0a ab 12 3e
       0.044710822 0.044264838 -0.06281438 0.14323059
0000d0 f4 3a 20 3d bf 41 a1 3d 06 3c 85 bd ef 08 79 bd
       0.039118722 0.07873868 -0.06505589 -0.060799535
0000e0 62 1b e2 3c ea 28 e2 3d a4 6f ab bd 85 fc 62 bc
       0.027600948 0.1104296 -0.08370903 -0.013854151
0000f0 ab df 00 3d 62 65 06 bc f1 78 94 bc 9d 95 cf 3d
       0.031463306 -0.0082028825 -0.018124076 0.10135958
000100 43 25 a2 3d 60 2f 17 3e 69 67 0d 3e c7 55 b5 3d
       0.07917263 0.14764166 0.13808979 0.08854251
000110 85 90 a9 3d 88 8b 2c 3e 1d 56 22 3e 7b 77 25 3e
       0.08279518 0.16850102 0.15853162 0.1615886
000120 a0 af c5 bc 29 2b d3 3d 41 76 aa 3d 2a 66 2e 3e
       -0.024131596 0.103109665 0.083233364 0.1703116
000130 84 f1 b4 3d 45 01 c9 3c 93 11 13 be 54 22 ba 3c
       0.08835128 0.024536738 -0.14362173 0.022721447
000140 60 2a 3f 3e dd 6b 4b 3d 13 a9 1f 3e 27 0e e4 bd
       0.18668509 0.049663413 0.1559184 -0.11135512
000150 b7 da 56 3c 57 c7 3d bd ad 90 1a 3d 7e 54 fc 3c
       0.013113669 -0.046332683 0.03773563 0.030802008
000160 7f b5 e9 3d 55 ad a7 3d ba c1 77 bc ec 41 44 3d
       0.11411571 0.08187357 -0.015121872 0.04791443
000170 e0 d7 e4 bd 8b 41 02 3d 00 51 f4 3c 12 f3 3f 3d
       -0.111739874 0.031800788 0.02982378 0.04686267
000180 41 b5 7f 3d 87 f1 5d bd 75 c4 00 3e ff c9 dd bc
       0.062428717 -0.054185417 0.12574942 -0.027073858
000190 0e b3 1c 3d df b3 2f 3e 6a 95 11 bd 36 8a 0d 3d
       0.038256697 0.17158459 -0.035542883 0.034555636
0001a0 37 0b 1b 3d b5 6a 40 3d 5b 7b cd 3d 3c 75 03 be
       0.037852492 0.046976764 0.10033294 -0.1283769
0001b0 02 cd f8 3d d2 07 02 3d 72 07 ad 3d 73 82 d7 b8
       0.12148477 0.03174574 0.08448686 -0.00010276297
0001c0 81 80 34 3e e8 a6 b9 3d f7 4d a4 3d bb 30 a1 be
       0.17627145 0.09065038 0.08022683 -0.3148249
0001d0 20 87 0e 3e ff c4 f5 3d 87 e9 01 bb 45 39 d6 3d
       0.13918734 0.12000465 -0.001982303 0.10460142
0001e0 8b fb 6e be 12 a1 89 3c 47 7c 89 3d 27 11 ab 3d
       -0.23338144 0.016800437 0.06713157 0.08352881
0001f0 65 8a 4b 3d 37 fe 10 3e e8 88 28 bd de 5b ba 3d
       0.04969253 0.14159475 -0.04114619 0.090995535

mlp.1.running_mean f4 [128]
000000 84 d4 5a be 4a 9d 77 3e d4 21 b0 3e 5d 72 0e 3f
       -0.21370131 0.24181095 0.3440081 0.55643255
000010 37 bb f0 3b 91 a3 9c bd b4 d3 ad bb 89 41 da be
       0.0073465365 -0.07648385 -0.005304778 -0.42628124
000020 4f 35 96 be 16 e6 5d 3e 74 ad 39 be 8d f8 6b be
       -0.29337546 0.21669802 -0.18132573 -0.23044033
000030 b7 2b f5 3d 87 5d 58 3e bd a8 0a 3c 0e 8b ff bc
       0.119712286 0.21129428 0.008463082 -0.031194236
000040 7b f0 63 be 4e 57 28 3d b4 7c 26 ba 87 dd 98 3d
       -0.22259705 0.041098885 -0.00063509797 0.07464128
000050 a7 2c 08 3e 16 03 fe bd d0 d1 e2 be d0 61 0a bf
       0.13298284 -0.12402932 -0.443007 -0.540555
000060 79 3a b4 be 7f 68 84 3e 0c e4 1a bd 31 54 07 bf
       -0.3520086 0.25860974 -0.03781514 -0.5286284
000070 cc 6f 84 bc ac e9 ec be b1 d8 83 3e 59 1b df 3d
       -0.01616659 -0.46272027 0.2575126 0.10893888
000080 71 61 68 3e ae a0 95 3e 1e 4b 58 3d 41 6a ad be
       0.22693421 0.2922415 0.052806012 -0.33870128
000090 be a5 47 3f 1c 5e 5e be 1e 0e ba 3e f8 92 af 3e
       0.7798728 -0.21715587 0.36338896 0.34291816
0000a0 fa c0 41 3e bc 49 34 3f 6f e3 f9 3e 06 d9 8b 3e
       0.18921271 0.7042501 0.4880633 0.27314013
0000b0 8c d4 13 be a3 a1 98 3d b7 d6 1a 3d 0c 0a 3f 3e
       -0.14436549 0.07452705 0.037802424 0.18656176
0000c0 a5 3a 72 bf f6 90 14 3e 90 47 e0 bd e3 fe c0 be
       -0.94620734 0.14508423 -0.109511495 -0.37694463
0000d0 c5 82 61 3e cb 58 b0 3e 62 75 30 3f 5a b7 21 bd
       0.22022541 0.34442744 0.6892911 -0.0394815
0000e0 af 53 3b bd c6 9c dd 3e 3c 33 74 be 95 c7 50 be
       -0.045734104 0.4328367 -0.2384767 -0.20388635
0000f0 e8 e2 c9 3e 89 ba 3e 3e e3 08 04 be 32 09 0d 3d
       0.39430928 0.18625845 -0.12894015 0.034432597
000100 80 f7 ce be 16 d6 bd bd d9 07 c3 3d a5 9e 25 3c
       -0.40423203 -0.09269349 0.09522981 0.010108625
000110 98 1f d2 3e ab df 75 be 6d 7c fa 3e cd 78 10 bf
       0.4103973 -0.24011104 0.48923054 -0.5643433
000120 90 17 d9 bd 95 a9 93 3e ae 7d 36 3e 39 06 e7 3c
       -0.10600197 0.28840318 0.1782138 0.02820121
000130 c5 a0 17 3f b5 e5 8c 3e 7f 13 79 be 91 b3 8a 3a
       0.5922969 0.27519003 -0.24323843 0.0010582079
000140 57 ee 9a be 16 6c f5 be e1 fe 01 3c 5a bf f7 3d
       -0.30259964 -0.47934026 0.007934303 0.12097044
000150 ca aa 8b bc b4 dd be 3d 7c d5 8b 3e ba 9a 03 3d
       -0.017049212 0.0931963 0.27311313 0.03212998
000160 fd ec c1 be 27 8a fb 3e 14 7f 8e 3e c1 8c aa bd
       -0.3787612 0.4912884 0.27831328 -0.08327628
000170 4d 33 6b be 8a 82 f9 3d 02 2d 63 3c 3a 5b 96 3c
       -0.22968788 0.121831015 0.013865711 0.018354047
000180 7a a2 46 be 5a af 0a be bd 74 ac bd f3 ac a1 3e
       -0.19397917 -0.13543454 -0.084207036 0.31577262
000190 ba 34 1c 3e 5e 69 8d 3e 33 c7 31 3e 88 59 53 be
       0.15254489 0.2761945 0.17361145 -0.20639622
0001a0 d5 ad d1 bd b1 41 27 be 2a f1 1f 3d bc 21 69 be
       -0.10238234 -0.16333653 0.03904835 -0.22766775
0001b0 b1 31 79 bc 45 19 a3 3e b6 34 8c be bc 63 5a 3d
       -0.015209601 0.31855217 -0.27383965 0.05331777
0001c0 e6 f1 99 3e 77 6e 28 3f f0 60 6f 3d 4e 7d 1b be
       0.30067366 0.65793556 0.058442056 -0.15184519
0001d0 32 f3 e0 3e 8a 97 0b be 81 9e f0 3b 35 0b d0 be
       0.43935543 -0.13632026 0.007343114 -0.4063355
0001e0 81 fc 08 bf a4 bd 64 be 37 b9 dc 3d d8 38 d1 3c
       -0.5351029 -0.22337967 0.107775144 0.0255398
0001f0 11 5f 25 bf 12 b9 93 3e f5 92 6c bd 3b e3 2b be
       -0.64598185 0.28852135 -0.057757337 -0.167859

mlp.1.running_var f4 [128]
000000 c8 3e cb 3e e2 eb ad 3e 95 78 9b 3e bc ae 96 3e
       0.39696336 0.33969027 0.30365434 0.29430187
000010 f0 37 c0 3e 76 2b d5 3e bc ca 77 3e 6c 96 a5 3e
       0.37542677 0.4163472 0.24198431 0.32341325
000020 a2 97 98 3e 2a 01 ba 3e 0e a8 c1 3e 48 12 22 3f
       0.29803187 0.36329013 0.37823528 0.63309145
000030 0b 55 4a 3e 7b 14 22 3e af d4 84 3d 40 9c 34 3f
       0.19759004 0.15828125 0.06485879 0.7055092
000040 9e 17 4c 3e 0c dd c4 3e ba 33 1a 3f c7 bd 5d 3e
       0.19930884 0.38449895 0.6023518 0.21654426
000050 1c 30 64 3f 93 31 10 3f 5b 00 16 3e 87 e8 be 3e
       0.8913591 0.56325644 0.14648573 0.3728678
000060 4c 06 6d 3f 41 a3 94 3e 84 3f 19 3e 53 72 07 3f
       0.92587733 0.29030803 0.14965636 0.5290882
000070 1b 70 c7 3e 6d 80 13 3e 00 bf 7e 3e 09 56 4b 3f
       0.38952717 0.1440446 0.24877548 0.79428154
000080 35 13 81 3e 88 32 a2 3e 55 e5 25 3f 42 5b 91 3f
       0.25209966 0.31679177 0.6480306 1.1355975
000090 79 2e b2 3e 8d f7 0f 3e b2 99 d8 3e b8 37 e0 3e
       0.3480108 0.14059277 0.4230476 0.4379251
0000a0 28 c7 13 3e b6 c3 f5 3e 5b cd c3 3e c6 cb fe 3e
       0.14431441 0.48000878 0.3824261 0.49764842
0000b0 76 6b 61 3f 8b d8 97 3e 3d e1 94 3e 7d ef 23 3e
       0.880546 0.29657397 0.29078093 0.16009326
0000c0 8a 40 ac 3e 13 32 97 3e 8a fd d4 3e 73 ba 8c 3e
       0.3364299 0.2953039 0.41599685 0.27486
0000d0 6b 7f 12 3f 2b c6 47 3e f7 85 a1 3e 2b 5d 20 3e
       0.57225674 0.19509189 0.3154752 0.15660541
0000e0 85 5c e3 3d c1 69 63 3e 0b 7a 90 3d e2 6a 1c 3f
       0.11101631 0.2220831 0.07054528 0.6110059
0000f0 6c a1 89 3e 4b 13 8c 3e 27 21 ae 3d 6d 3c 02 3f
       0.26880968 0.2735847 0.08502417 0.5087345
000100 a2 49 8c 3e c8 59 0c 3f 51 af c5 3e 1f 2f 25 3f
       0.27399927 0.54824495 0.38610318 0.64525026
000110 f5 2d 0d 3f ea 62 ff 3e a3 07 cc 3d 9d 8b 9b 3e
       0.5514825 0.49880153 0.09962394 0.30379954
000120 0d d9 6a 3e 35 bd 21 3f ec 4c e0 3e 9b 2b 25 3e
       0.22934361 0.6317933 0.43808687 0.16129915
000130 ec ca 5f 3f e9 ac ad 3e 37 b4 42 3e d1 c8 06 3f
       0.8741901 0.33920982 0.19014059 0.5265017
000140 6a ab b7 3e f4 06 67 3f b3 51 b2 3f a8 b5 34 3e
       0.35872966 0.90244985 1.3931183 0.17647421
000150 c0 d4 87 3e cc 85 8f 3f 6c 60 42 3f e3 a7 83 3d
       0.26529503 1.1212707 0.7592838 0.06428506
000160 0b d4 21 3e 34 da 8f 3e 1c fd 17 3e 0e bb a3 3d
       0.15803544 0.28096163 0.14842647 0.07994662
000170 4e 01 e7 3d f8 66 3e 3e b8 c8 fb 3e fa a7 27 3e
       0.11279546 0.18593967 0.49176574 0.16372672
000180 91 6b ae 3e 28 70 98 3f fd 4f 04 3f c8 ba 2f 3e
       0.34066442 1.1909227 0.5168455 0.17161095
000190 6f 6c 66 3e e9 b9 73 3f c3 d2 48 3f 4d 96 d3 3e
       0.22502302 0.9520555 0.78446597 0.41325608
0001a0 cd 07 a3 3e 49 ac f9 3e 25 d5 a9 3d 59 99 16 3f
       0.3184189 0.48764256 0.08292607 0.5882774
0001b0 2e a5 60 3e 01 81 94 3e e1 9f 42 3f bc 65 df 3d
       0.21938011 0.29004672 0.76025206 0.10908076
0001c0 ae 29 b7 3e 24 3a 0c 3e fa 40 bb 3e 9a a4 47 3e
       0.35773987 0.13694054 0.3657301 0.19496384
0001d0 77 68 53 3e ed e4 b9 3e 4b 1c 0a 3f 56 d0 d4 3d
       0.20645319 0.3630747 0.5394942 0.103912994
0001e0 6f 37 ba 3e 77 cc 67 3e a9 03 37 3e c1 d0 c8 3d
       0.36370417 0.22636591 0.1787249 0.09805442
0001f0 67 7d 13 3e ba d9 c0 3d bd 84 23 3e 65 71 1c 3f
       0.14403306 0.09416528 0.15968604 0.61110526

mlp.3.weight f4 [128, 128]
000000 50 d6 58 bc dc 5d 80 3e f0 8f 24 be ee 88 4a 3e
       -0.01323469 0.2507161 -0.16070533 0.19778797
000010 67 da 99 bd 94 3d c3 3e 02 86 83 bc ca 9d 43 be
       -0.0751236 0.38132918 -0.01605511 -0.1910316
000020 a4 d0 98 bd c4 69 dd be ab c7 d9 bd d5 c5 c6 3d
       -0.0746167 -0.43244755 -0.10633787 0.09705702
000030 2d 57 a0 3d c9 9e ea bd 6b 1f e2 3d 6d f0 07 3e
       0.078291275 -0.11456067 0.11041149 0.13275309
000040 8d da ea bd ca e2 a4 be 15 6d b2 bd a1 d7 1e 3e
       -0.114674665 -0.32204276 -0.08712212 0.15511943
000050 b8 06 c6 bc 00 df fb bd f0 d1 e2 3d 53 72 5a 3e
       -0.024173126 -0.12298393 0.11075199 0.21332674
000060 05 12 98 bd 40 e7 2e 3e 33 df 16 bb f4 a1 a0 bd
       -0.07425312 0.17080402 -0.002302122 -0.0784339
000070 bf 98 6b bd dd c1 f5 3d e1 80 e2 bd 48 f9 b6 bd
       -0.057518717 0.11999867 -0.11059738 -0.089342654
000080 ed b8 09 bc d7 ae 45 be 5d 7f 76 bd f3 8f 19 3e
       -0.008405906 -0.19304977 -0.060180057 0.14996319
000090 22 d4 02 3e 7b 36 9d be 94 42 97 bd ab 3a 72 bd
       0.12776235 -0.30705628 -0.07385746 -0.05913798
0000a0 8c 5e 97 be 0a 91 46 3d 44 f7 0e 3e 5d ab b8 bd
       -0.2956432 0.048478164 0.13961512 -0.0901706
0000b0 32 df 12 bd ee e6 cc 3d 2b 3c ee bc c3 43 9a bc
       -0.035857387 0.10004984 -0.029081425 -0.01883114
0000c0 6c 58 ae bd a6 38 70 3e 4d d6 32 bd 7a 88 0c 3e
       -0.08512959 0.2345911 -0.043661404 0.13723937
0000d0 b0 6e 37 3e a7 9a 84 3d 9b 12 28 3d 0f 4e ca be
       0.17913318 0.0647481 0.04103337 -0.3951268
0000e0 3c 4f dc 3d a6 9c f7 bd d6 04 0d be bd 3a cd bc
       0.107573 -0.12090425 -0.13771376 -0.025052423
0000f0 3b f7 0e be 05 c8 b1 3d 41 18 bb bc ae 7c cc bd
       -0.13961498 0.08680729 -0.022838714 -0.09984718
000100 88 b0 85 3d c9 cc 78 bd 59 a3 c0 3c 32 6c 52 3e
       0.06527811 -0.060742173 0.02351539 0.20549086
000110 85 f5 3b be 50 a2 7c bd c1 a7 3f 3e c7 92 0e bd
       -0.18355377 -0.06167823 0.18716337 -0.034807947
000120 09 85 3f 3d 79 a5 6b bd d0 c9 52 3c 79 a2 17 3c
       0.04675773 -0.057530854 0.012865499 0.009255045
000130 53 03 db bb 22 da 29 3e 2b 17 b8 bc f3 51 71 bd
       -0.006683746 0.16587117 -0.022471985 -0.058916043
000140 5f 5c 8e bc fa 27 5c 3e 74 b6 cc 3d f8 85 33 bd
       -0.01737803 0.21499625 0.09995738 -0.043828934
000150 26 6f 7c be 42 5f a0 3d 5d ac 09 3d 52 ea ba 3b
       -0.24651775 0.07830669 0.033611644 0.0057042027
000160 43 f2 8e be 27 e5 ae 3d 2c 1c 34 3d 1b 5f 13 be
       -0.27919206 0.08539801 0.04397218 -0.14391749
000170 93 84 83 3d 13 36 6b 3e be 70 66 bd a0 21 67 3d
       0.06421771 0.22969846 -0.056259863 0.05642855
000180 f7 21 4d be df a3 9d be 69 72 5a be 56 cb 48 3e
       -0.20032488 -0.30789086 -0.21332707 0.19608817
000190 a4 ef 73 be 92 69 27 ba 8a 56 95 bd 73 93 a0 bd
       -0.23821884 -0.00063862756 -0.07291897 -0.07840624
0001a0 69 40 d4 3c 02 20 59 be 5a d4 19 be 1a 44 e8 bd
       0.02590962 -0.21203616 -0.15022412 -0.11341114
0001b0 30 e0 ef bc 93 25 59 bd 3c d3 03 3d 8d ad 96 bd
       -0.029281706 -0.05301435 0.03218387 -0.07357321
0001c0 b8 3c d7 bd c2 cd 87 3d c1 d7 90 3d 8d ab a2 bb
       -0.10509628 0.06631042 0.07072402 -0.004964298
0001d0 01 01 55 3e bb e1 3a bd d3 be 33 3e 08 0e ee bc
       0.20801164 -0.04562543 0.17553262 -0.029059425
0001e0 04 71 81 3e af 2c ab 3c 44 33 84 bd 62 ba 87 be
       0.25281537 0.02089533 -0.06455091 -0.26509386
0001f0 65 51 bc bc d9 44 3a 3e 20 1e 1f 3e 65 5a 70 3c
       -0.02298803 0.18190326 0.15538836 0.014669989
000200 a7 39 80 bc 02 d5 36 3e 5e 09 a1 bd ae 83 84 bd
       -0.01565249 0.17854694 -0.07863115 -0.064704284
000210 f5 ab 69 bd 0e 77 02 3e 91 3a d0 3b 5c eb 1a 3e
       -0.057048757 0.12740728 0.006354638 0.15128845
000220 7a 87 32 3d 8e 65 3b 3e ab c7 9b bb b3 dc e5 bd
       0.04358623 0.18300459 -0.004754027 -0.11223736
000230 65 93 ac 3d 41 4d bb 3d 0d 11 8f 3c 0a 4c 93 bd
       0.08426551 0.091455944 0.017464185 -0.07192238
000240 2d 08 00 3d c2 8d bc 3d d1 0c 3a 3e 3a c1 4f 3d
       0.031257797 0.09206726 0.18168952 0.050721385
000250 9b b5 9e bb f2 a9 08 be 64 83 a8 3d ff 46 70 bd
       -0.0048434264 -0.13346079 0.08228186 -0.058661457
000260 f1 97 e7 3c a0 d7 5a 3b c0 46 1e bd b8 d2 9a b9
       0.028270693 0.0033392683 -0.03864169 -0.00029530167
000270 65 2d 44 3d 2f 94 14 3e 95 01 9d bd a5 5c 48 3d
       0.047894854 0.14509653 -0.076663174 0.048916478
000280 05 61 ef 3d ec cc 92 3d 0d cb 23 3d 41 00 3d bd
       0.11688427 0.07167992 0.039988566 -0.04614282
000290 5f 68 74 3d fd 47 a8 3d 3d d9 af bd ff 3e 6b bb
       0.05966985 0.08216856 -0.08586357 -0.0035895703
0002a0 90 b4 c9 bd 44 04 c3 3d 1c f9 09 bd 30 98 14 3e
       -0.09848893 0.09522298 -0.033684835 0.1451118
0002b0 87 6e a5 3c 47 fa f5 bd 41 66 ac 3d b1 70 21 3e
       0.020194305 -0.12010627 0.08417941 0.15765645
0002c0 82 cf 82 bd a7 00 5d 3e 0c 81 1c 3d 39 d5 f4 3c
       -0.06387235 0.2158228 0.038209006 0.029886829
0002d0 c5 7b 50 bd 2a e3 aa bd 7d 9a d1 3d 0d 26 d2 3a
       -0.050899286 -0.08344109 0.102345444 0.0016033069
0002e0 eb 84 e0 bc 96 bc aa bd f6 f5 c9 3d d6 e4 31 bc
       -0.02740713 -0.08336751 0.098613665 -0.010857781
0002f0 e8 c4 83 bd c6 8f 00 bd 9d 75 4f 3d 02 97 58 3c
       -0.06434041 -0.031387113 0.050649274 0.013219597
000300 df 32 30 3d 9b ce 83 bc af dc aa 3d 06 a6 c5 3d
       0.043017264 -0.016089728 0.08342873 0.09650807
000310 5e 35 80 3d 44 93 ff bd 85 51 61 3c e1 24 80 3d
       0.06260179 -0.124792606 0.013752346 0.06257034
000320 57 56 13 bd d6 60 01 3e e1 91 07 3b 5d 7c d1 3d
       -0.035971012 0.12634596 0.0020686316 0.102287985
000330 4d 17 30 3e 14 be 25 3e e9 4f bc bd c2 4a 71 3d
       0.17196389 0.1618579 -0.09194929 0.058909185
000340 ed 63 b6 bc 16 be 95 bd a6 ce 0c bd ca 07 10 3e
       -0.022264445 -0.07311647 -0.034376763 0.14065471
000350 f8 fa 0f be 7a 0e 9c bd ec 8e 77 3c 07 b5 87 3c
       -0.1406058 -0.07619949 0.015109759 0.016565813
000360 b3 32 f5 3b 16 e7 82 bb 99 de 70 3c 70 22 78 3d
       0.0074828505 -0.0039948327 0.014701509 0.060579717
000370 e3 67 a1 3d 8a 67 8f bc ee d3 ac 3c b5 dd 73 bc
       0.07881143 -0.017505426 0.02109715 -0.014884402
000380 f2 df ed 3d 6c 7f 6b 3e ab aa 4c 3e a3 da 09 3e
       0.1161498 0.22997826 0.1998698 0.1346231
000390 3f 5e 56 3d ee 41 85 3c 43 58 2c 3d 31 2f 0a 3d
       0.052335974 0.01626679 0.04207636 0.03373641
0003a0 c6 04 13 be 07 a0 35 3e 30 87 bf 3d 9a a8 a5 3c
       -0.1435729 0.17736827 0.09351957 0.020221997
0003b0 ff d1 48 3d ca 5f 55 3d 72 96 17 be 62 f6 88 bd
       0.049028393 0.052093305 -0.14803484 -0.06687619
0003c0 a6 2a 63 3d ac 66 a5 bd 4e 3f 12 3e cd 4a 64 3d
       0.055460595 -0.08076224 0.14281961 0.055735398
0003d0 49 b6 85 3d 1f b0 30 3e fc d6 6d 3d a0 5c 91 3d
       0.06528909 0.17254685 0.058066353 0.07097745
0003e0 af b3 11 3d 9b e2 0c 3d b7 97 c5 3c 93 34 96 bc
       0.03557175 0.034395795 0.024120195 -0.018335616
0003f0 91 03 82 3d fb 25 23 3d e9 ba 0b be b9 91 40 3c
       0.063483365 0.039831143 -0.1364552 0.011753493

mlp.3.bias f4 [128]
000000 07 1e a4 bd a8 5e 80 3d 64 f9 8c 3d f6 b9 9c 3c
       -0.0801354 0.06268054 0.06883505 0.019131642
000010 37 6e 68 3d 9e d4 01 3c 31 90 53 3d 2b 88 91 bd
       0.056745734 0.007924227 0.051651184 -0.0710605
000020 cf f7 c1 bc d3 6e b8 bb f7 e5 16 bc ea 46 85 3d
       -0.023677735 -0.0056284457 -0.009210101 0.065076664
000030 0d b5 14 bd 1b 62 ff bc fd 97 28 bd 00 17 38 3d
       -0.036305476 -0.03117471 -0.041160572 0.04494381
000040 ea a8 23 3d 22 d6 97 bd ad 2f b1 3c eb 0c 9e bb
       0.03995601 -0.074138895 0.021629179 -0.0048233173
000050 54 a5 8a bd 27 f9 20 bd a1 68 90 bd 07 fb e4 bc
       -0.06769815 -0.03930011 -0.070512064 -0.02795173
000060 2c 91 cf 3d 88 55 7b 3d 9c e8 e8 3d ef ab 2f 3d
       0.10135111 0.061360866 0.11372492 0.042888578
000070 d4 d9 69 bd f3 47 9e 3d c9 fc 91 3d e8 ca 88 bd
       -0.057092503 0.07728567 0.07128293 -0.06679326
000080 6b 84 29 bd 30 f1 c9 3b 2a ea 13 3d 77 de d5 3d
       -0.04138605 0.006162785 0.036111988 0.104428224
000090 82 8a 70 3c 27 39 8c 3a be 54 d0 3d 81 59 87 3d
       0.01468146 0.0010698185 0.10172413 0.066088684
0000a0 a7 cd 9e 3a fe 69 0e 3d 57 0e 06 3d 40 b5 2c 3c
       0.0012115733 0.03476905 0.03272852 0.01054126
0000b0 0c 99 c7 3c 4a f7 e3 bd 9e 8b 8a 3d 43 b1 aa 3d
       0.02436497 -0.11131151 0.06764911 0.08334591
0000c0 8b f3 ee 3d b4 6c 1f 3e 1d 39 58 3d ea 43 fb 3d
       0.11667546 0.1556881 0.052788842 0.12268813
0000d0 c1 93 b2 3d ce 5c 78 bd 9f 11 f8 3c 28 6c 04 be
       0.08719588 -0.06063538 0.03028184 -0.12931883
0000e0 fe c6 84 3d 9d b9 4f bc c4 c8 3e bc 55 dc dc bc
       0.06483267 -0.012678531 -0.011644546 -0.026960531
0000f0 b8 e7 ea 3d fd bd 79 3d 9a 34 b9 bd 2a 44 52 3c
       0.11469978 0.060972203 -0.09043236 0.012833634
000100 cb 38 72 bd 87 62 3f bd 81 d4 79 bc c3 d9 67 bd
       -0.059136193 -0.046724822 -0.015248419 -0.056604158
000110 8e f8 d0 bc 31 1b f8 3d b5 46 8b 3d 69 e9 ed 3a
       -0.025509145 0.12114561 0.06800596 0.0018151227
000120 42 35 a4 bd f6 1f 3f 3d 40 61 70 3d 7f 78 a4 3d
       -0.080179706 0.04666134 0.058686495 0.08030795
000130 0d bf 42 bd f1 e1 aa 3c 5f ec 13 bd a0 ef cf 3d
       -0.04754548 0.02085969 -0.036114093 0.10153127
000140 29 83 cf bc 3e a7 8a 3d 96 72 a8 3c fc 89 99 3c
       -0.025331097 0.0677018 0.020562451 0.018742554
000150 e2 26 b2 bd c5 e7 80 bc d8 5c 8f 3d a7 65 0d bd
       -0.086988226 -0.015735516 0.070001304 -0.03452077
000160 8e 66 7b 3d 9c f5 a3 3d 55 d2 08 bc 5d 6b d3 bb
       0.0613771 0.08005831 -0.008350928 -0.0064520077
000170 5f 39 1e bd 3f 26 85 3d 40 9e 6b bc 84 46 c0 bb
       -0.038628932 0.065014355 -0.014380991 -0.005867781
000180 9a fc c1 bd 28 4c 11 3d e3 f1 b4 bb e8 7b ec 3a
       -0.09472008 0.03547302 -0.005521999 0.0018042298
000190 f2 e7 bf 3d 79 cc 06 bc 5c 9f c1 3c be ba 85 bb
       0.09370412 -0.008227461 0.023635559 -0.0040810993
0001a0 db 38 98 3d dc e2 09 3e f2 c4 11 3c 74 1f f8 39
       0.07432719 0.13465446 0.008897053 0.0004732568
0001b0 6b 83 07 bd b1 d9 1a 3b 26 e2 2a 3c ec 36 68 3d
       -0.033084314 0.002362829 0.010429895 0.056693003
0001c0 5f e3 42 bc 64 12 57 3d 7c 72 9c bd 07 d9 83 3d
       -0.01189503 0.052507773 -0.07639024 0.06437879
0001d0 66 2b 0a 3d 70 74 b3 bc bd 38 67 3c 94 d6 08 bc
       0.033732794 -0.021906108 0.014112649 -0.008351941
0001e0 b0 98 7c 3d 0e b7 68 3d 99 43 2a 3d 12 fa 4d 3b
       0.06166905 0.0568152 0.041568372 0.003142957
0001f0 29 97 9e 3d e8 4c 34 bd f4 6f 11 3d 6b 52 b9 3d
       0.07743675 -0.044018656 0.035507157 0.09048923

mlp.5.weight f4 [4, 128]
000000 62 75 41 be f1 de 19 bd 5c ae c1 bd a5 aa 32 bd
       -0.18892434 -0.03756613 -0.094570845 -0.04361977
000010 97 a4 33 be 16 05 02 3e f8 ac 36 3e 45 dd 04 3d
       -0.17543255 0.12697253 0.1783942 0.03243758
000020 53 ae 24 3f 04 62 ec bd f7 ce d9 bd 3a 5f 63 bd
       0.643285 -0.115421325 -0.106351785 -0.055510737
000030 60 93 dc 3d cf 59 54 be 83 e2 10 bd 2a 51 e2 3d
       0.10770297 -0.20737384 -0.03537227 0.11050637
000040 67 33 1b 3e 78 af 80 bd e9 71 8a bd 3d d5 07 3d
       0.15156327 -0.06283468 -0.06760008 0.033162344
000050 64 6f 05 3e cb ed 83 bd af d1 15 3e 23 44 fd bc
       0.13030773 -0.0644184 0.14630769 -0.03091628
000060 92 65 d2 3c 8f 1d be bd b2 a0 81 bd ca 47 a7 3e
       0.025683198 -0.092829816 -0.06329478 0.32671958
000070 6f e5 09 be ac 9b 49 bd 3e c0 8d 3e 01 a0 12 be
       -0.13466428 -0.049220726 0.27685732 -0.14318849
000080 d8 a1 fb 3e 2a a3 54 bd 79 f5 01 3e 1f cb 01 3f
       0.49146914 -0.051913418 0.12691297 0.50700563
000090 19 5d e7 bd 80 d5 b5 3e c0 1c 39 be 8e bb b0 bd
       -0.11297054 0.3551445 -0.18077374 -0.08629523
0000a0 97 c2 47 3d 92 b1 8d 3e 68 4b 95 bc 0b 7d eb bd
       0.04876956 0.27674538 -0.018224433 -0.114984594
0000b0 5d 91 63 bc db 14 a5 3d 27 f8 a3 3e ed 11 0c 3c
       -0.013889638 0.080606185 0.32025263 0.008549196
0000c0 3f ff 81 bd e1 ea b7 bd 4c d4 b6 3d 99 1c 89 be
       -0.063475125 -0.089803465 0.08927211 -0.2677963
0000d0 02 2f 0b 3e 48 29 36 be 0b 7d 21 3e c7 ca 4a be
       0.13592151 -0.17789185 0.15770356 -0.19803916
0000e0 c6 66 3f bd b8 ec e4 bd 4f 99 67 3e 36 33 21 3d
       -0.04672887 -0.11177963 0.22617076 0.03935548
0000f0 95 1d ab 3d 11 07 05 3f 7c c4 24 be ea 0a 8b be
       0.08355252 0.5196391 -0.16090578 -0.27156764
000100 23 42 86 bc dc 13 45 3f 79 0a bf 3d 60 08 cf bd
       -0.016388958 0.7698343 0.093281694 -0.10109019
000110 6b 30 09 3d 20 ae ad bd e6 89 23 3e e2 4d ca bc
       0.03349344 -0.08480477 0.15970573 -0.02469534
000120 01 b1 9c be 12 11 05 be e0 e3 e5 3d e5 63 d1 3d
       -0.30603793 -0.12994793 0.11225104 0.102241315
000130 d5 44 d5 bb 20 7e 97 be 15 34 47 bd de af 96 3d
       -0.0065084496 -0.29588413 -0.048633654 0.07357763
000140 24 89 ad bd 4b c4 e9 3d 43 16 a5 bd 8b 6a 56 be
       -0.08473423 0.11414393 -0.08060887 -0.2093908
000150 67 2c a3 3e 98 5a c2 3d d7 41 b5 be 4a 19 f8 3d
       0.31869814 0.09489936 -0.35401794 0.121141985
000160 e9 c1 ad bd f8 7a 30 3e e7 f1 bb bd e5 45 43 3b
       -0.08484251 0.17234409 -0.091769986 0.00297963
000170 df b3 ea bd d3 65 cd 3d 33 e4 a1 3e b9 67 0e be
       -0.11460089 0.10029187 0.31619415 -0.13906755
000180 7f 61 54 be ed dd d7 bd 55 b9 b3 bd c8 34 8e 3e
       -0.20740317 -0.10540376 -0.08775584 0.27774644
000190 b4 ad 51 3e 47 7e 96 3d 6a 1a 15 be 8f 32 aa bd
       0.20476419 0.07348304 -0.14560857 -0.083104245
0001a0 d5 4a e6 3c 22 9d ab 3e d1 df 71 be 84 7c 02 be
       0.028111855 0.3351832 -0.23620535 -0.12742811
0001b0 08 6e 5d 3e 72 c6 c2 bd a1 6d c9 3e 14 78 41 3e
       0.21624005 -0.09510507 0.39341453 0.18893462
0001c0 3b 60 ad 3c 51 26 fa 3d e6 d5 c2 bd a0 eb 36 be
       0.02116405 0.122143395 -0.09513454 -0.17863321
0001d0 83 d7 64 3e cb 9d 7e bd 1e a3 3e 3e 84 5e 7e bd
       0.22347836 -0.0621622 0.18616912 -0.062101856
0001e0 db 30 71 3e 45 1d 04 3e f0 b8 e8 3d 33 90 28 3c
       0.23553793 0.1290179 0.11363399 0.010288286
0001f0 f2 cf d0 bd 50 ee 5f 3d 98 38 13 bd d2 61 dc bd
       -0.101959124 0.054670632 -0.035942644 -0.10760845
000200 6f 94 9f be b7 56 61 3c 7b 19 ad 3d 0e 11 02 be
       -0.31167933 0.013753585 0.08452126 -0.12701818
000210 b4 8d c2 3d 97 c7 9f be 08 53 1e 3c 71 e0 35 be
       0.09499684 -0.31206962 0.009663351 -0.17761399
000220 f7 07 48 3c 7c ca b2 3d 63 4a 09 be 3c ed af be
       0.01220893 0.08730027 -0.13407283 -0.34360683
000230 00 e3 81 bc d7 77 02 bd 67 31 f0 bd 7b 13 a6 bc
       -0.015855312 -0.03185257 -0.11728173 -0.02027296
000240 93 61 bf bd c4 13 b9 bc 0a 1a fc 3d 01 99 17 3d
       -0.09344783 -0.022592433 0.12309654 0.03701115
000250 98 d0 11 3d 43 d6 19 be ef 12 63 bd c9 0c ec bd
       0.03559932 -0.1502314 -0.05543798 -0.11525876
000260 d2 af 64 3b e1 a8 97 bd 50 e2 b5 bd 13 1c d7 bd
       0.0034894836 -0.07405258 -0.08881056 -0.105034016
000270 41 79 14 3e 21 33 36 3d ce 84 a2 bc 9d 57 ed bd
       0.1449938 0.044482354 -0.019838717 -0.115889765
000280 54 0f 5b bd 32 de b3 3d 85 96 be 3d ce 37 2f 3e
       -0.053481415 0.08782615 0.09306053 0.17111132
000290 24 f1 c3 3d 41 a8 dc ba 5b b9 07 3e 9e 8d 1a 3e
       0.09567478 -0.0016834812 0.13254301 0.15093085
0002a0 94 af b5 3d 5b c5 9b 3d 8a 49 d0 bd 8a ba 50 3d
       0.088713795 0.07606002 -0.101702765 0.050959148
0002b0 d6 55 08 bd b5 cb 81 3e 94 37 2d 3d 40 47 0d bd
       -0.033284985 0.2535073 0.04228933 -0.034491777
0002c0 e9 b6 26 3e eb 44 1e 3e bf 0d 7a be 3f 17 ae bd
       0.16280712 0.15455978 -0.24419306 -0.085005276
0002d0 7d 55 2d 3d 74 89 08 3d 7c 24 b8 3d 63 84 3d bf
       0.042317856 0.03333421 0.08991334 -0.7403013
0002e0 15 40 84 3d 7a 4e d9 be 19 40 90 3d 5f 11 f3 bd
       0.06457535 -0.42442685 0.07043476 -0.11868548
0002f0 a5 bd 2b bd c2 7e a0 bd 63 45 be be 07 c3 7c be
       -0.041928906 -0.07836677 -0.37162313 -0.24683772
000300 a1 6c 11 be 1b f8 97 bd 04 08 98 3b ae 9c d0 bd
       -0.14201595 -0.07420369 0.0046396274 -0.10186134
000310 4e 45 2b 3c 3e 23 ab 3d 9e a2 82 bc 30 7b 98 bd
       0.010453535 0.08356331 -0.015946683 -0.07445371
000320 66 8e da bd 25 aa fb bd 34 39 e7 3d 1b 36 57 bc
       -0.106716916 -0.12288312 0.112902075 -0.013135458
000330 ce 4a 28 3e 79 ae 9a be e7 c3 7a be b1 b0 aa 3d
       0.16434786 -0.30211237 -0.24488793 0.083344825
000340 68 ac 78 3e 33 7e ca be ad b5 11 be 28 20 01 be
       0.24284518 -0.39549407 -0.1422946 -0.12609923
000350 1d c0 17 be ce 8d c5 be 13 18 63 be a7 f4 82 3d
       -0.14819379 -0.3858475 -0.22177152 0.0639432
000360 ee 17 82 3d 5e 39 72 bc b8 16 f6 bd 40 94 b8 bd
       0.063522205 -0.014784185 -0.12016052 -0.090126514
000370 46 d0 2e bd ae 73 3d 3e 58 54 c9 be 99 7a 07 be
       -0.042679094 0.1850116 -0.39322162 -0.13230361
000380 a8 dd 0f be ef be f5 3d eb a0 6c bd c5 54 c0 3e
       -0.14049399 0.11999308 -0.05777065 0.37564674
000390 5e bb 0f 3e 6e 59 e7 bc f1 76 e5 bd 2a a2 44 be
       0.14036319 -0.028240886 -0.11204327 -0.19202486
0003a0 88 f5 17 3e bd 14 fc bc 9f ff 0f be d7 eb c9 3c
       0.14839756 -0.030771608 -0.14062355 0.02464859
0003b0 b9 5f 4b 3e 6a 02 12 3d 25 66 ce bd 05 bb 96 bd
       0.19860734 0.035646833 -0.10078076 -0.0735989
0003c0 97 4f e0 bc c8 13 39 3d 3f f4 9c be ea fa f6 bd
       -0.027381701 0.04518488 -0.30655095 -0.12059577
0003d0 b4 c4 c1 bc 12 bc b3 bc 92 77 b7 3c fb ed 16 3e
       -0.023653366 -0.021940265 0.022395883 0.1473922
0003e0 c0 47 d4 bc 17 08 29 be f4 79 82 3c 08 da 0a be
       -0.02591312 -0.16506992 0.015927292 -0.13559735
0003f0 8e 35 54 bd 18 43 03 3d 15 8c 87 3c e6 ec 46 bd
       -0.051808886 0.032046407 0.016546289 -0.048565768

mlp.5.bias f4 [4]
000000 ab 37 b2 3d 36 15 cb bc 73 da 8a 3d a4 fe 20 3d
       0.08702024 -0.024790388 0.06779947 0.039305344
