ddpg_actor_model_weights.pth (torch, 92020 bytes, 10 tensors)

mlp.0.weight f4 [128, 33]
0	0xbd8470fc	-0.064668626
1	0x3e1b1521	0.15144779
2	0x3d63422c	0.05548303
3	0x3d82cbbf	0.06386518
4	0xbd019913	-0.031640124
5	0xbcfeeb54	-0.031118073
6	0xbd1e84dc	-0.038700923
7	0x3c263895	0.010145326
8	0x3cee63ff	0.029100416
9	0xbcdd3557	-0.027002973
10	0xbd0f5d56	-0.03500112
11	0x3dac0e99	0.08401222
12	0x3c894e65	0.016761014
13	0x3d000e32	0.031263538
14	0xbd3846e8	-0.044989496
15	0xbd121da4	-0.0356728
16	0xbdc55107	-0.09634595
17	0xb9a185e9	-0.00030808084
18	0x3bd3698f	0.0064517925
19	0xbce51a7d	-0.027966732
20	0xbbc9c8bb	-0.006157962
21	0x3a8e3088	0.0010848204
22	0xbcf1d473	-0.029520249
23	0xbc87c17f	-0.016571758
24	0xbd09f91e	-0.033684842
25	0x3d4e66ad	0.050390888
26	0x3d20bc36	0.039241992
27	0xbd2deaa7	-0.04246011
28	0x3c85bcda	0.016325403
29	0xba18c4c1	-0.00058276585
30	0xbd08ec69	-0.033428583
31	0x3c16121e	0.009159593
32	0x3e2c4dd1	0.1682656
33	0x3c100bc5	0.008791869
34	0x3d071c54	0.032986
35	0x3d6e280d	0.058143664
36	0x3d101bd2	0.03518278
37	0x3d636876	0.055519544
38	0xbdb48846	-0.088150546
39	0x3c981359	0.018563913
40	0xbc57082e	-0.013124509
41	0x3e1ffb2a	0.15623155
42	0xbdc5963d	-0.09647796
43	0xbd6da791	-0.058021132
44	0x3c85d53d	0.016337031
45	0xbbcf6ea1	-0.0063303267
46	0x3d749ef4	0.059721902
47	0xbd994507	-0.07483869
48	0xbdd7665f	-0.105175726
49	0xbb855ea8	-0.004070122
50	0xbca2a379	-0.01985334
51	0x3b890562	0.00418155
52	0x3b4d9dd9	0.0031374602
53	0x3cca117d	0.024666542
54	0xbe1b90c4	-0.15191942
55	0xbc99643a	-0.01872455
56	0xbc52a889	-0.012857565
57	0x3d2c11bb	0.042009097
58	0xbd92e60d	-0.07172785
59	0x3cc96fcd	0.024589444
60	0x3d3920ec	0.045197412
61	0x3c881a22	0.016614024
62	0xbd10d697	-0.0353609
63	0x3c9ca94f	0.019123701
64	0x3d2da335	0.042391974
65	0xbd7e853f	-0.062138792
66	0x3d240d08	0.04005149
67	0xbd1f56ce	-0.038901143
68	0x3c906aae	0.017628994
69	0x3d592ed0	0.05302316
70	0xbe02a631	-0.1275871
71	0xbbf9b67c	-0.007620631
72	0x3b9dd7fa	0.004817006
73	0x3d609443	0.054828893
74	0x3cb8769e	0.022517499
75	0xbdc7c6cb	-0.097547136
76	0xbb87b256	-0.0041411323
77	0x3cadc2e1	0.02121109
78	0x3d1c6b88	0.038188487
79	0xbcdb6d5b	-0.026785543
80	0x3e014f77	0.1262797
81	0xbdb1469a	-0.08656044
82	0x3d372fc9	0.044723306
83	0xbd6b986d	-0.05751841
84	0x3c92f29b	0.017937949
85	0x3c1ce8bb	0.009576972
86	0xbd2ccd3b	-0.04218791
87	0xbd171f3c	-0.03689502
88	0x3cdc8514	0.026918925
89	0xbc570402	-0.013123514
90	0x3d38bdb3	0.045102786
91	0xbda62f93	-0.08114543
92	0x3c217b41	0.009856046
93	0xbbc1a8cd	-0.005910015
94	0xbc9363f7	-0.017992003
95	0xbc396480	-0.011315465
96	0x3d15ee23	0.036604058
97	0xbc787f3b	-0.015167053
98	0x3e370a59	0.17875041
99	0xbc23ce21	-0.009997875
100	0xbd22e948	-0.039773256
101	0x3d01aaeb	0.03165714
102	0xbd6da6b3	-0.058020305
103	0x3dd753ae	0.105140075
104	0x3c93cf40	0.01804316
105	0x3cd972be	0.026543971
106	0xbd5dbd1f	-0.054135438
107	0xbd4a3cef	-0.049374517
108	0x3d1a26a1	0.037634496
109	0xbc276f92	-0.0102194715
110	0x3d31f74e	0.04344874
111	0x3cfd162b	0.03089436
112	0xbd02ef97	-0.031966772
113	0x3d762b5b	0.06009994
114	0xbd5a8132	-0.053345867
115	0x3d914012	0.070922986
116	0x3c23dd95	0.01000156
117	0xbc4bead4	-0.012446124
118	0xbcd66f02	-0.02617598
119	0x3d11a967	0.035561945
120	0x3c82d06f	0.01596853
121	0xbdbbb235	-0.0916485
122	0xbdf15359	-0.117834754
123	0x3d23eec0	0.04002261
124	0x3d3e30fe	0.04643344
125	0x3d62ed14	0.055401877
126	0xbcb530e7	-0.022118045
127	0xbce9eb40	-0.028554559
128	0x3d5a4d39	0.0532963
129	0xbd94f2f6	-0.072729036
130	0xbd0a9d0b	-0.033841174
131	0x3d902894	0.0703899
132	0x3d5acfa6	0.053420685
133	0x3d59bdbc	0.05315946
134	0x3d3bac12	0.045818396
135	0xbdd77d8b	-0.10521992
136	0x3db704dd	0.089364745
137	0xbdaaaaa7	-0.083333306
138	0x3c9b5052	0.018959198
139	0x3ccee82e	0.025257196
140	0xbcb85d3a	-0.022505391
141	0xbe0fc6a0	-0.14040613
142	0xbd9429e9	-0.07234556
143	0x3d65bc19	0.056087587
144	0x3bddfc35	0.00677445
145	0xbcd7af0d	-0.026328588
146	0x3db05d8d	0.086115934
147	0xbd4f881f	-0.050666925
148	0x3d3e5eb5	0.04647704
149	0xbcaf1acd	-0.021375084
150	0x3a57b469	0.00082284823
151	0x3d60f089	0.054916892
152	0xbdb36b45	-0.087606944
153	0x3a691c68	0.00088924775
154	0x3d02cf74	0.031936124
155	0xbe111ec7	-0.14171897
156	0xbb80267b	-0.003910837
157	0xbdea13f1	-0.11429585
158	0xbccc0192	-0.024903093
159	0x3be0318c	0.006841844
160	0x3ca7dc37	0.020490749
161	0xbd8d3f08	-0.06896788
162	0xbd8e24fb	-0.06940647
163	0x3d85c361	0.06531406
164	0xbd39cf59	-0.045363758
165	0x3b3bcbe1	0.0028655457
166	0x3d6d5303	0.057940494
167	0x3da2cf0b	0.079496466
168	0xbd1a8008	-0.037719756
169	0x3ca480c9	0.02008094
170	0xbb41db46	-0.002958016
171	0x3cd1b0bb	0.025596967
172	0xbc39a273	-0.011330235
173	0x3d20d8f0	0.039269388
174	0x3cffdb97	0.031232638
175	0x3d2d85d4	0.042363957
176	0x3c614517	0.013749382
177	0x3c90d68f	0.017680435
178	0x3dffef10	0.124967694
179	0x3cce6e56	0.025199097
180	0xbda3b212	-0.079929486
181	0x3d237537	0.039906707
182	0xbd6ddcc0	-0.05807185
183	0xba7000bd	-0.00091553834
184	0x3ccddc89	0.025129573
185	0xbd0e356d	-0.03471892
186	0x3d614233	0.054994773
187	0xba84958e	-0.0010115372
188	0x3d4fd716	0.05074223
189	0x3cbe4ff9	0.023231493
190	0x3c286119	0.010277056
191	0xbdc79077	-0.09744351
192	0xbb9bf471	-0.0047593643
193	0xbcb28642	-0.021792535
194	0xbd95ac28	-0.07308227
195	0x3d27658f	0.04086834
196	0xbc02520b	-0.007954131
197	0x3e81dafd	0.25362387
198	0x3dfe2ad8	0.124105155
199	0xbe013a38	-0.12619865
200	0x3d0cb784	0.0343547
201	0x3d3c1a36	0.045923434
202	0x3c611164	0.013737056
203	0xbdf8e986	-0.12153916
204	0xbd034d5a	-0.03205619
205	0xbced10f2	-0.028938744
206	0x3cf0f8ae	0.029415455
207	0xbcedf727	-0.029048515
208	0x3cb4bb8c	0.022062086
209	0xbd41ee82	-0.0473466
210	0x3ca37335	0.019952396
211	0xbe004e19	-0.12529792
212	0x3d655821	0.05599225
213	0xbd3c0aea	-0.045908846
214	0xbca238bc	-0.019802444
215	0x3b8e7de2	0.0043485025
216	0x3dca1126	0.09866552
217	0x3b9dffe7	0.0048217657
218	0x3d1db26b	0.03850023
219	0xbd56d88c	-0.05245261
220	0xbcbc0e3a	-0.022956003
221	0xbd923c21	-0.07140375
222	0x3d4b3ee8	0.04962054
223	0xbb687642	-0.0035470878
224	0x3d4013b1	0.04689378
225	0xbcd65528	-0.026163653
226	0x3da362d0	0.07977831
227	0xbce0b908	-0.02743198
228	0xbd829ec3	-0.06377938
229	0xbd35e71e	-0.044409864
230	0x3dbf5b8c	0.09343633
231	0xbca10f70	-0.019660681
232	0x3d653a62	0.05596388
233	0x3d59ce6c	0.053175375
234	0xbc67a2ac	-0.014137905
235	0xbbaa8da9	-0.0052048755
236	0xbd473260	-0.048632026
237	0x3d8927e5	0.066970624
238	0x3a8c9899	0.001072663
239	0xbd693fb2	-0.05694551
240	0xbceba64e	-0.028765824
241	0xbc3b88b1	-0.011446164
242	0xbc73b05a	-0.014873588
243	0xbbac4fbf	-0.00525853
244	0x3da43574	0.08018008
245	0xbca0139f	-0.019540606
246	0xbd5eba99	-0.054377172
247	0x3c2b7fb3	0.010467458
248	0x3c774615	0.015092392
249	0xbcced629	-0.025248604
250	0xb9b588eb	-0.00034625022
251	0xbc5db3ec	-0.013531666
252	0xbb3d20b5	-0.0028858606
253	0x3d6f0b03	0.05836011
254	0x3ccf5a1e	0.025311526
255	0x3c46f952	0.0121444035

mlp.0.bias f4 [128]
0	0x3d91c0c6	0.07116847
1	0x3e036879	0.12832822
2	0x3e1d83c2	0.15382293
3	0x3e0e139b	0.13874666
4	0xbdb5d455	-0.0887839
5	0x3d17973e	0.03700947
6	0xbdcf37d0	-0.10118067
7	0x3b5f145d	0.0034039237
8	0x3e08fafe	0.13376996
9	0x3da29922	0.07939364
10	0xbe18aa9a	-0.1490883
11	0xbd8dd379	-0.06925101
12	0xbe0b486a	-0.13601843
13	0x3d9b8bfb	0.075950585
14	0xbca79bfa	-0.020460118
15	0xbdf1d7f8	-0.11808771
16	0xbd53b8ab	-0.051689785
17	0x3d58c173	0.052918863
18	0x3c70f0e1	0.0147058675
19	0x3e1b0691	0.15139224
20	0xbb08e804	-0.0020890245
21	0x3d501dde	0.050809734
22	0xbd4875d1	-0.048940483
23	0x3c9e32e8	0.019311383
24	0x3bbb7dca	0.0057217823
25	0x3e0dc8fe	0.13846204
26	0x3d8afe1a	0.06786747
27	0xbdbc5289	-0.0919543
28	0xbe131249	-0.14362444
29	0xbe1d25ad	-0.15346403
30	0xbd6f6e7a	-0.058454968
31	0x3caabbe9	0.020841556
32	0x3e1b3d4d	0.15160103
33	0xbc81ea69	-0.015858846
34	0x3d815116	0.06314294
35	0x3da780ca	0.081788614
36	0xbdfc6cf9	-0.123254724
37	0xbe08a8b3	-0.13345604
38	0x3d7a31a7	0.06108251
39	0x3d9997bb	0.074996434
40	0xbd987d9e	-0.074458346
41	0x3ccee897	0.025257392
42	0xbe222d1f	-0.15837525
43	0x3b046f37	0.002020789
44	0x3d21e85c	0.039528236
45	0x3ad725d8	0.0016414477
46	0xbcd11b99	-0.025525855
47	0x3d892dc2	0.06698181
48	0xbd3722ca	-0.04471091
49	0x3df5b229	0.11996872
50	0xbe0d73f6	-0.13813767
51	0xbdbc82c2	-0.092046276
52	0xbe09d86b	-0.13461463
53	0xbe156d9a	-0.14592591
54	0x3df4a764	0.1194599
55	0xbd24b6fe	-0.040213577
56	0xbe01c704	-0.12673575
57	0x3d097ace	0.03356438
58	0xbdf9e620	-0.12202096
59	0x3c0569ef	0.008142932
60	0x3d9cec76	0.07662289
61	0xbd0c1cbb	-0.034207087
62	0x3da973ab	0.08274015
63	0x3d07f985	0.033196945
64	0xbe045203	-0.1292191
65	0x3d027af0	0.031855524
66	0x3dd527ff	0.10408019
67	0xbd19b8f4	-0.0375299
68	0x3c7b61d1	0.0153431455
69	0x3ca7bb34	0.020475008
70	0x3c6609c6	0.014040416
71	0x3d2ba6a9	0.041906986
72	0xbe1e1018	-0.15435827
73	0x3dfa4518	0.1222021
74	0x3d8fcc2d	0.07021365
75	0x3ca229b5	0.019795278
76	0x3cefc9a0	0.029270947
77	0xbe0592df	-0.13044308
78	0xbd3c2c90	-0.045940936
79	0xbbeb22ce	-0.00717578
80	0x3d1cf19b	0.03831635
81	0xbdb4cb23	-0.08827808
82	0x3c8c829c	0.017152123
83	0xbd4decd7	-0.050274696
84	0x3df0732f	0.117407195
85	0xbe0dafdf	-0.13836621
86	0x3c885473	0.016641831
87	0x3ddfc673	0.10926523
88	0xbe003ccb	-0.1252319
89	0xbb98364d	-0.004645145
90	0x3d9930e5	0.07480029
91	0x3d859719	0.0652296
92	0x3c9c21ec	0.019059144
93	0x3d85356c	0.0650433
94	0xbde6462f	-0.11243855
95	0x3e08f393	0.13374166
96	0x3b6ff1ee	0.0036612707
97	0x3dd5e757	0.10444515
98	0x3d11b602	0.035573967
99	0xbc92469a	-0.017855931
100	0x3d8d5b90	0.0690223
101	0x3e1cf3b0	0.15327334
102	0x3e231d2b	0.15929095
103	0xbe0b0b53	-0.13578539
104	0x3c230ca8	0.009951748
105	0xbded8d11	-0.11599172
106	0x3dc0900d	0.094024755
107	0x3decbd44	0.11559537
108	0xbde7f821	-0.11326624
109	0xbc1dfd88	-0.009642966
110	0x3de4dfc6	0.11175494
111	0x3dda232b	0.10651239
112	0xbdf7c64d	-0.1209837
113	0x3dddcb44	0.108297855
114	0xbce8c950	-0.028416306
115	0xbe0c819f	-0.13721322
116	0x3d03d056	0.032181107
117	0x3d99d69e	0.07511638
118	0x3dc5f184	0.09665206
119	0xbde18398	-0.11011428
120	0xbdef3faf	-0.116820686
121	0xbdddb077	-0.108246736
122	0x3dbb5324	0.09146717
123	0xbe1053bf	-0.14094447
124	0xbac99520	-0.0015379526
125	0xbd416537	-0.047215667
126	0x3d8fe932	0.070269
127	0x3d01a01f	0.031646844

mlp.1.weight f4 [128]
0	0x3f82345b	1.0172228
1	0x3f8e6581	1.1124727
2	0x3f88a40b	1.0675062
3	0x3f7d3539	0.98909336
4	0x3f803bd1	1.0018255
5	0x3f9229e9	1.141904
6	0x3f843424	1.0328412
7	0x3f9e66ad	1.2375084
8	0x3f8165f4	1.0109239
9	0x3f884e1e	1.064884
10	0x3f892ab7	1.071616
11	0x3f81a0f3	1.0127243
12	0x3f999bf0	1.2000713
13	0x3f8a2cc6	1.0794914
14	0x3f914622	1.1349528
15	0x3f96d200	1.1782837
16	0x3f87c419	1.0606719
17	0x3f84c280	1.0371857
18	0x3f9721e0	1.1807213
19	0x3f8c2c1e	1.0950963
20	0x3f8858db	1.0652117
21	0x3f87a33f	1.0596694
22	0x3f821872	1.016371
23	0x3f9066ff	1.1281432
24	0x3f92536d	1.143171
25	0x3f88e321	1.0694314
26	0x3f8de030	1.1084042
27	0x3f8cd987	1.1003884
28	0x3f9470ed	1.1596962
29	0x3f95ec18	1.1712675
30	0x3f88505b	1.0649523
31	0x3f9658af	1.1745814
32	0x3f92ddb2	1.1473906
33	0x3f914319	1.1348602
34	0x3f95c33b	1.1700205
35	0x3f88d7ff	1.0690917
36	0x3f8bc248	1.0918665
37	0x3f901c7d	1.1258694
38	0x3f8c3de3	1.0956386
39	0x3f8d4fd7	1.103999
40	0x3f986d6c	1.1908393
41	0x3f888b25	1.0667464
42	0x3f89f7a4	1.0778699
43	0x3f8486d0	1.0353642
44	0x3f87f7f8	1.0622549
45	0x3f919815	1.1374537
46	0x3f8b20d9	1.0869399
47	0x3f88682d	1.0656792
48	0x3f9c6b32	1.2220213
49	0x3f8f6d41	1.1205217
50	0x3f8e7e2f	1.1132258
51	0x3f983081	1.1889802
52	0x3f8ce42d	1.1007134
53	0x3f87dd12	1.061434
54	0x3f8d9f98	1.1064329
55	0x3f98e7cd	1.194574
56	0x3f8edf06	1.1161811
57	0x3f844bfc	1.0335689
58	0x3f939471	1.1529676
59	0x3f8b8e0c	1.0902724
60	0x3f834a3b	1.0257028
61	0x3f81ae89	1.0131389
62	0x3f969012	1.1762717
63	0x3f85e208	1.0459604
64	0x3f9c1397	1.2193478
65	0x3f84c5b4	1.0372834
66	0x3f9c1952	1.2195227
67	0x3f8cf184	1.1011205
68	0x3f846948	1.0344629
69	0x3f96fa7d	1.1795193
70	0x3f8b0540	1.0860977
71	0x3f8f04f3	1.1173385
72	0x3f818800	1.0119629
73	0x3f932430	1.1495419
74	0x3f8c1c31	1.0946103
75	0x3f92c315	1.1465784
76	0x3f904a54	1.1272683
77	0x3f845ac4	1.03402
78	0x3f9a6519	1.2062103
79	0x3f8925ab	1.071462
80	0x3f8575d6	1.0426586
81	0x3f8bd71a	1.0925019
82	0x3f870564	1.054852
83	0x3f8ea4a6	1.1143997
84	0x3f8b8294	1.0899224
85	0x3f91ba5f	1.1385001
86	0x3f8828b8	1.0637426
87	0x3f923561	1.142254
88	0x3f8a39d3	1.0798897
89	0x3f81f363	1.0152401
90	0x3f941ab3	1.1570648
91	0x3f856609	1.0421764
92	0x3f949fcd	1.1611267
93	0x3f84e93b	1.0383676
94	0x3f89624e	1.0733125
95	0x3f9dc52f	1.2325801
96	0x3f9112e5	1.1333891
97	0x3f885306	1.0650337
98	0x3f876e63	1.0580562
99	0x3f86aeeb	1.0522131
100	0x3f8dd817	1.108157
101	0x3f8f636a	1.1202214
102	0x3f8c2dbc	1.0951457
103	0x3f86d8de	1.0534933
104	0x3f87c802	1.0607913
105	0x3f88ff3a	1.0702889
106	0x3f858eac	1.0434165
107	0x3f90d0b5	1.1313692
108	0x3f8a1ea5	1.0790602
109	0x3f9b27b8	1.2121496
110	0x3f896511	1.0733968
111	0x3f876924	1.0578961
112	0x3f89237b	1.0713953
113	0x3f86224a	1.0479214
114	0x3f88fa95	1.0701472
115	0x3f8ddcf0	1.108305
116	0x3f84f642	1.0387652
117	0x3f84473e	1.0334241
118	0x3f90487a	1.1272118
119	0x3f8c1793	1.0944694
120	0x3f93e14d	1.1553131
121	0x3f89dc56	1.0770366
122	0x3f8a2624	1.079289
123	0x3f8fbc9f	1.1229438
124	0x3f9b1054	1.2114358
125	0x3f8dad46	1.1068504
126	0x3f8c781a	1.0974152
127	0x3fa0f614	1.2575097

mlp.1.bias f4 [128]
0	0xbcfcbad5	-0.030850807
1	0xbd0277d2	-0.03185255
2	0xbcdc1281	-0.026864292
3	0xbc6ca5dd	-0.014443842
4	0xbcedca53	-0.02902714
5	0x3c57c14f	0.013168647
6	0x3e8249e3	0.25446996
7	0xbd34339d	-0.043994535
8	0xbce90749	-0.028445857
9	0x3d877e9a	0.06615944
10	0xbd902e72	-0.07040109
11	0xbc4a4d82	-0.012347581
12	0xbd677cf7	-0.05651566
13	0xbdab4fe5	-0.08364848
14	0x3d286edb	0.041121345
15	0x3c247155	0.010036786
16	0xbd5d069b	-0.053961378
17	0x3d591b16	0.053004347
18	0x3d28b7ad	0.041190792
19	0x3e3cafdd	0.18426462
20	0x3dba079e	0.09083484
21	0x3b81a076	0.003955896
22	0x3cc2ca00	0.023777962
23	0xbd4dbbe0	-0.050228
24	0x3dcbab94	0.09944835
25	0xbd6b2090	-0.0574041
26	0x3bfab4b9	0.0076509384
27	0x3de91f07	0.11382871
28	0xbce22400	-0.027605057
29	0xbd99aa43	-0.07503178
30	0x3dab3477	0.08359616
31	0xbe6367c9	-0.2220756
32	0xbdddfcfc	-0.108392686
33	0x3db61df6	0.08892433
34	0x3d9c4284	0.07629874
35	0x3debcca1	0.11513639
36	0x3d97a1aa	0.07403882
37	0x3d9d5af3	0.07683363
38	0xbd511a3a	-0.051050402
39	0xbc27e903	-0.010248425
40	0x3e04f967	0.12985764
41	0x3e04736b	0.12934653
42	0x3dbec806	0.09315495
43	0xbbe4588e	-0.0069685644
44	0xbceb7e94	-0.02874688
45	0x3d012472	0.031528898
46	0x3d4f9b6c	0.05068533
47	0x3d04b225	0.032396454
48	0xbce0e908	-0.027454868
49	0x3da3b169	0.07992823
50	0x3e07e280	0.13269997
51	0x3a79136d	0.0009501491
52	0xbeb6bfa4	-0.35693085
53	0x3dd3e590	0.1034652
54	0xbe591407	-0.21199046
55	0xbdcdfe6f	-0.10058295
56	0xbc8c75ee	-0.017146077
57	0x3ce01a63	0.027356332
58	0x3c9a53c6	0.018838774
59	0x3c9d8fc3	0.01923359
60	0xbcf9d34a	-0.030496258
61	0x3de695ff	0.11259078
62	0xbd84c041	-0.06481982
63	0xbc2b7ac5	-0.010466282
64	0x3d7fee35	0.06248303
65	0xbcb297cd	-0.0218009
66	0x3e0ca065	0.1373306
67	0xbe968f11	-0.29406026
68	0x3d87ac07	0.066246085
69	0x3d2895ad	0.041158367
70	0x3dc9ad83	0.09847548
71	0x3de1e6e2	0.110303655
72	0x3cf1cf38	0.029517755
73	0xbc72fbcf	-0.014830544
74	0xbce90ace	-0.028447535
75	0xbdbeb767	-0.09312325
76	0x3d5543a9	0.05206648
77	0x3d5f2498	0.054478258
78	0xbe36c23d	-0.17847534
79	0x3c8e042b	0.017335972
80	0x3cc6b9df	0.024258552
81	0x3d479315	0.048724253
82	0xbca0fbd0	-0.019651324
83	0xbe0cbf49	-0.13744844
84	0xbe3e07d6	-0.18557677
85	0x3cc226df	0.023700176
86	0xbcfce5ca	-0.03087129
87	0xbdc8120b	-0.097690664
88	0x3e1749c2	0.1477423
89	0x3db80d43	0.089869045
90	0x3df31af1	0.11870373
91	0x3d6a08ff	0.057137486
92	0x3d0736de	0.03301131
93	0xbc926e47	-0.01787485
94	0xbd4ad2b7	-0.04951736
95	0xbdbd2401	-0.09235383
96	0x3d3d8fb8	0.04627964
97	0x3dd5b592	0.104350224
98	0xbcfb1578	-0.030649886
99	0xbd51dc46	-0.05123546
100	0xbd8ed28b	-0.06973752
101	0x3d98596c	0.07438931
102	0x3d7a9285	0.06117489
103	0xbb8fee4a	-0.00439242
104	0xbc24e027	-0.010063208
105	0xbc95d076	-0.018287878
106	0x3d45769c	0.048208818
107	0x3d510f42	0.05103994
108	0x3b024da7	0.001988271
109	0x3d18cb0a	0.03730301
110	0xbc6e60cc	-0.014549445
111	0x3ce3e70a	0.027820129
112	0x3da0cf6e	0.07852064
113	0xbc86a6df	-0.016436992
114	0x3dc83b56	0.097769424
115	0x3d816793	0.06318583
116	0x3e3dda98	0.18540418
117	0x3d91fa77	0.071278505
118	0x3c98ed5b	0.018667867
119	0x3e243b9c	0.16038364
120	0x3d088eb2	0.03333921
121	0x3c5bcc91	0.013415472
122	0x3ba7d1ca	0.0051214444
123	0x3df02645	0.11726049
124	0xbe948ddf	-0.2901449
125	0x3b5e708e	0.00339416
126	0x3d0f2472	0.034946866
127	0x3d4c73d9	0.04991517

mlp.1.running_mean f4 [128]
0	0xbe2f9ba6	-0.17149219
1	0x3e9fb498	0.3119247
2	0x3cd4980f	0.025951413
3	0x3ba4383b	0.005011586
4	0xbf22a867	-0.6353821
5	0xbe2afe23	-0.16698508
6	0x3dcc889d	0.099869944
7	0xbdb8e8e4	-0.09028795
8	0xbe12aea9	-0.1432444
9	0x3e9777f8	0.29583716
10	0xbe000f4d	-0.12505837
11	0x3e2916f8	0.16512668
12	0xbce0cc61	-0.027441205
13	0x3dc0c3ba	0.09412332
14	0xbcd5d862	-0.026104156
15	0xbf133f6e	-0.5751866
16	0xbe9f028b	-0.31056628
17	0xbe195d46	-0.14976987
18	0x3c49464a	0.012284825
19	0x3eb1d217	0.34730598
20	0xbd2217fc	-0.039573655
21	0xbe9922ce	-0.29909366
22	0xbdd659fb	-0.10466381
23	0xbcfc3690	-0.030787736
24	0x3b4beb1d	0.003111548
25	0x3e51ed7a	0.20500746
26	0x3e3afde3	0.18260913
27	0xbead5035	-0.33850256
28	0xbf12f513	-0.57405204
29	0xbe9ede23	-0.31028852
30	0x3e99a638	0.30009627
31	0x3e8b65d5	0.2722613
32	0x3d8d54f9	0.06900973
33	0xbdb7d171	-0.08975495
34	0xbd1affa0	-0.03784144
35	0x3e21c90e	0.15799353
36	0xbc901a79	-0.017590748
37	0xbed8763c	-0.42277706
38	0x3c8be669	0.017077642
39	0x3ea90dc3	0.33018312
40	0x3d3c602f	0.045990165
41	0x3e18d972	0.14926699
42	0xbe849080	-0.25891495
43	0xbecafbf9	-0.39645365
44	0x3e22b591	0.15889575
45	0x3e17bfd8	0.14819276
46	0x3c266c71	0.01015769
47	0x3e092dbc	0.13396353
48	0xbe7afc8a	-0.24510399
49	0xbcb77c5f	-0.022398172
50	0xbe50acd3	-0.20378427
51	0xbdcb7f18	-0.099363506
52	0xbeef670a	-0.467583
53	0xbbc4cb4c	-0.00600568
54	0x3da1526b	0.07877048
55	0xbe4b4b41	-0.19852926
56	0x3da79d44	0.08184293
57	0x3ecc0d93	0.39854106
58	0xbda72f6b	-0.08163341
59	0xbef4b34c	-0.47793043
60	0x3d86d95b	0.06584426
61	0xbe577a19	-0.2104267
62	0xbf22e511	-0.6363078
63	0xbf06a4f4	-0.5259545
64	0xbe8a98ef	-0.27069804
65	0xbec5c8fd	-0.38629904
66	0x3ecbcedd	0.39806262
67	0xbe6ff2c9	-0.23432459
68	0xbd9a69be	-0.075397
69	0x3d9c6481	0.07636357
70	0x3cd097cb	0.025463006
71	0x3d7a3b2d	0.06109159
72	0xbdd87ecf	-0.10571062
73	0xbe44e250	-0.19226956
74	0x3eb7654b	0.35819468
75	0xbe50501d	-0.20343061
76	0xbe6000a3	-0.21875243
77	0xbf08490d	-0.53236467
78	0xbec209d3	-0.3789812
79	0xbe726361	-0.23670723
80	0xbf01b40a	-0.5066534
81	0x3c05e52e	0.0081723165
82	0xbd6bc70e	-0.05756288
83	0xbe58ec8e	-0.21183988
84	0x3e3625bd	0.17787834
85	0xbe985968	-0.29755712
86	0x3e8bdc63	0.2731658
87	0x3ea74586	0.3267023
88	0xbeca36d4	-0.39494956
89	0x3e839f43	0.25707445
90	0x3e39c448	0.18141282
91	0x3f04e982	0.51918805
92	0xbe84f605	-0.25968948
93	0x3e0e6611	0.13906123
94	0x3d62fc86	0.055416606
95	0x3e5e06fe	0.21682355
96	0x3cd8c14d	0.02645936
97	0xbdbd58db	-0.092454635
98	0xbf0e79c8	-0.55654573
99	0x3eda9ab9	0.4269617
100	0x3e17c099	0.14819564
101	0x3c4be5e2	0.012444945
102	0x3e5f820e	0.21826956
103	0xbf014f97	-0.5051207
104	0xbeb46987	-0.3523676
105	0x3e2998b8	0.16562164
106	0x3db7a078	0.08966154
107	0xbdeb531f	-0.114904635
108	0xbe825c9b	-0.25461277
109	0x3d2a0f7e	0.04151868
110	0xbd1f05cd	-0.03882389
111	0x3e4c5ab3	0.19956474
112	0x3e2ac469	0.16676487
113	0x3ea6eb09	0.32601193
114	0xbeed9df9	-0.46409586
115	0xbeb2de61	-0.34935287
116	0x3f339d63	0.7016203
117	0xbe865c89	-0.26242474
118	0x3e651f37	0.22375189
119	0xbe95338a	-0.29140884
120	0xbf254078	-0.64551497
121	0xbdfc1079	-0.123078294
122	0x3c6172a1	0.01376024
123	0x3d5ad06c	0.053421423
124	0xbd331a25	-0.043726105
125	0x3ea193d4	0.31558096
126	0x3ea9beea	0.33153468
127	0x3e883479	0.26602533

mlp.1.running_var f4 [128]
0	0x3deb15d2	0.11478771
1	0x3e92fc50	0.28708124
2	0x3e914c79	0.28378657
3	0x3e81eb5f	0.25374886
4	0x3ee52496	0.44754475
5	0x3e254d55	0.16142781
6	0x3e364f4b	0.17803685
7	0x3d738bdb	0.05945955
8	0x3f2e6d42	0.68135464
9	0x3e9e99a3	0.3097659
10	0x3f0a6a5e	0.54068553
11	0x3f568150	0.83791065
12	0x3e2cafeb	0.16863982
13	0x3e950d73	0.29111823
14	0x3d8bdbe4	0.0682905
15	0x3e6141c5	0.21997745
16	0x3de81c79	0.11333556
17	0x3e20ecc7	0.15715323
18	0x3d945dfa	0.07244487
19	0x3dca0b93	0.09865489
20	0x3dfdb018	0.12387103
21	0x3e05859b	0.13039248
22	0x3e8e8c49	0.27841404
23	0x3e07e87c	0.1327228
24	0x3f099b52	0.53752625
25	0x3e990b2a	0.2989133
26	0x3de4a983	0.11165144
27	0x3e6790bb	0.22613804
28	0x3e7e7bc9	0.24851908
29	0x3e5a4b7c	0.21317858
30	0x3e932c57	0.28744766
31	0x3e2dfd89	0.16991247
32	0x3d846f52	0.06466545
33	0x3e430499	0.19044723
34	0x3e5e1a81	0.21689798
35	0x3e1e8d39	0.1548356
36	0x3e08c317	0.13355671
37	0x3ecd6d48	0.40122437
38	0x3de41e01	0.11138535
39	0x3dff4ba8	0.12465602
40	0x3dd2d0f5	0.10293762
41	0x3f2c4c67	0.6730408
42	0x3e66134c	0.22468299
43	0x3e18657c	0.14882463
44	0x3d97dae1	0.07414795
45	0x3e1f1ac3	0.15537553
46	0x3e260e07	0.16216289
47	0x3e0b5d9f	0.13609932
48	0x3dadfc8d	0.08495436
49	0x3e20f8b7	0.15719877
50	0x3dfc0cbf	0.123071186
51	0x3e49f88f	0.19723724
52	0x3d5e83b1	0.05432481
53	0x3eef33ad	0.46719113
54	0x3e35c7b6	0.17751965
55	0x3d58bd35	0.052914817
56	0x3dffde2a	0.12493546
57	0x3f45de89	0.77292687
58	0x3e4a2117	0.19739185
59	0x3de03f89	0.10949618
60	0x3f057fd3	0.5214817
61	0x3f0574a5	0.5213111
62	0x3e050ea8	0.12993872
63	0x3eb552e6	0.3541481
64	0x3d863bed	0.06554399
65	0x3e3d8878	0.1850909
66	0x3e7c6444	0.24647623
67	0x3d4dec85	0.05027439
68	0x3ca5fd9c	0.020262532
69	0x3e02ebb3	0.12785225
70	0x3db203c1	0.08692122
71	0x3e82e1b5	0.25562826
72	0x3f9a0c5d	1.2035023
73	0x3db5882b	0.088638626
74	0x3f052b9f	0.52019686
75	0x3dd135d0	0.10215342
76	0x3e2bfbd4	0.16795284
77	0x3e9dd97f	0.3083
78	0x3e4d348f	0.20039581
79	0x3f10930c	0.56474376
80	0x3f53f6ed	0.82798654
81	0x3f060e47	0.52365535
82	0x3eec7c05	0.4618837
83	0x3e3c5128	0.18390334
84	0x3eab426f	0.33449122
85	0x3d6b5179	0.057450745
86	0x3e32a42f	0.17445444
87	0x3daec435	0.08533517
88	0x3e536d40	0.20647144
89	0x3f635e5c	0.88815856
90	0x3cb4b6a7	0.022059752
91	0x3e3caa4a	0.18424335
92	0x3d137c44	0.03600718
93	0x3e180926	0.1484724
94	0x3e046797	0.12930141
95	0x3dc93d64	0.098261625
96	0x3e8cf38d	0.27529564
97	0x3ec42d80	0.38315964
98	0x3e185d37	0.14879309
99	0x3e19d658	0.15023172
100	0x3e6eb5b1	0.23311497
101	0x3e73e746	0.23818693
102	0x3e89eb5e	0.26937383
103	0x3ef00d3e	0.46885103
104	0x3e8cc655	0.27495065
105	0x3e8c4cba	0.27402288
106	0x3eddd420	0.433259
107	0x3db1f88b	0.08689984
108	0x3dfdc334	0.12390748
109	0x3e09abff	0.13444518
110	0x3e751645	0.23934276
111	0x3dddd257	0.10831135
112	0x3f07985f	0.52966875
113	0x3f693b8e	0.911065
114	0x3eddd087	0.43323156
115	0x3e058ff1	0.1304319
116	0x3e4e8f2a	0.201718
117	0x3e89f3c6	0.26943797
118	0x3d87d0d5	0.066316284
119	0x3dc64a2b	0.09682115
120	0x3ee7ea34	0.4529587
121	0x3d7ef14e	0.062241845
122	0x3f0ce1b7	0.55031914
123	0x3dd72f67	0.10507088
124	0x3d9b061e	0.07569526
125	0x3d8cbeb4	0.06872311
126	0x3e8a91b3	0.27064285
127	0x3f1a1f45	0.60203964

mlp.3.weight f4 [128, 128]
0	0xbdeec096	-0.116578266
1	0xbe2ed929	-0.17075028
2	0xbc9d20fd	-0.01918077
3	0x3cfeb6da	0.03109305
4	0xbe57f8db	-0.21091025
5	0x3e551637	0.20809256
6	0xbde76bbb	-0.11299845
7	0x3d8284fd	0.06373022
8	0x3e17afbd	0.14813133
9	0x3d218802	0.039436348
10	0x3e1b6c6d	0.1517808
11	0x3d1beba1	0.03806651
12	0x3e69ff4f	0.22851299
13	0xbdc70296	-0.0971729
14	0xbcf8048c	-0.030275606
15	0x3cc12c6f	0.023580758
16	0xbd9b9951	-0.07597602
17	0x3d2957de	0.041343562
18	0xbd93b5f0	-0.07212436
19	0x3e5381ba	0.20654956
20	0xbd3af547	-0.04564407
21	0xbd8d0f62	-0.068877
22	0xbd1eea74	-0.03879781
23	0x3db4f3ba	0.0883555
24	0x3db2ce15	0.08730713
25	0x3e0c641d	0.13710065
26	0x3ddd515c	0.10806534
27	0xbda57ae6	-0.08080082
28	0xbdd31411	-0.10306562
29	0xbba75c63	-0.005107449
30	0x3dd0de3f	0.1019864
31	0xbd8bac72	-0.06820001
32	0xbe0aa449	-0.13539232
33	0xbe0eda85	-0.13950546
34	0x3e3fe8cc	0.18741149
35	0xbd496928	-0.04917255
36	0x3dcaeb9e	0.09908222
37	0xbe7e1dfe	-0.24816129
38	0x3d8ca078	0.068665445
39	0x3dd33c61	0.10314251
40	0xbc1bd042	-0.009510102
41	0x3defed7c	0.117152184
42	0x3dba06f4	0.090833575
43	0xbc874f8e	-0.016517427
44	0xbe07b590	-0.13252854
45	0x3e108660	0.1411376
46	0x3dcdce4e	0.10049115
47	0xbd0d9185	-0.034562606
48	0xbefa4734	-0.4888245
49	0x3dbd6736	0.092482015
50	0x3db14309	0.08655364
51	0xbd8fe916	-0.070268795
52	0x3dbc058e	0.09180747
53	0x3e026f8c	0.12737864
54	0xbe04c070	-0.12964034
55	0xbd98431d	-0.07434676
56	0x3daa0aef	0.08302867
57	0xbd2079f9	-0.039178822
58	0xbe2003bb	-0.15626423
59	0x3d49358c	0.049123332
60	0xbd4dc911	-0.05024058
61	0x3d8e7c1c	0.06957266
62	0xbca94a23	-0.020665234
63	0xbe42060c	-0.18947619
64	0xbc88e198	-0.016709134
65	0x3dac05a6	0.08399515
66	0x3d3c8132	0.046021648
67	0x3e342ec5	0.17595966
68	0xbdc133d0	-0.094337106
69	0xbd9048bb	-0.07045122
70	0x3e33c62c	0.17556065
71	0x3de70e18	0.11281985
72	0x3c4e2ac6	0.01258344
73	0xbdabb4b6	-0.08384077
74	0xbbdf6bfb	-0.006818292
75	0x3d8b1b1a	0.067922786
76	0x3c813bcd	0.015775586
77	0x3c3b54e1	0.011433811
78	0x3e06d85a	0.13168469
79	0x3d49639a	0.049167253
80	0x3e083421	0.13301136
81	0x3d6dfe6f	0.058103975
82	0xbdcf2a75	-0.1011552
83	0x3d2b8717	0.04187688
84	0xbe133003	-0.14373784
85	0xbc523a6f	-0.0128313145
86	0xbd6f3831	-0.058403198
87	0x3c2cb83f	0.010541975
88	0x3e0f043e	0.13966462
89	0xbd830841	-0.06398059
90	0xbd459fb4	-0.048248008
91	0x3b9e73f6	0.004835601
92	0xbba2aeb2	-0.004964673
93	0x3dbce4a6	0.09223299
94	0x3ca6a531	0.020342441
95	0xbe822ea4	-0.2542621
96	0xbda5c0a1	-0.08093382
97	0x3deecc0b	0.11660012
98	0x3d4a0822	0.049324162
99	0x3ce30500	0.027712345
100	0x3dd3898c	0.10328969
101	0x3de692ad	0.11258445
102	0xbd534b61	-0.05158556
103	0xbe7d506a	-0.24737707
104	0xbc46e04b	-0.012138437
105	0xbe26d43a	-0.16291896
106	0x3d908702	0.07057001
107	0xbdc9544d	-0.09830532
108	0x3c16e54c	0.009209942
109	0x3ce4c26d	0.02792474
110	0xbde7dd82	-0.11321546
111	0xbd6f9365	-0.058490176
112	0x3cfec44b	0.03109946
113	0xbca8065e	-0.020510849
114	0xbd43a182	-0.047761448
115	0x3db82ade	0.08992551
116	0xbe1381e6	-0.14405021
117	0x3d8ce21e	0.06879066
118	0xbdac4a0c	-0.08412561
119	0x3db40220	0.08789468
120	0x3e475d8f	0.19469284
121	0x3da35d7f	0.07976817
122	0xbc4ab727	-0.0123727685
123	0x3dc77f16	0.097410366
124	0x3d8f54c2	0.06998588
125	0x3c0e96bf	0.008702933
126	0xbd6d41aa	-0.05792395
127	0x3eb67aee	0.35640663
128	0xbd06a858	-0.03287539
129	0x3dea0f1b	0.114286624
130	0x3d287e9b	0.041136365
131	0xbd1df0af	-0.038559612
132	0x3c1af821	0.009458573
133	0x3dacd27b	0.084385835
134	0x3e011a95	0.12607796
135	0x3e84951f	0.2589502
136	0x3d127e62	0.03576506
137	0x3d0d5cf9	0.034512494
138	0xbd8f3411	-0.06992353
139	0xbcb83ed8	-0.022490904
140	0xbdeb0ddc	-0.11477253
141	0x3e0a5fbd	0.13513084
142	0x3dfaeade	0.122518286
143	0xbdb40496	-0.08789937
144	0x3d1d7e58	0.03845057
145	0x3ba1f8ac	0.004942974
146	0x3e2f8a34	0.17142564
147	0xbcb2e053	-0.021835482
148	0x3c9cbb8a	0.019132394
149	0xbdfdde2f	-0.12395894
150	0x3c974555	0.018465677
151	0xbd4d7106	-0.050156616
152	0x3d50d03f	0.05097985
153	0xbcfdfcad	-0.031004274
154	0xbe2273b7	-0.15864454
155	0x3c927de2	0.017882291
156	0xbc64d921	-0.013967783
157	0x3dba2086	0.090882346
158	0x3dc253e8	0.0948866
159	0xbc62b69e	-0.013837485
160	0x3d94d1e6	0.072665974
161	0x3d3add92	0.045621462
162	0x3e30c874	0.17263967
163	0xbd59a450	-0.053135216
164	0xbd56daf4	-0.052454904
165	0xbc36fd4d	-0.01116879
166	0xb9a6d420	-0.00031820033
167	0xbdd7c1c2	-0.10535003
168	0x3d093282	0.033495434
169	0x3d86add1	0.065761216
170	0xbd9b12ef	-0.07571971
171	0x3de1180b	0.10990914
172	0x3c901f58	0.01759307
173	0xbd82f99e	-0.06395267
174	0x3cf53c45	0.029935965
175	0x3e0d7de9	0.13817562
176	0xbbe8c7d5	-0.0071039
177	0x3e2e9b89	0.1705152
178	0xbd7e0cdb	-0.06202398
179	0x3df45d93	0.1193191
180	0xbdbc0f27	-0.091825776
181	0xbca61db6	-0.02027784
182	0x3dc46bc9	0.09590871
183	0xbc396740	-0.011316121
184	0x3d9d7e7b	0.0769014
185	0xbe0922cc	-0.1339218
186	0x3dbeee1e	0.09322761
187	0x3da12eb1	0.07870234
188	0xbbcf96c0	-0.0063351095
189	0xbd43d7e4	-0.04781331
190	0x3e22dcde	0.15904567
191	0x3bea23a5	0.0071453624
192	0xbd3959c2	-0.045251615
193	0xbcad17c9	-0.021129506
194	0x3d9f5192	0.0777923
195	0x3de34140	0.1109643
196	0xba46096a	-0.00075545034
197	0x3cd687dd	0.026187832
198	0x3d312b58	0.043254226
199	0xbd4e8cd9	-0.05042729
200	0xbc5734aa	-0.013135115
201	0x3d37b51b	0.04485045
202	0xbce58285	-0.028016338
203	0xbc06d16d	-0.008228642
204	0x3e00b424	0.12568718
205	0x3cb3782a	0.021907885
206	0xbc8e76ad	-0.017390573
207	0x3e0658bd	0.13119788
208	0xbd8675e2	-0.06565453
209	0xbcfb7a94	-0.030698098
210	0x3c2e513b	0.010639484
211	0x3e01d9c0	0.12680721
212	0xbd2a996f	-0.041650232
213	0xbdb24aa3	-0.08705642
214	0x3d9f58a6	0.0778058
215	0xbcdf0cf3	-0.027227854
216	0x3de4bda7	0.11168986
217	0xbd471c10	-0.048610747
218	0x3ce14019	0.027496384
219	0x3dc377b4	0.09544316
220	0x3d319e73	0.043364
221	0xbdcf6db8	-0.10128349
222	0x3cd39bd3	0.025831139
223	0x3dbd6986	0.092486426
224	0xbcda6482	-0.026659254
225	0x3dd8d73b	0.10587927
226	0x3dcbd6bc	0.09953067
227	0x3c6a1531	0.014287279
228	0x3cd6e28f	0.026231078
229	0x3da31875	0.07963649
230	0xbde05439	-0.10953564
231	0x3cb1f748	0.021724358
232	0xbd676473	-0.05649228
233	0x3e0a31f1	0.13495614
234	0x3d1b0b31	0.03785247
235	0xbdd00f1a	-0.101591304
236	0x3e2ab386	0.16670045
237	0x3e1ef846	0.15524396
238	0xbd8d2575	-0.0689191
239	0x3cd83a88	0.026395097
240	0x3b40482c	0.0029339893
241	0xbd4019ba	-0.046899535
242	0x3e05ab7f	0.13053702
243	0x3c4fb24e	0.0126767885
244	0x3dbd8d1c	0.0925543
245	0x3ddbf690	0.107403874
246	0x3db1251d	0.08649657
247	0x3da00d5a	0.078150466
248	0xbdad5462	-0.0846336
249	0xbc4f8234	-0.01266532
250	0xbd78a48a	-0.06070379
251	0xbd02c0f4	-0.031922296
252	0x3dbd56ca	0.09245069
253	0x3e13af03	0.1442223
254	0xbc0c8329	-0.008576193
255	0x3cd4de8c	0.025985025

mlp.3.bias f4 [128]
0	0xbc8c37f6	-0.017116528
1	0x3d809ca0	0.06279874
2	0x3d892fd7	0.06698578
3	0x3b0365b1	0.0020049626
4	0x3da19a87	0.07890802
5	0xbcd9d146	-0.026589047
6	0x3cf71791	0.030162605
7	0xbdb08493	-0.086190365
8	0xbd996cbd	-0.07491443
9	0xbd44d03b	-0.048050147
10	0x3d0da394	0.03457983
11	0xbd516328	-0.051119953
12	0xbd8b1f41	-0.067930706
13	0xbc8da27f	-0.017289398
14	0xbd3ee2d8	-0.046603054
15	0xbcc30987	-0.023808254
16	0xbd7efc8e	-0.062252574
17	0xbd3a9c2d	-0.045559097
18	0x3d02abb2	0.031902023
19	0xbcd2acc9	-0.025717156
20	0xbd8721b9	-0.06598229
21	0xbdab44e3	-0.083627485
22	0xbd8b3440	-0.06797075
23	0xbd7e8b6b	-0.062144678
24	0x3d0e3c20	0.03472531
25	0x3cdd9600	0.027049065
26	0x3d74076d	0.059577394
27	0xbc86f38f	-0.01647356
28	0xbd07fc58	-0.033199638
29	0x3a01f613	0.00049576274
30	0x3d0c0fa6	0.03419461
31	0xbcf56bd0	-0.029958636
32	0xbd4c7f98	-0.04992637
33	0xbd22d834	-0.03975697
34	0x3cc611e9	0.024178462
35	0x3c34eca6	0.0110427495
36	0x3d22ca1a	0.03974352
37	0xbd40544b	-0.046955388
38	0x3dd154fc	0.102212876
39	0x3d5b7de6	0.053586863
40	0xbd1437c1	-0.036185984
41	0x3c113c6b	0.008864502
42	0xbd402864	-0.04691352
43	0xbae33272	-0.001733376
44	0x3cf16b3d	0.02947008
45	0xbd8618a0	-0.065476656
46	0xbcb78336	-0.022401433
47	0x3bffd3ea	0.0078072445
48	0x3df964f4	0.121774584
49	0x3dfa2130	0.12213361
50	0x3d2aec1b	0.041729074
51	0x3dfdc906	0.12391858
52	0x3c9eac74	0.019369341
53	0xbdacad6b	-0.08431514
54	0x3b04af5b	0.0020246122
55	0xbdbc78f1	-0.09202755
56	0xbc53533b	-0.012898262
57	0x3d8d3cac	0.06896338
58	0xbd45d56d	-0.04829924
59	0xbdb1326c	-0.08652195
60	0x3d7db4be	0.061939947
61	0xbcbe6c0f	-0.023244886
62	0xbc511050	-0.012760237
63	0x3cf28713	0.029605424
64	0xbdcfd493	-0.10147967
65	0xbdb0c833	-0.08631935
66	0xbdf228e3	-0.11824205
67	0xbddde1ba	-0.108340696
68	0xbd1cc78b	-0.038276237
69	0x3dc0931e	0.094030604
70	0x3d5afe86	0.05346539
71	0xbc318b55	-0.010836442
72	0x3c4d1528	0.012517251
73	0x3d4648a7	0.04840913
74	0x3cea08a0	0.028568566
75	0x3d4d79f5	0.050165135
76	0xbd59a227	-0.053133156
77	0x3d18cbdb	0.037303787
78	0xbd019605	-0.03163721
79	0x3d81b1de	0.063327536
80	0xbda40028	-0.08007842
81	0x3d23344c	0.039844796
82	0x3d1cf940	0.03832364
83	0x3c968bd7	0.018377228
84	0x3a67c6cc	0.0008841574
85	0xbc867fb9	-0.016418325
86	0x3dd79a58	0.105274856
87	0xbd419c65	-0.04726829
88	0x3c567598	0.01308956
89	0x3d84065c	0.064465255
90	0xbb07268a	-0.0020622336
91	0xbcdd18c5	-0.02698935
92	0xbc6ccf31	-0.014453695
93	0x3d17c710	0.037055075
94	0xbcfe5eed	-0.031051124
95	0xbc9f2a4d	-0.01942935
96	0xbd1f2035	-0.038849074
97	0x3c809c74	0.015699603
98	0xbcc85d42	-0.024458531
99	0x3cdc13fa	0.026864994
100	0x3d6b9547	0.05751541
101	0xbd038aa1	-0.03211463
102	0x3d064445	0.03277995
103	0x3d7ca035	0.061676223
104	0x3bc4ae1f	0.006002202
105	0x3cd43909	0.025906103
106	0x3d2cc368	0.04217854
107	0x3b35bbf0	0.0027730428
108	0xbd294ff9	-0.041336033
109	0xbd06a7b9	-0.032874797
110	0xbd409371	-0.04701561
111	0x3d227c28	0.039669186
112	0xbd58417b	-0.052796822
113	0x3b64f173	0.0034933954
114	0xbd39b12a	-0.045334972
115	0x3da9948c	0.08280286
116	0xbc9d46b3	-0.019198751
117	0xbd868b7f	-0.065695755
118	0x3b57fbb1	0.0032956416
119	0xbcbfb34e	-0.023400929
120	0x3cc61177	0.02417825
121	0x3d64eda2	0.055890687
122	0x3cbcbee0	0.023040235
123	0xbe1043e8	-0.14088404
124	0x3d65f71e	0.056143872
125	0xbd993b33	-0.074819945
126	0x3c9d0f83	0.019172436
127	0x3d64e94f	0.055886563

mlp.5.weight f4 [4, 128]
0	0x3db620ea	0.088929966
1	0xbe03094a	-0.12796512
2	0xbdaf8be6	-0.085716054
3	0x3c8fc3c4	0.017549403
4	0xbe478c1e	-0.19487044
5	0xbe263778	-0.16232097
6	0x3ddfc7a7	0.109267525
7	0x3e742266	0.23841247
8	0x3ee0a822	0.43878275
9	0xbeb4f5df	-0.35343835
10	0xbc2357b8	-0.009969644
11	0x3d177838	0.036979884
12	0xbd62705a	-0.055282928
13	0xbdd3455e	-0.10315965
14	0x3ddb9c25	0.107231416
15	0x3f29b7fa	0.6629635
16	0x3eb7dfe3	0.35913
17	0x3dd087e5	0.1018217
18	0x3da51a53	0.080616616
19	0x3c7fd3fa	0.015614504
20	0xbc997f9f	-0.018737612
21	0xbd44bc43	-0.048031103
22	0x3dff07f0	0.12452686
23	0xbd2b843f	-0.041874167
24	0x3dccdc9a	0.10003014
25	0xbd896952	-0.067095414
26	0xbdfecf58	-0.124418914
27	0x3ebd8143	0.3701268
28	0xbecff072	-0.40613133
29	0x3de66652	0.11249985
30	0xbdfa61fc	-0.1222572
31	0xbe1cdc0e	-0.15318319
32	0x3e3063b0	0.17225528
33	0xbd992c92	-0.07479204
34	0xbd611c24	-0.054958478
35	0x3d3a02f7	0.045412984
36	0xbe57902c	-0.21051091
37	0x3ec48c39	0.3838823
38	0xbe244245	-0.16040905
39	0xbdf0da8e	-0.11760436
40	0xbd007326	-0.031359814
41	0x3e8883c4	0.2666303
42	0xbe3dcf28	-0.18536055
43	0xbdc511d4	-0.09622541
44	0x3e52be5c	0.20580429
45	0xbc463799	-0.012098216
46	0x3e944774	0.28960764
47	0xbd2cb724	-0.042166844
48	0xbdd65062	-0.104645506
49	0xbd9998f6	-0.07499878
50	0xbd870220	-0.06592202
51	0xbebbe3ba	-0.3669718
52	0x3ec36dde	0.3816976
53	0xbefc51f8	-0.49281287
54	0x3d72159a	0.059102632
55	0xbcb88e53	-0.022528803
56	0xbe09769d	-0.13424154
57	0x3eba1573	0.3634449
58	0x3d760b85	0.06006958
59	0x3ec2ffb8	0.38085723
60	0x3ea6e302	0.32595068
61	0x3e20aa31	0.15689923
62	0x3e2cb98e	0.16867658
63	0x3e0616a3	0.13094573
64	0xbd87bc50	-0.06627715
65	0x3f39627a	0.7241589
66	0x3e1b2b0c	0.1515314
67	0xbd457553	-0.048207592
68	0x3ddad4f4	0.10685149
69	0xbde9543a	-0.11393018
70	0x3e806cb7	0.25082943
71	0xbcad8cb0	-0.02118525
72	0xbda67cc1	-0.08129264
73	0xbe1524d1	-0.14564826
74	0x3e2cfcdd	0.16893335
75	0x3dc46b14	0.09590736
76	0xbcc6ab14	-0.024251498
77	0x3e3c4f0b	0.18389527
78	0xbb29a0ce	-0.00258832
79	0xbd6a2799	-0.05716667
80	0x3ea59fef	0.32348582
81	0x3e97828f	0.29591796
82	0xbe012d33	-0.12614898
83	0x3e93960b	0.2882541
84	0xbdc917e5	-0.09819011
85	0x3cc55814	0.02408985
86	0xbe3c1c86	-0.18370256
87	0x3ed34e13	0.41270503
88	0x3f1fb128	0.62379694
89	0x3e9e1e7b	0.3088263
90	0x3dcdc155	0.10046641
91	0xbdbaac0e	-0.09114848
92	0x3e085ff3	0.13317852
93	0xbd0fbc92	-0.035091944
94	0x3d98dae5	0.07463626
95	0xbdc86b33	-0.09786072
96	0xbd7cd59c	-0.06172715
97	0xbe154acc	-0.14579314
98	0xbdd09dc1	-0.10186339
99	0x3e511dd3	0.20421533
100	0x3d1a684d	0.037697125
101	0x3d533953	0.05156834
102	0xbd4838af	-0.048882183
103	0xbdad1afe	-0.08452414
104	0xbe113e55	-0.14183934
105	0x3ec662b3	0.38747177
106	0xbe1c77f4	-0.15280133
107	0xbe121323	-0.14265113
108	0xbd962fb9	-0.07333321
109	0xbe16a2d6	-0.14710554
110	0x3f0a64f8	0.54060316
111	0x3e102026	0.14074764
112	0x3c028291	0.0079657
113	0xbcb14769	-0.021640496
114	0xbd82e546	-0.06391387
115	0x3bb81039	0.0056171683
116	0x3e3f6f46	0.18694791
117	0x3e5d728f	0.21625732
118	0x3d211e40	0.03933549
119	0xbdd9f316	-0.10642068
120	0x3eef3831	0.46722558
121	0xbc55b9a6	-0.01304475
122	0xbd3c2703	-0.045935642
123	0x3e15fd7b	0.14647476
124	0xbd270fc7	-0.04078653
125	0xbd7dfe5d	-0.062010158
126	0x3e98c189	0.29835156
127	0xbdaa5914	-0.083177716
128	0xbe8eea53	-0.2791315
129	0xbc8297d0	-0.01594153
130	0x3c9f71be	0.019463416
131	0x3e2a9284	0.16657454
132	0xbd114165	-0.035462756
133	0x3d98bf37	0.07458346
134	0xbc9146a2	-0.017733876
135	0xbe8a3215	-0.26991335
136	0xbe3ce801	-0.18447877
137	0x3deb7236	0.114963934
138	0xbde76f31	-0.11300505
139	0x3ec27ab5	0.37984243
140	0x3e79fb2f	0.24412225
141	0xbdde1506	-0.10843854
142	0x3e39335a	0.18085995
143	0x3e7cd114	0.24689132
144	0xbe616ace	-0.22013399
145	0x3e66f5a6	0.22554645
146	0x3e31f73b	0.17379467
147	0x3e181736	0.14852604
148	0x3e3025a6	0.17201862
149	0xbed6526e	-0.41859764
150	0xbde4fea7	-0.111813836
151	0xbdff2428	-0.12458068
152	0x3d668d1d	0.05628692
153	0xbe128753	-0.14309435
154	0xbe3b8194	-0.18311149
155	0xbe0e82c3	-0.13917069
156	0xbd86ab81	-0.065756805
157	0xbe3499aa	-0.17636743
158	0xbc46c5a7	-0.012132085
159	0xbd0a1eb8	-0.033720702
160	0x3e076c8e	0.13225004
161	0x3de80f7f	0.11331081
162	0xbd4c4965	-0.049874682
163	0xbe2fbf3c	-0.17162794
164	0x3d7ac58e	0.06122356
165	0x3de9e0bd	0.114198186
166	0x3dd2e884	0.10298255
167	0xbdb76ea3	-0.08956649
168	0x3e3c2296	0.18372568
169	0x3e4b119e	0.19830939
170	0xbcfc79fb	-0.030819884
171	0xbcfc8489	-0.030824916
172	0xbdb6507a	-0.089020684
173	0x3e0be886	0.1366292
174	0x3d3d504c	0.046219155
175	0xbd10dab1	-0.03536481
176	0x3e5d5f9a	0.216185
177	0x3e42ee16	0.19036135
178	0xbe058cc2	-0.13041976
179	0x3f02f010	0.51147556
180	0x3d19f7ab	0.03758971
181	0x3e08a681	0.13344766
182	0x3e93fcd5	0.28903833
183	0xbd03a0d4	-0.0321358
184	0x3e417536	0.18892369
185	0xbe6327d3	-0.2218316
186	0xbd63733b	-0.055529814
187	0x3e4bab92	0.19889668
188	0xbd036872	-0.03208203
189	0x3be450fe	0.006967663
190	0xbe8e61fe	-0.27809137
191	0xbedbb471	-0.42911103
192	0x3cac4aab	0.021031698
193	0xbde5f561	-0.11228443
194	0x3e079c2c	0.13243169
195	0xbe04f8ac	-0.12985486
196	0xbe6dbc84	-0.23216444
197	0x3e472f3c	0.19451612
198	0x3f006058	0.5014701
199	0xbdd1d438	-0.10245556
200	0xbe155105	-0.14581688
201	0xbe17060a	-0.14748397
202	0x3e3ffe2c	0.18749303
203	0x3dd4026b	0.10352024
204	0x3e86a160	0.26294994
205	0xbe9b87ba	-0.3037699
206	0xbe0e753b	-0.13911907
207	0x3df607f0	0.12013233
208	0x3e81ac8b	0.25326952
209	0xbe960117	-0.29297706
210	0x3e2e2116	0.17004809
211	0x3ddf3b05	0.10899929
212	0x3e1f21ba	0.1554021
213	0xbe3d7688	-0.18502247
214	0xbe09f1b8	-0.13471115
215	0x3e0e21e1	0.13880111
216	0x3e3f0a3d	0.1865625
217	0xbdcbeb36	-0.09956972
218	0x3e2d516e	0.16925594
219	0xbde6d222	-0.112705484
220	0x3eb5195c	0.3537091
221	0x3e2ae572	0.16689089
222	0xbdd75c8e	-0.105157
223	0xbe176843	-0.14785866
224	0x3d2e21c4	0.04251267
225	0x3e4db754	0.20089465
226	0xbe2e60dd	-0.17029138
227	0x3dfccb58	0.12343472
228	0xbda4a8b7	-0.08039992
229	0x3e82575f	0.25457284
230	0xbe102712	-0.14077404
231	0xbe2f4a88	-0.17118275
232	0xbd96d8fe	-0.07365607
233	0x3e3ab4c3	0.18233018
234	0x3d15888c	0.036507174
235	0x3da5a0a1	0.08087278
236	0x3dc95301	0.09830285
237	0xbcca99a0	-0.024731457
238	0xbe89c987	-0.26911566
239	0xbeae8986	-0.34089297
240	0x3b846cec	0.004041305
241	0x3dd86222	0.10565592
242	0xbe4a1a49	-0.1973659
243	0xbe093b46	-0.13401517
244	0xbcfff00b	-0.031242391
245	0xbe1d8c88	-0.1538564
246	0x3e27495d	0.1633658
247	0x3deeec1e	0.116661295
248	0x3e074e9f	0.13213585
249	0x3bb82c44	0.0056205112
250	0x3d911919	0.07084865
251	0xbf155337	-0.583301
252	0xbdb70a8a	-0.08937557
253	0x3e25ffb7	0.16210829
254	0xbd95d26c	-0.073155254
255	0x3d591e95	0.05300768

mlp.5.bias f4 [4]
0	0x3d40caff	0.047068592
1	0xbd4c2c81	-0.04984713
2	0x3d910b8d	0.07082281
3	0x3ceaca63	0.028660959
