ddpg_actor_model_weights.pth (torch, 160116 bytes, 10 tensors)

mlp.0.weight f4 [128, 33]
0	0x00009972	5.5046e-41
1	0x0000a88a	6.046e-41
2	0x800099db	-5.5193e-41
3	0x8000a2bd	-5.838e-41
4	0x0000aab5	6.1238e-41
5	0x8000aede	-6.273e-41
6	0x80009b81	-5.5784e-41
7	0x8000a923	-6.0675e-41
8	0x800092f7	-5.2721e-41
9	0x800088b9	-4.9047e-41
10	0x80009efb	-5.7031e-41
11	0x800091a9	-5.2253e-41
12	0x00008cd1	5.0515e-41
13	0x00009164	5.2156e-41
14	0x00009be6	5.5926e-41
15	0x8000a373	-5.8635e-41
16	0x0000a5c3	5.9464e-41
17	0x000088c2	4.906e-41
18	0x0000a7cd	6.0196e-41
19	0x000094b1	5.334e-41
20	0x800097a6	-5.4401e-41
21	0x8000a7f6	-6.0253e-41
22	0x0000ab4e	6.1453e-41
23	0x80009bea	-5.5931e-41
24	0x8000a5cd	-5.9478e-41
25	0x00008f05	5.1306e-41
26	0x8000a87b	-6.044e-41
27	0x8000a657	-5.9671e-41
28	0x8000a6c2	-5.9821e-41
29	0x0000891f	4.919e-41
30	0x0000a657	5.9671e-41
31	0x0000890c	4.9163e-41
32	0x0000a287	5.8304e-41
33	0x800093be	-5.3e-41
34	0x80008b28	-4.992e-41
35	0x000092b0	5.2622e-41
36	0x000060f4	3.478e-41
37	0x800010b4	-5.992e-42
38	0x00008b7a	5.0035e-41
39	0x0000906c	5.1809e-41
40	0x00008fa0	5.1523e-41
41	0x0000a07a	5.7568e-41
42	0x00008ee8	5.1265e-41
43	0x000092ad	5.2617e-41
44	0x0000891f	4.919e-41
45	0x0000953f	5.354e-41
46	0x8000993c	-5.497e-41
47	0x8000af01	-6.278e-41
48	0x0000a7b0	6.0155e-41
49	0x80009244	-5.247e-41
50	0x800090c6	-5.1935e-41
51	0x80009ba2	-5.583e-41
52	0x000095b0	5.3698e-41
53	0x8000a3d8	-5.8776e-41
54	0x0000a40d	5.885e-41
55	0x80009d61	-5.6457e-41
56	0x8000a881	-6.0448e-41
57	0x0000a8d2	6.0561e-41
58	0x80009c99	-5.6177e-41
59	0x8000ab36	-6.1419e-41
60	0x00009bd4	5.59e-41
61	0x000095a6	5.3684e-41
62	0x00008946	4.9244e-41
63	0x80009bd4	-5.59e-41
64	0x00008913	4.9173e-41
65	0x00008eec	5.1271e-41
66	0x800097e4	-5.4488e-41
67	0x800098f2	-5.4866e-41
68	0x00008d52	5.0696e-41
69	0x800099f2	-5.5225e-41
70	0x80009dd1	-5.6614e-41
71	0x00002dde	1.6454e-41
72	0x00009c03	5.5966e-41
73	0x0000a6ef	5.9884e-41
74	0x0000abe4	6.1663e-41
75	0x0000a638	5.9628e-41
76	0x0000a2b1	5.8363e-41
77	0x00009022	5.1705e-41
78	0x000091c4	5.2291e-41
79	0x8000ad9c	-6.228e-41
80	0x80009ac7	-5.5524e-41
81	0x0000932f	5.28e-41
82	0x80009d81	-5.6502e-41
83	0x8000993e	-5.4973e-41
84	0x8000ac66	-6.1845e-41
85	0x0000ac65	6.1844e-41
86	0x80009f92	-5.7243e-41
87	0x00008923	4.9195e-41
88	0x800096dc	-5.4118e-41
89	0x800092b9	-5.2634e-41
90	0x8000960d	-5.3828e-41
91	0x8000a6d1	-5.9842e-41
92	0x8000a58b	-5.9386e-41
93	0x00009b9b	5.5821e-41
94	0x0000965c	5.3939e-41
95	0x000088d9	4.9092e-41
96	0x80009b9b	-5.5821e-41
97	0x800089f4	-4.9488e-41
98	0x00008cdd	5.0532e-41
99	0x8000a5f9	-5.954e-41
100	0x800095bb	-5.3713e-41
101	0x0000a21a	5.8151e-41
102	0x00008c6b	5.0372e-41
103	0x800090fa	-5.2008e-41
104	0x0000a0fc	5.775e-41
105	0x0000943c	5.3176e-41
106	0x0000899d	4.9366e-41
107	0x00009648	5.3911e-41
108	0x0000910d	5.2034e-41
109	0x8000abce	-6.1632e-41
110	0x00009792	5.4373e-41
111	0x0000a86e	6.0421e-41
112	0x800088bf	-4.9055e-41
113	0x8000ae10	-6.2442e-41
114	0x0000a979	6.0795e-41
115	0x80008e3e	-5.1027e-41
116	0x80009094	-5.1865e-41
117	0x000096d0	5.4101e-41
118	0x000089e3	4.9464e-41
119	0x80009570	-5.3608e-41
120	0x00008cad	5.0465e-41
121	0x8000920a	-5.2389e-41
122	0x8000a10a	-5.777e-41
123	0x0000aaf2	6.1324e-41
124	0x80009d9b	-5.6538e-41
125	0x8000989a	-5.4743e-41
126	0x00008b31	4.9932e-41
127	0x0000abc6	6.162e-41
128	0x00008a39	4.9585e-41
129	0x80008b31	-4.9932e-41
130	0x80008ad5	-4.9804e-41
131	0x0000a86b	6.0417e-41
132	0x0000ac61	6.1838e-41
133	0x000091f0	5.2353e-41
134	0x8000915e	-5.2148e-41
135	0x80006ea4	-3.969e-41
136	0x80007c11	-4.4507e-41
137	0x800097ff	-5.4526e-41
138	0x80009190	-5.2218e-41
139	0x800096c1	-5.408e-41
140	0x80009892	-5.4732e-41
141	0x80009d9c	-5.654e-41
142	0x0000a716	5.9939e-41
143	0x80009771	-5.4327e-41
144	0x8000a791	-6.0112e-41
145	0x00008d48	5.0682e-41
146	0x0000a46d	5.8985e-41
147	0x8000aba5	-6.1574e-41
148	0x8000a396	-5.8684e-41
149	0x0000a8ac	6.0508e-41
150	0x80008b3b	-4.9946e-41
151	0x8000a3b5	-5.8727e-41
152	0x00009755	5.4288e-41
153	0x80009f51	-5.7152e-41
154	0x00008ef1	5.1278e-41
155	0x000096c1	5.408e-41
156	0x80009825	-5.4579e-41
157	0x0000ab91	6.1546e-41
158	0x0000923a	5.2456e-41
159	0x80009f2b	-5.7099e-41
160	0x8000a6f1	-5.9887e-41
161	0x80008913	-4.9173e-41
162	0x00009f2b	5.7099e-41
163	0x00008906	4.9155e-41
164	0x8000a70e	-5.9928e-41
165	0x0000a35d	5.8604e-41
166	0x00008fc9	5.158e-41
167	0x800093c7	-5.3013e-41
168	0x8000940d	-5.311e-41
169	0x0000adde	6.2372e-41
170	0x8000a3c5	-5.875e-41
171	0x8000919d	-5.2236e-41
172	0x8000911e	-5.2058e-41
173	0x8000ab3e	-6.143e-41
174	0x8000a010	-5.742e-41
175	0x80008917	-4.9179e-41
176	0x8000a5d8	-5.9494e-41
177	0x8000aca3	-6.193e-41
178	0x0000a52d	5.9254e-41
179	0x00009537	5.3528e-41
180	0x8000aa0c	-6.1001e-41
181	0x00007643	4.2424e-41
182	0x0000a80c	6.0284e-41
183	0x80008a93	-4.9711e-41
184	0x000030ee	1.7553e-41
185	0x00009426	5.3146e-41
186	0x80009eea	-5.7008e-41
187	0x000049ee	2.6521e-41
188	0x0000934f	5.2844e-41
189	0x800095fa	-5.3801e-41
190	0x0000a96a	6.0774e-41
191	0x000091b9	5.2275e-41
192	0x00001efa	1.1112e-41
193	0x80009332	-5.2804e-41
194	0x80008966	-4.9289e-41
195	0x80001efa	-1.1112e-41
196	0x00009042	5.175e-41
197	0x8000ae1a	-6.2456e-41
198	0x80009cf3	-5.6303e-41
199	0x00009886	5.4715e-41
200	0x00008bd1	5.0157e-41
201	0x8000a137	-5.7833e-41
202	0x80009f16	-5.7069e-41
203	0x800081c5	-4.6553e-41
204	0x80005b49	-3.2747e-41
205	0x0000a172	5.7916e-41
206	0x000091c1	5.2287e-41
207	0x0000a6a6	5.9782e-41
208	0x8000a494	-5.904e-41
209	0x800088c5	-4.9064e-41
210	0x8000aa60	-6.1119e-41
211	0x80009f32	-5.7109e-41
212	0x8000ad4c	-6.2167e-41
213	0x00009392	5.2938e-41
214	0x000012a9	6.694e-42
215	0x80003933	-2.0519e-41
216	0x000080e0	4.6232e-41
217	0x8000575f	-3.1343e-41
218	0x80009e36	-5.6755e-41
219	0x0000ab96	6.1553e-41
220	0x8000aacc	-6.127e-41
221	0x800091e5	-5.2337e-41
222	0x8000a93b	-6.0708e-41
223	0x0000944f	5.3203e-41
224	0x0000a356	5.8594e-41
225	0x00009464	5.3233e-41
226	0x00008cf2	5.0562e-41
227	0x00008991	4.935e-41
228	0x80009464	-5.3233e-41
229	0x80008955	-4.9265e-41
230	0x80007d90	-4.5043e-41
231	0x0000a5ba	5.9451e-41
232	0x000089c5	4.9422e-41
233	0x80008b59	-4.9989e-41
234	0x000099e4	5.5206e-41
235	0x00008d96	5.0791e-41
236	0x80008a6e	-4.9659e-41
237	0x8000a21a	-5.8151e-41
238	0x8000ab8c	-6.154e-41
239	0x8000a240	-5.8204e-41
240	0x80009993	-5.5092e-41
241	0x80009c8f	-5.6163e-41
242	0x80009e71	-5.6838e-41
243	0x80003d42	-2.1975e-41
244	0x000091d5	5.2315e-41
245	0x00009314	5.2762e-41
246	0x80008a25	-4.9557e-41
247	0x0000905f	5.179e-41
248	0x00009075	5.1821e-41
249	0x800081be	-4.6543e-41
250	0x8000aeda	-6.2725e-41
251	0x0000a25b	5.8242e-41
252	0x800089f7	-4.9492e-41
253	0x0000a0e5	5.7718e-41
254	0x0000a132	5.7826e-41
255	0x8000a2a9	-5.8351e-41

mlp.0.bias f4 [128]
0	0x0000a7b9	6.0168e-41
1	0x80008ab2	-4.9755e-41
2	0x8000ae46	-6.2518e-41
3	0x80008d6e	-5.0735e-41
4	0x00009120	5.2061e-41
5	0x80002baa	-1.5664e-41
6	0x80009f4b	-5.7144e-41
7	0x00009920	5.4931e-41
8	0x80009a4f	-5.5355e-41
9	0x0000a84a	6.0371e-41
10	0x00009335	5.2808e-41
11	0x000097c0	5.4438e-41
12	0x0000907b	5.183e-41
13	0x80009b67	-5.5748e-41
14	0x0000ac14	6.173e-41
15	0x0000962e	5.3874e-41
16	0x800094ed	-5.3425e-41
17	0x00009bd7	5.5905e-41
18	0x0000acd9	6.2006e-41
19	0x0000a543	5.9285e-41
20	0x80008d10	-5.0604e-41
21	0x80008ed2	-5.1234e-41
22	0x00009364	5.2874e-41
23	0x00008906	4.9155e-41
24	0x000028ca	1.4632e-41
25	0x80008db3	-5.0832e-41
26	0x8000ae5a	-6.2546e-41
27	0x0000ae30	6.2487e-41
28	0x00009843	5.4621e-41
29	0x800095c9	-5.3733e-41
30	0x00009eb4	5.6932e-41
31	0x00009fbc	5.7302e-41
32	0x000088cb	4.9072e-41
33	0x8000ab70	-6.15e-41
34	0x80009e35	-5.6754e-41
35	0x80009e3c	-5.6764e-41
36	0x000093f3	5.3074e-41
37	0x80009908	-5.4897e-41
38	0x0000a2f5	5.8458e-41
39	0x80008c60	-5.0357e-41
40	0x800088bf	-4.9055e-41
41	0x00009a69	5.5392e-41
42	0x80008a66	-4.9648e-41
43	0x8000a8e8	-6.0592e-41
44	0x0000a12b	5.7816e-41
45	0x000097c6	5.4446e-41
46	0x00008f94	5.1506e-41
47	0x00009a0d	5.5263e-41
48	0x80008e20	-5.0985e-41
49	0x80009e52	-5.6795e-41
50	0x80008e91	-5.1143e-41
51	0x8000283c	-1.4433e-41
52	0x8000162b	-7.952e-42
53	0x80008a5a	-4.9631e-41
54	0x8000aa0a	-6.0999e-41
55	0x0000a48d	5.903e-41
56	0x8000a63c	-5.9634e-41
57	0x00009278	5.2543e-41
58	0x00009539	5.3531e-41
59	0x00006845	3.7405e-41
60	0x00009774	5.4331e-41
61	0x8000a06d	-5.755e-41
62	0x0000a67f	5.9728e-41
63	0x000008dd	3.18e-42
64	0x8000a1db	-5.8063e-41
65	0x80008f27	-5.1353e-41
66	0x80009956	-5.5007e-41
67	0x00008c03	5.0227e-41
68	0x00008e32	5.101e-41
69	0x80004d74	-2.7785e-41
70	0x8000a98b	-6.082e-41
71	0x80009273	-5.2536e-41
72	0x80009173	-5.2177e-41
73	0x8000a370	-5.863e-41
74	0x8000a39e	-5.8695e-41
75	0x80004d82	-2.7805e-41
76	0x8000a666	-5.9693e-41
77	0x0000a90c	6.0643e-41
78	0x00008aa2	4.9732e-41
79	0x00008a28	4.9561e-41
80	0x800089c9	-4.9428e-41
81	0x800095ec	-5.3782e-41
82	0x0000a72f	5.9974e-41
83	0x00009dae	5.6565e-41
84	0x80008c6a	-5.0371e-41
85	0x000088df	4.91e-41
86	0x00008b8a	5.0057e-41
87	0x00007d12	4.4867e-41
88	0x8000ad89	-6.2253e-41
89	0x8000a077	-5.7564e-41
90	0x00009d82	5.6503e-41
91	0x000095e0	5.3765e-41
92	0x8000a303	-5.8478e-41
93	0x80009508	-5.3462e-41
94	0x0000a18c	5.7952e-41
95	0x8000ae85	-6.2606e-41
96	0x80008a2d	-4.9568e-41
97	0x8000a77d	-6.0083e-41
98	0x000099e7	5.521e-41
99	0x8000a3a6	-5.8706e-41
100	0x0000a938	6.0704e-41
101	0x0000a1b0	5.8003e-41
102	0x8000658e	-3.6431e-41
103	0x80008945	-4.9243e-41
104	0x8000940d	-5.311e-41
105	0x8000a0e8	-5.7722e-41
106	0x000097f7	5.4515e-41
107	0x80009645	-5.3907e-41
108	0x80008a83	-4.9689e-41
109	0x8000abfc	-6.1696e-41
110	0x00009517	5.3483e-41
111	0x0000944e	5.3202e-41
112	0x0000ad83	6.2244e-41
113	0x0000a22b	5.8175e-41
114	0x800044b3	-2.4645e-41
115	0x800094f4	-5.3434e-41
116	0x00004a00	2.6546e-41
117	0x80009fe7	-5.7362e-41
118	0x800092d0	-5.2666e-41
119	0x80008199	-4.6491e-41
120	0x800012a8	-6.693e-42
121	0x8000aae4	-6.1304e-41
122	0x800091ef	-5.2351e-41
123	0x0000abb1	6.1591e-41
124	0x0000985e	5.4659e-41
125	0x80008b7a	-5.0035e-41
126	0x80009089	-5.185e-41
127	0x800094d5	-5.3391e-41

mlp.1.weight f4 [128]
0	0x80008f05	-5.1306e-41
1	0x00009b59	5.5728e-41
2	0x0000a1b7	5.8012e-41
3	0x00008ae0	4.9819e-41
4	0x80009186	-5.2204e-41
5	0x8000ae3d	-6.2505e-41
6	0x00008bc3	5.0137e-41
7	0x8000a767	-6.0053e-41
8	0x0000ac3d	6.1787e-41
9	0x8000a7c0	-6.0177e-41
10	0x80008bb1	-5.0112e-41
11	0x80008acd	-4.9792e-41
12	0x8000a176	-5.7921e-41
13	0x000091a5	5.2247e-41
14	0x8000a203	-5.8119e-41
15	0x8000a719	-5.9943e-41
16	0x0000aab4	6.1237e-41
17	0x8000a323	-5.8522e-41
18	0x80009de2	-5.6638e-41
19	0x8000a265	-5.8256e-41
20	0x0000a0f7	5.7743e-41
21	0x0000a583	5.9374e-41
22	0x80008967	-4.929e-41
23	0x80008e19	-5.0975e-41
24	0x00009ffb	5.739e-41
25	0x00009c06	5.597e-41
26	0x0000a6f7	5.9896e-41
27	0x80008a94	-4.9712e-41
28	0x8000a00e	-5.7417e-41
29	0x0000a30e	5.8493e-41
30	0x8000945f	-5.3226e-41
31	0x800098c8	-5.4808e-41
32	0x80008eb5	-5.1194e-41
33	0x0000a8bb	6.0529e-41
34	0x00008e50	5.1052e-41
35	0x00009852	5.4642e-41
36	0x8000a0ab	-5.7637e-41
37	0x0000a873	6.0428e-41
38	0x80009ec2	-5.6952e-41
39	0x0000a272	5.8274e-41
40	0x0000932f	5.28e-41
41	0x80009d6b	-5.6471e-41
42	0x0000931f	5.2777e-41
43	0x00009a37	5.5322e-41
44	0x8000922e	-5.244e-41
45	0x80009ed4	-5.6977e-41
46	0x8000a2bc	-5.8378e-41
47	0x8000a656	-5.967e-41
48	0x00009515	5.348e-41
49	0x000096c5	5.4086e-41
50	0x00008963	4.9285e-41
51	0x0000a3a7	5.8707e-41
52	0x00009c16	5.5993e-41
53	0x00009d7b	5.6493e-41
54	0x000090e5	5.1978e-41
55	0x80009f9d	-5.7258e-41
56	0x0000935c	5.2863e-41
57	0x80008c15	-5.0252e-41
58	0x80009469	-5.324e-41
59	0x80009bdf	-5.5916e-41
60	0x80009bd4	-5.59e-41
61	0x00008b64	5.0004e-41
62	0x80009c15	-5.5992e-41
63	0x8000a245	-5.8211e-41
64	0x0000a5db	5.9498e-41
65	0x00009065	5.1799e-41
66	0x00008c56	5.0343e-41
67	0x80008f8e	-5.1498e-41
68	0x8000a2ef	-5.845e-41
69	0x0000909a	5.1873e-41
70	0x00008fe2	5.1615e-41
71	0x00009f28	5.7095e-41
72	0x0000ace8	6.2027e-41
73	0x00008bce	5.0152e-41
74	0x0000a48f	5.9033e-41
75	0x0000a1ab	5.7996e-41
76	0x00008cf2	5.0562e-41
77	0x80009ef0	-5.7016e-41
78	0x80008e6d	-5.1093e-41
79	0x8000abcf	-6.1633e-41
80	0x0000a28c	5.8311e-41
81	0x0000a646	5.9648e-41
82	0x8000a069	-5.7544e-41
83	0x800088f7	-4.9134e-41
84	0x000089a2	4.9373e-41
85	0x80009bf0	-5.594e-41
86	0x80008dcc	-5.0867e-41
87	0x80008e8f	-5.114e-41
88	0x00008cf4	5.0564e-41
89	0x00009267	5.2519e-41
90	0x80008ab5	-4.9759e-41
91	0x80008c43	-5.0316e-41
92	0x000092b3	5.2626e-41
93	0x0000ad7b	6.2233e-41
94	0x8000a3dc	-5.8782e-41
95	0x00008b1e	4.9906e-41
96	0x00008dbd	5.0846e-41
97	0x000089b1	4.9394e-41
98	0x8000a6e6	-5.9872e-41
99	0x00008b16	4.9895e-41
100	0x8000a792	-6.0113e-41
101	0x8000a003	-5.7401e-41
102	0x00008d03	5.0585e-41
103	0x000092f5	5.2718e-41
104	0x0000a31f	5.8517e-41
105	0x000096e0	5.4124e-41
106	0x80008bc7	-5.0143e-41
107	0x0000aec6	6.2697e-41
108	0x00009e8c	5.6876e-41
109	0x0000892d	4.921e-41
110	0x8000a650	-5.9662e-41
111	0x8000962d	-5.3873e-41
112	0x80008c7e	-5.0399e-41
113	0x8000911d	-5.2057e-41
114	0x00008d65	5.0723e-41
115	0x000095cd	5.3738e-41
116	0x000099de	5.5197e-41
117	0x0000a973	6.0787e-41
118	0x0000ad3c	6.2145e-41
119	0x8000a5ff	-5.9548e-41
120	0x00008b1f	4.9907e-41
121	0x000099be	5.5152e-41
122	0x00008ae0	4.9819e-41
123	0x8000ae60	-6.2554e-41
124	0x8000969e	-5.4031e-41
125	0x00009e34	5.6753e-41
126	0x00008b7f	5.0042e-41
127	0x00008a4b	4.961e-41

mlp.1.bias f4 [128]
0	0x3d92c42b	0.07166322
1	0x3deda956	0.11604564
2	0x3e004248	0.12525284
3	0x3e17084f	0.14749263
4	0x3e2f30ed	0.17108507
5	0x3e0d62d7	0.13807236
6	0x3d8ffdc8	0.07030827
7	0x3e062591	0.13100268
8	0x3dabb97d	0.083849885
9	0x3dfa8c02	0.122337356
10	0x3d971f1d	0.07378981
11	0x3d98e96c	0.07466397
12	0x3df40bbf	0.11916303
13	0x3e26a286	0.16272935
14	0x3e19d347	0.15022002
15	0x3e002aaf	0.12516282
16	0x3e1da37f	0.153944
17	0x3db87486	0.090066
18	0x3e01a5ba	0.12660876
19	0x3dea9eea	0.11456092
20	0x3dcff567	0.10154229
21	0x3e018989	0.12650122
22	0x3d99449f	0.074837916
23	0x3d9df27b	0.07712265
24	0x3e05a7e8	0.13052332
25	0x3dde56dc	0.10856411
26	0x3e08c19b	0.13355105
27	0x3da3bd75	0.079951204
28	0x3df46b43	0.11934521
29	0x3dcb36fb	0.09922596
30	0x3e1ac097	0.1511253
31	0x3dc46b69	0.09590799
32	0x3da8dbff	0.08245086
33	0x3d8b7a7d	0.06810472
34	0x3dc4f1ca	0.0961643
35	0x3e05ea20	0.13077593
36	0x3e075e1a	0.1321949
37	0x3dd173ed	0.10227189
38	0x3db782e6	0.08960514
39	0x3dc5fd31	0.09667433
40	0x3ded01ff	0.11572646
41	0x3db0e597	0.08637541
42	0x3df27892	0.11839403
43	0x3df9d304	0.12198451
44	0x3dd45b2e	0.10368954
45	0x3df0a052	0.11749329
46	0x3da86571	0.082224734
47	0x3dea9da7	0.11455851
48	0x3d918838	0.0710606
49	0x3d931e5c	0.07183525
50	0x3df67a4c	0.12035045
51	0x3df67064	0.120331556
52	0x3de67524	0.112528116
53	0x3df1f7fb	0.11814877
54	0x3dd5475f	0.104140036
55	0x3e06186d	0.13095255
56	0x3dc92c58	0.09822911
57	0x3dcc7701	0.09983636
58	0x3e00b5a5	0.12569292
59	0x3d978c20	0.073997736
60	0x3d9b6374	0.075873286
61	0x3d96d3a6	0.073645875
62	0x3e00d322	0.12580541
63	0x3dadb036	0.08480875
64	0x3dcf4aad	0.10121665
65	0x3e0bc140	0.13647938
66	0x3d94b7ce	0.072616205
67	0x3de2b9c6	0.1107059
68	0x3e0275a9	0.12740196
69	0x3da4c73a	0.08045812
70	0x3dfd85a3	0.12379005
71	0x3dfe16f0	0.12406719
72	0x3e1d943f	0.15388583
73	0x3df5312d	0.1197227
74	0x3dfb489d	0.12269709
75	0x3e0bc239	0.13648309
76	0x3d92cd92	0.07168116
77	0x3e05c946	0.13065061
78	0x3deb507a	0.11489959
79	0x3e101480	0.1407032
80	0x3e0967b8	0.13418472
81	0x3e2358a7	0.15951787
82	0x3e07bd71	0.1325586
83	0x3d874ee1	0.06606842
84	0x3dfa4abe	0.12221287
85	0x3df1f211	0.11813749
86	0x3d997608	0.07493216
87	0x3d949fa1	0.07257009
88	0x3d919d29	0.07110054
89	0x3e33a001	0.17541505
90	0x3d938ff7	0.072051935
91	0x3da59bb9	0.08086342
92	0x3e151fcb	0.1456291
93	0x3e0b1d20	0.13585329
94	0x3d977df3	0.0739707
95	0x3d9e434f	0.07727682
96	0x3dfe9283	0.12430289
97	0x3d8be70f	0.0683118
98	0x3e020f40	0.1270113
99	0x3d8dc490	0.06922257
100	0x3da26aa3	0.079304956
101	0x3dfc5233	0.12320366
102	0x3d9309e2	0.07179619
103	0x3e12e1b6	0.14343914
104	0x3dfd2327	0.123602204
105	0x3e00ad37	0.12566076
106	0x3d84bd62	0.064814344
107	0x3df497cd	0.11943016
108	0x3dab24a8	0.08356601
109	0x3d8b6ee9	0.06808264
110	0x3e0793d5	0.13239987
111	0x3d9c16a7	0.07621508
112	0x3ddda9af	0.1082338
113	0x3e077c98	0.13231122
114	0x3dd8cb2f	0.10585629
115	0x3e3b039c	0.18263096
116	0x3e18c386	0.14918336
117	0x3def70d9	0.11691446
118	0x3dea32b2	0.114354506
119	0x3e084bc9	0.1331016
120	0x3d7b8239	0.061403487
121	0x3dfe9c11	0.12432111
122	0x3d906fd1	0.07052577
123	0x3e1afcfd	0.1513557
124	0x3e21b3e3	0.15791278
125	0x3e0247f9	0.12722768
126	0x3e0904fc	0.13380808
127	0x3d928bd3	0.071555756

mlp.1.running_mean f4 [128]
0	0x800250c4	-2.12644e-40
1	0x0000626a	3.5304e-41
2	0x80000004	-6e-45
3	0x0000c1f2	6.9574e-41
4	0x80006d98	-3.9315e-41
5	0x8002fc82	-2.74254e-40
6	0x80023bc7	-2.05115e-40
7	0x80000744	-2.606e-42
8	0x80000a6c	-3.739e-42
9	0x8000366c	-1.9523e-41
10	0x8001c46c	-1.62298e-40
11	0x8001d358	-1.67651e-40
12	0x00000c37	4.382e-42
13	0x000013be	7.082e-42
14	0x800058ef	-3.1903e-41
15	0x80006a95	-3.8234e-41
16	0x00001dbd	1.0668e-41
17	0x80006ee4	-3.978e-41
18	0x80003487	-1.8843e-41
19	0x800061a9	-3.5034e-41
20	0x00010360	9.3046e-41
21	0x00001ff8	1.1468e-41
22	0x000021a4	1.2068e-41
23	0x0002fb38	2.73791e-40
24	0x00029acd	2.39203e-40
25	0x0000473a	2.5551e-41
26	0x800005a4	-2.023e-42
27	0x0002bbf3	2.51094e-40
28	0x8000277c	-1.4164e-41
29	0x000040c6	2.3236e-41
30	0x80006b6f	-3.854e-41
31	0x800070ea	-4.0506e-41
32	0x8000151b	-7.571e-42
33	0x00001690	8.094e-42
34	0x000041d8	2.362e-41
35	0x000048bd	2.6094e-41
36	0x8000249d	-1.3134e-41
37	0x80000bdb	-4.253e-42
38	0x8000214f	-1.1949e-41
39	0x00002d93	1.6349e-41
40	0x00002d83	1.6327e-41
41	0x80000a97	-3.799e-42
42	0x00000629	2.21e-42
43	0x00003d94	2.209e-41
44	0x00000d25	4.715e-42
45	0x80007171	-4.0695e-41
46	0x80005a15	-3.2315e-41
47	0x800034f7	-1.9e-41
48	0x8002af40	-2.46539e-40
49	0x8002c0f0	-2.52884e-40
50	0x00007fba	4.582e-41
51	0x00017f24	1.37445e-40
52	0x00017efd	1.3739e-40
53	0x00004493	2.46e-41
54	0x800353c4	-3.05556e-40
55	0x80008831	-4.8856e-41
56	0x00003847	2.0189e-41
57	0x8000130d	-6.834e-42
58	0x80001598	-7.746e-42
59	0x800040ac	-2.32e-41
60	0x80003590	-1.9215e-41
61	0x8003777a	-3.18367e-40
62	0x80000643	-2.246e-42
63	0x8001d25f	-1.67302e-40
64	0x000050b0	2.8945e-41
65	0x000064e8	3.6198e-41
66	0x00024229	2.07405e-40
67	0x80002eb4	-1.6754e-41
68	0x80005e66	-3.3864e-41
69	0x0000f8c2	8.9237e-41
70	0x00001498	7.388e-42
71	0x80005684	-3.1036e-41
72	0x00007a23	4.3814e-41
73	0x00003531	1.9081e-41
74	0x000003c1	1.347e-42
75	0x00009dee	5.6654e-41
76	0x80036a7f	-3.1371e-40
77	0x80002060	-1.1614e-41
78	0x800088c3	-4.9061e-41
79	0x8000193c	-9.052e-42
80	0x00008169	4.6424e-41
81	0x00007ece	4.5489e-41
82	0x80003dc2	-2.2155e-41
83	0x0004be3d	4.35587e-40
84	0x00001781	8.432e-42
85	0x80002569	-1.342e-41
86	0x00028e27	2.34666e-40
87	0x800280e3	-2.29907e-40
88	0x80000f77	-5.548e-42
89	0x00007421	4.1659e-41
90	0x0005143f	4.6644e-40
91	0x0002af21	2.46495e-40
92	0x0000339f	1.8518e-41
93	0x0000375a	1.9856e-41
94	0x80018865	-1.40765e-40
95	0x8002f980	-2.73175e-40
96	0x00006981	3.7848e-41
97	0x8004b194	-4.31045e-40
98	0x80007a17	-4.3798e-41
99	0x80045d82	-4.00886e-40
100	0x000009cc	3.514e-42
101	0x800039b9	-2.0707e-41
102	0x00029ef0	2.40687e-40
103	0x000030a5	1.745e-41
104	0x00007304	4.126e-41
105	0x00004774	2.5633e-41
106	0x0004d633	4.44182e-40
107	0x80002889	-1.4541e-41
108	0x000071aa	4.0775e-41
109	0x800494e5	-4.20755e-40
110	0x800026f2	-1.3971e-41
111	0x00001568	7.679e-42
112	0x80004f64	-2.848e-41
113	0x8000174e	-8.36e-42
114	0x000085df	4.8024e-41
115	0x0000af12	6.2803e-41
116	0x00027b7a	2.27966e-40
117	0x00002ff8	1.7208e-41
118	0x0000a0ec	5.7728e-41
119	0x800346b9	-3.00877e-40
120	0x8003687e	-3.12991e-40
121	0x00001939	9.048e-42
122	0x8001e5f7	-1.74331e-40
123	0x00003b90	2.1367e-41
124	0x80006864	-3.7448e-41
125	0x000038a8	2.0324e-41
126	0x00004b2f	2.6971e-41
127	0x8001be73	-1.60156e-40

mlp.1.running_var f4 [128]
0	0x00000004	6e-45
1	0x00000004	6e-45
2	0x00000004	6e-45
3	0x00000004	6e-45
4	0x00000004	6e-45
5	0x00000004	6e-45
6	0x00000004	6e-45
7	0x00000004	6e-45
8	0x00000004	6e-45
9	0x00000004	6e-45
10	0x00000004	6e-45
11	0x00000004	6e-45
12	0x00000004	6e-45
13	0x00000004	6e-45
14	0x00000004	6e-45
15	0x00000004	6e-45
16	0x00000004	6e-45
17	0x00000004	6e-45
18	0x00000004	6e-45
19	0x00000004	6e-45
20	0x00000004	6e-45
21	0x00000004	6e-45
22	0x00000004	6e-45
23	0x00000004	6e-45
24	0x00000004	6e-45
25	0x00000004	6e-45
26	0x00000004	6e-45
27	0x00000004	6e-45
28	0x00000004	6e-45
29	0x00000004	6e-45
30	0x00000004	6e-45
31	0x00000004	6e-45
32	0x00000004	6e-45
33	0x00000004	6e-45
34	0x00000004	6e-45
35	0x00000004	6e-45
36	0x00000004	6e-45
37	0x00000004	6e-45
38	0x00000004	6e-45
39	0x00000004	6e-45
40	0x00000004	6e-45
41	0x00000004	6e-45
42	0x00000004	6e-45
43	0x00000004	6e-45
44	0x00000004	6e-45
45	0x00000004	6e-45
46	0x00000004	6e-45
47	0x00000004	6e-45
48	0x00000004	6e-45
49	0x00000004	6e-45
50	0x00000004	6e-45
51	0x00000004	6e-45
52	0x00000004	6e-45
53	0x00000004	6e-45
54	0x00000004	6e-45
55	0x00000004	6e-45
56	0x00000004	6e-45
57	0x00000004	6e-45
58	0x00000004	6e-45
59	0x00000004	6e-45
60	0x00000004	6e-45
61	0x00000004	6e-45
62	0x00000004	6e-45
63	0x00000004	6e-45
64	0x00000004	6e-45
65	0x00000004	6e-45
66	0x00000004	6e-45
67	0x00000004	6e-45
68	0x00000004	6e-45
69	0x00000004	6e-45
70	0x00000004	6e-45
71	0x00000004	6e-45
72	0x00000004	6e-45
73	0x00000004	6e-45
74	0x00000004	6e-45
75	0x00000004	6e-45
76	0x00000004	6e-45
77	0x00000004	6e-45
78	0x00000004	6e-45
79	0x00000004	6e-45
80	0x00000004	6e-45
81	0x00000004	6e-45
82	0x00000004	6e-45
83	0x00000004	6e-45
84	0x00000004	6e-45
85	0x00000004	6e-45
86	0x00000004	6e-45
87	0x00000004	6e-45
88	0x00000004	6e-45
89	0x00000004	6e-45
90	0x00000004	6e-45
91	0x00000004	6e-45
92	0x00000004	6e-45
93	0x00000004	6e-45
94	0x00000004	6e-45
95	0x00000004	6e-45
96	0x00000004	6e-45
97	0x00000004	6e-45
98	0x00000004	6e-45
99	0x00000004	6e-45
100	0x00000004	6e-45
101	0x00000004	6e-45
102	0x00000004	6e-45
103	0x00000004	6e-45
104	0x00000004	6e-45
105	0x00000004	6e-45
106	0x00000004	6e-45
107	0x00000004	6e-45
108	0x00000004	6e-45
109	0x00000004	6e-45
110	0x00000004	6e-45
111	0x00000004	6e-45
112	0x00000004	6e-45
113	0x00000004	6e-45
114	0x00000004	6e-45
115	0x00000004	6e-45
116	0x00000004	6e-45
117	0x00000004	6e-45
118	0x00000004	6e-45
119	0x00000004	6e-45
120	0x00000004	6e-45
121	0x00000004	6e-45
122	0x00000004	6e-45
123	0x00000004	6e-45
124	0x00000004	6e-45
125	0x00000004	6e-45
126	0x00000004	6e-45
127	0x00000004	6e-45

mlp.3.weight f4 [256, 128]
0	0x3c0350b1	0.008014844
1	0x3c544bcc	0.0129575245
2	0x3c651eea	0.013984421
3	0x3c86e4af	0.016466467
4	0x3c9c79d8	0.019101068
5	0x3c7c8ec6	0.015414899
6	0x3c00d847	0.007864065
7	0x3c6fa19d	0.014625934
8	0x3c198890	0.009370938
9	0x3c5fcad9	0.0136592025
10	0x3c07313d	0.008251485
11	0x3c08c932	0.00834875
12	0x3c59fde2	0.013305159
13	0x3c94d4b7	0.018167837
14	0x3c896345	0.016770968
15	0x3c64f4cf	0.013974383
16	0x3c8ccb48	0.017186776
17	0x3c24deae	0.010062857
18	0x3c679963	0.014135691
19	0x3c51956a	0.012791971
20	0x3c39cf7d	0.011340973
21	0x3c676712	0.014123695
22	0x3c091a62	0.008368107
23	0x3c0d44ac	0.00862233
24	0x3c6ec144	0.014572445
25	0x3c46a16d	0.012123448
26	0x3c744a5c	0.014910307
27	0x3c126ccf	0.008937075
28	0x3c5a531a	0.013325477
29	0x3c359526	0.011082923
30	0x3c8a373d	0.016872043
31	0x3c2f8718	0.010713361
32	0x3c16fb85	0.00921524
33	0x3bf9a763	0.007618831
34	0x3c2ffed3	0.010741907
35	0x3c6f3782	0.014600636
36	0x3c71cf9f	0.014758973
37	0x3c3b246a	0.011422256
38	0x3c24077c	0.01001155
39	0x3c30ed15	0.010798712
40	0x3c53b684	0.012921933
41	0x3c1e238a	0.009652028
42	0x3c58962b	0.013219397
43	0x3c5f25c6	0.013619846
44	0x3c3dbaed	0.011580211
45	0x3c56f0db	0.013118948
46	0x3c1691fa	0.009190077
47	0x3c519444	0.012791697
48	0x3c02376f	0.007947787
49	0x3c03a0fe	0.008033989
50	0x3c5c2954	0.013437588
51	0x3c5c207c	0.013435479
52	0x3c4dded0	0.01256533
53	0x3c582371	0.013192044
54	0x3c3e8d7c	0.011630412
55	0x3c6f8a2f	0.014620348
56	0x3c33c36a	0.010971883
57	0x3c36b256	0.011150917
58	0x3c65ecd7	0.014033518
59	0x3c079242	0.008274617
60	0x3c0afd96	0.008483311
61	0x3c06ee0c	0.008235466
62	0x3c66217c	0.014046069
63	0x3c1b482b	0.009477655
64	0x3c39374e	0.01130469
65	0x3c79a516	0.015237113
66	0x3c050d7b	0.00812089
67	0x3c4a8ac6	0.012362188
68	0x3c690c8d	0.014224184
69	0x3c135965	0.008993481
70	0x3c627284	0.013821248
71	0x3c62f42c	0.01385216
72	0x3c8cbda8	0.017180279
73	0x3c5b03ae	0.0133675765
74	0x3c607327	0.013699329
75	0x3c79a6ce	0.015237523
76	0x3c035912	0.0080168415
77	0x3c6efcdb	0.014586653
78	0x3c5233d0	0.012829736
79	0x3c80af34	0.015708543
80	0x3c7572f5	0.014981021
81	0x3c91e494	0.01780919
82	0x3c7279dc	0.014799561
83	0x3bf23a06	0.007392171
84	0x3c5f909e	0.013645319
85	0x3c581e25	0.013190781
86	0x3c09465e	0.008378593
87	0x3c04f7f6	0.008115759
88	0x3c024a14	0.007952232
89	0x3ca07026	0.019584727
90	0x3c04061f	0.0080581
91	0x3c141692	0.009038584
92	0x3c85305f	0.016258417
93	0x3c788001	0.015167237
94	0x3c0785a6	0.00827161
95	0x3c0d8ca0	0.008639485
96	0x3c636274	0.0138784535
97	0x3bfa68b5	0.0076418766
98	0x3c6855bd	0.014180598
99	0x3bfdbb06	0.007743242
100	0x3c113f2e	0.008865161
101	0x3c616022	0.01375583
102	0x3c038ec4	0.008029643
103	0x3c832fb0	0.01601395
104	0x3c621a9e	0.013800291
105	0x3c65ddcb	0.01402993
106	0x3beda6e5	0.0072525614
107	0x3c5a7ad4	0.013334949
108	0x3c190410	0.0093393475
109	0x3bf992c1	0.0076163714
110	0x3c722f90	0.014781848
111	0x3c0b9d1e	0.008521346
112	0x3c460706	0.012086635
113	0x3c720611	0.014771954
114	0x3c41afaa	0.011821667
115	0x3ca70a97	0.020390792
116	0x3c88708a	0.016655225
117	0x3c55e221	0.013054402
118	0x3c5134de	0.012768952
119	0x3c7377f9	0.014860147
120	0x3be13495	0.0068727233
121	0x3c636afa	0.013880486
122	0x3c013dd1	0.007888273
123	0x3c8a6d32	0.016897772
124	0x3c906cad	0.017629946
125	0x3c68bb01	0.014204741
126	0x3c74c2ac	0.0149389915
127	0x3c031e8c	0.008002888
128	0x3b9344b2	0.004494273
129	0x3beddd09	0.0072590155
130	0x3c004fe5	0.007831548
131	0x3c16fbe0	0.009215325
132	0x3c2f0fe7	0.010684944
133	0x3c0d60ae	0.008629007
134	0x3b907cf5	0.0044094273
135	0x3c062be3	0.008189174
136	0x3bac36de	0.005255564
137	0x3bfaaee0	0.0076502413
138	0x3b97a0f4	0.0046273414
139	0x3b996b8b	0.0046820096
140	0x3bf4370d	0.0074528516
141	0x3c2687fc	0.010164257
142	0x3c19c414	0.009385128
143	0x3c00386b	0.007825951
144	0x3c1d90b8	0.009617023
145	0x3bb8e861	0.005642936
146	0x3c01b199	0.007915878
147	0x3bead6a7	0.007166702
148	0x3bd04fb0	0.0063571557
149	0x3c019589	0.007909187
150	0x3b99c6ca	0.004692887
151	0x3b9e74a7	0.0048356834
152	0x3c05aecf	0.008159353
153	0x3bde9ec8	0.0067938305
154	0x3c08c4c8	0.008347698
155	0x3ba43e70	0.005012326
156	0x3bf49616	0.0074641807
157	0x3bcb96fd	0.0062130676
158	0x3c1ab083	0.009441498
159	0x3bc4d330	0.006006621
160	0x3ba95ae8	0.0051683076
161	0x3b8bf6a7	0.0042713466
162	0x3bc55902	0.0060225734
163	0x3c05f0ba	0.0081750695
164	0x3c0762f3	0.008263337
165	0x3bd1cc54	0.0064025316
166	0x3bb7f79c	0.005614234
167	0x3bc6633a	0.006054309
168	0x3bed3690	0.0072391704
169	0x3bb15f97	0.0054130065
170	0x3bf2a5f6	0.007405038
171	0x3bf9f6cf	0.007628299
172	0x3bd4affa	0.0064907046
173	0x3bf0d023	0.0073490306
174	0x3ba8e493	0.0051542013
175	0x3bead569	0.0071665538
176	0x3b92082f	0.004456542
177	0x3b939f04	0.00450504
178	0x3bf6a273	0.0075266897
179	0x3bf69896	0.007525514
180	0x3be6b262	0.007040308
181	0x3bf2260c	0.0073897894
182	0x3bd59afd	0.00651872
183	0x3c061ed0	0.008186057
184	0x3bc98ebc	0.0061510485
185	0x3bccd585	0.0062510394
186	0x3c00c2b4	0.007858921
187	0x3b980e0b	0.004640346
188	0x3b9be5b9	0.0047576097
189	0x3b97556d	0.004618338
190	0x3c00e00c	0.007865917
191	0x3bae2c61	0.005315349
192	0x3bcfa5bd	0.006336896
193	0x3c0bc0f3	0.008529889
194	0x3b953904	0.004553916
195	0x3be2fbf3	0.0069270073
196	0x3c028082	0.007965209
197	0x3ba547d9	0.0050439653
198	0x3bfda4b0	0.0077405795
199	0x3bfe3541	0.007757813
200	0x3c1d8185	0.009613399
201	0x3bf55b02	0.0074876556
202	0x3bfb6a8c	0.0076726135
203	0x3c0bc1e9	0.0085301185
204	0x3b934e16	0.0044953926
205	0x3c05d007	0.008167273
206	0x3beb874c	0.0071877595
207	0x3c100f56	0.008792719
208	0x3c096a25	0.008387123
209	0x3c2340d2	0.009964185
210	0x3c07c1d7	0.008285961
211	0x3b87c745	0.004143628
212	0x3bfa6df0	0.0076425
213	0x3bf22029	0.0073890877
214	0x3b99f836	0.0046987785
215	0x3b9520d3	0.004551032
216	0x3b921d2e	0.004459045
217	0x3c337bed	0.010954839
218	0x3b9410ca	0.004518603
219	0x3ba61c0e	0.0050692623
220	0x3c15154b	0.009099315
221	0x3c0b1d92	0.008490937
222	0x3b97ffdf	0.0046386565
223	0x3b9ec575	0.004845316
224	0x3bfeb038	0.0077724718
225	0x3b8c638f	0.0042843292
226	0x3c021a94	0.007940907
227	0x3b8e4267	0.004341412
228	0x3ba2ec02	0.004971982
229	0x3bfc72ce	0.0077041155
230	0x3b938a7f	0.004502594
231	0x3c12d98a	0.008962998
232	0x3bfd42af	0.0077288966
233	0x3c00ba4c	0.007856917
234	0x3b8532fb	0.0040649152
235	0x3bf4c269	0.0074694646
236	0x3baba25d	0.005237861
237	0x3b8beb0d	0.0042699636
238	0x3c07986e	0.008276088
239	0x3b9c98f1	0.004778974
240	0x3bddf27e	0.006773292
241	0x3c07814c	0.008270573
242	0x3bd91a48	0.0066254474
243	0x3c3adae6	0.0114047285
244	0x3c18b55c	0.009320583
245	0x3befa238	0.007313039
246	0x3bea6af6	0.007153864
247	0x3c084f86	0.008319741
248	0x3b7c5a25	0.0038505879
249	0x3bfeb9ba	0.007773605
250	0x3b90ef40	0.004423052
251	0x3c1aecb2	0.009455847
252	0x3c219d78	0.009864204
253	0x3c02530a	0.007954368
254	0x3c0907dc	0.00836369
255	0x3b930c3d	0.004487543

mlp.3.bias f4 [256]
0	0x3de4a8b2	0.111649886
1	0x3d7fb65c	0.06242977
2	0x80009080	-5.1837e-41
3	0x3d27cfce	0.040969662
4	0x3dcd9ecc	0.10040054
5	0x3cd31f45	0.025771746
6	0x3d59e0c4	0.05319287
7	0x3da7d9f4	0.08195868
8	0x3cd21eb3	0.025649404
9	0x3de2bd13	0.11071219
10	0x3dbe89b4	0.093036085
11	0x3dc8f114	0.09811607
12	0x3dcb9d7d	0.09942148
13	0x3da3defb	0.080015145
14	0x1453358f	1.066334e-26
15	0x21dedb43	1.5101343e-18
16	0x3dd5896b	0.10426601
17	0x2f1a4492	1.403058e-10
18	0x0000ade0	6.2375e-41
19	0x000094d0	5.3384e-41
20	0x020b18ce	1.0219226e-37
21	0x01e8772c	8.5394344e-38
22	0x01e87844	8.5395913e-38
23	0x3d2f86b9	0.04285309
24	0x3d9219d8	0.071338356
25	0x3d40b038	0.047043055
26	0x000098b0	5.4774e-41
27	0x0000ab20	6.1388e-41
28	0x3dc0da22	0.094166055
29	0x3c99e273	0.018784737
30	0x009ccd30	1.4399945e-38
31	0x0000a200	5.8115e-41
32	0x12d442f8	1.339559e-27
33	0x299470ac	6.592066e-14
34	0x01c210e8	7.1288604e-38
35	0x01bdeff0	6.977193e-38
36	0x3dca74f6	0.0988559
37	0x3d93c338	0.072149694
38	0x011c86b0	2.8749308e-38
39	0x016ab6f0	4.3110263e-38
40	0x3dcc50f3	0.09976377
41	0x3d124f7c	0.035720333
42	0x01bded34	6.9768005e-38
43	0x00009450	5.3205e-41
44	0x3dca7dd6	0.098872826
45	0x3dac7ecc	0.08422622
46	0x3dc936ca	0.09824903
47	0x01c72730	7.3157286e-38
48	0x3da23ba6	0.07921533
49	0x00008f00	5.1299e-41
50	0x3d9408f8	0.07228273
51	0x3dd4af29	0.10384972
52	0x80009f80	-5.7218e-41
53	0x3c426be6	0.011866545
54	0x00009390	5.2935e-41
55	0x016ab070	4.31056e-38
56	0x3dad1aac	0.08452353
57	0x01f9a300	9.170205e-38
58	0x3dcff18a	0.10153492
59	0x3dc91797	0.098189525
60	0x3da51ee8	0.080625355
61	0x3dcb05d4	0.09913221
62	0x3da2b468	0.07944566
63	0x3c9d31d3	0.019188797
64	0x3dc10896	0.09425466
65	0x0000a490	5.9034e-41
66	0x35ed0d99	1.7661833e-06
67	0x3dce1fec	0.10064682
68	0x3dc11786	0.09428315
69	0x01c20e98	7.1285286e-38
70	0x32fe8d5a	2.9633771e-08
71	0x1a1b3dc3	3.210314e-23
72	0x3d12fb29	0.035884056
73	0x1554ead1	4.2998297e-26
74	0x24d47a57	9.2147596e-17
75	0x011bec10	2.863837e-38
76	0x3c53f1a9	0.012936034
77	0x3dce2a2a	0.10066636
78	0x80009480	-5.3272e-41
79	0x3dd3f97a	0.10350318
80	0x2dceade1	2.3496706e-11
81	0x0000a010	5.742e-41
82	0x3cff0eba	0.031134952
83	0x0000aa20	6.103e-41
84	0x3dc9f7c4	0.09861711
85	0x3dd0a6ab	0.101880394
86	0x3db21fd0	0.08697474
87	0x00009a20	5.529e-41
88	0x80009ad0	-5.5536e-41
89	0x8000ae10	-6.2442e-41
90	0x17739b7d	7.871379e-25
91	0x2a2877b6	1.496293e-13
92	0x3dd16a5c	0.102253646
93	0x3dd974b0	0.106179595
94	0x023b56b6	1.3763475e-37
95	0x2220011c	2.168463e-18
96	0x016ab0e0	4.3105914e-38
97	0x3db50a10	0.0883981
98	0x3da2503f	0.07925462
99	0x01c210fc	7.1288716e-38
100	0x3e470cc7	0.19438468
101	0x3dd2ec32	0.10298957
102	0x0000adf0	6.2397e-41
103	0x80009080	-5.1837e-41
104	0x3d05c698	0.032660097
105	0x016a13e0	4.2993272e-38
106	0x3dc2ffc3	0.09521439
107	0x3cad0cc7	0.021124257
108	0x00009c80	5.6142e-41
109	0x3ddb5273	0.10709085
110	0x023a1620	1.3671471e-37
111	0x3dca9054	0.0989081
112	0x80009690	-5.4012e-41
113	0x322727f7	9.729766e-09
114	0x3dd58189	0.104250975
115	0x3dab0b65	0.08351783
116	0x01f58090	9.0183264e-38
117	0x3da8ab0b	0.08235749
118	0x3da2f991	0.07957757
119	0x3daf7eae	0.08569084
120	0x3ce649a8	0.028111294
121	0x1f88035c	5.76038e-20
122	0x3dd4ba45	0.103870906
123	0x3d70f1e5	0.05882444
124	0x3d344fbe	0.04402136
125	0x00008e80	5.112e-41
126	0x3dbafb2f	0.09129941
127	0x3da240a8	0.079224885
128	0x80009290	-5.2577e-41
129	0x3d83b21f	0.06430458
130	0x16a9c4fa	2.7427732e-25
131	0x38c10468	9.203778e-05
132	0x0c6f8969	1.8453241e-31
133	0x800093c0	-5.3003e-41
134	0x0237c318	1.3500706e-37
135	0x0000a780	6.0088e-41
136	0x30703820	8.739125e-10
137	0x3d34cf56	0.044143043
138	0x3dc5bf0d	0.09655581
139	0x000097a0	5.4393e-41
140	0x3da1e593	0.07905116
141	0x3dcd0569	0.100107975
142	0x3d9cb0c1	0.07650901
143	0x337df32a	5.912731e-08
144	0x3d0a33ea	0.033740915
145	0x016a0fc8	4.2990335e-38
146	0x3d319329	0.043353233
147	0x3dc9dd3c	0.0985665
148	0x3dcdcaba	0.10048433
149	0x3dc7a9c4	0.09749177
150	0x3cc45005	0.023963938
151	0x3d9988f0	0.07496822
152	0x8000a7b0	-6.0155e-41
153	0x80008930	-4.9214e-41
154	0x00009ed0	5.6971e-41
155	0x3da3a8ca	0.07991178
156	0x00008ce0	5.0536e-41
157	0x3c651f05	0.013984446
158	0x009ce3f0	1.4408106e-38
159	0x3dc00625	0.09376172
160	0x3d230856	0.03980287
161	0x3dcb54ea	0.099283054
162	0x3d81c963	0.063372396
163	0x3d5b2eb1	0.053511325
164	0x3dc9ec74	0.09859553
165	0x80009be0	-5.5917e-41
166	0x3dc9c55f	0.09852099
167	0x3d9ac937	0.0755791
168	0x011c9688	2.8760676e-38
169	0x3dd05f46	0.10174422
170	0x3d0f0ee5	0.034926314
171	0x3cd21a2b	0.025647243
172	0x3dccab35	0.09993593
173	0x000089f0	4.9483e-41
174	0x3dba145b	0.09085914
175	0x251335dc	1.2768466e-16
176	0x3dcb0a4d	0.09914074
177	0x00009b50	5.5716e-41
178	0x3d918fde	0.071075186
179	0x3161c498	3.285356e-09
180	0x3dd93971	0.10606659
181	0x3da4775d	0.08030579
182	0x8000a970	-6.0783e-41
183	0x3d88445b	0.06653663
184	0x8000a3c0	-5.8742e-41
185	0x3dea380f	0.114364736
186	0x3d8f9925	0.07011632
187	0x0236374c	1.3387118e-37
188	0x00008e70	5.1097e-41
189	0x020e3640	1.0448081e-37
190	0x2abbc797	3.3356366e-13
191	0x3cb38f56	0.021918934
192	0x009cd2c0	1.440194e-38
193	0x3db10c96	0.08644979
194	0x3c3e563e	0.011617241
195	0x00009830	5.4595e-41
196	0x3dce0236	0.100590155
197	0x00008dc0	5.085e-41
198	0x3dbb96a7	0.09159594
199	0x3d81ccdc	0.06337902
200	0x011c9680	2.8760653e-38
201	0x3da5c4a6	0.08094148
202	0x80008b90	-5.0066e-41
203	0x3dc4bea0	0.09606671
204	0x3dcbc94e	0.09950505
205	0x01c20bfc	7.128154e-38
206	0x073de5cf	1.4286314e-34
207	0x3cf17e66	0.029479217
208	0x3d946ab2	0.07246913
209	0x01bdedd4	6.97689e-38
210	0x3dcb653a	0.09931417
211	0x3dcd1e67	0.100155644
212	0x3dc7fcf4	0.09765044
213	0x01c211d4	7.1289927e-38
214	0x3d4f29c6	0.050576948
215	0x3db1646d	0.08661733
216	0x80009490	-5.3294e-41
217	0x1f35e37d	3.8516415e-20
218	0x020fdf48	1.0570059e-37
219	0x000090c0	5.1927e-41
220	0x3db4ce2f	0.08828389
221	0x3db9059a	0.090342715
222	0x0000a120	5.7801e-41
223	0x8000aee0	-6.2733e-41
224	0x3dc65cbe	0.09685658
225	0x01c20fa4	7.128679e-38
226	0x3d66b43a	0.05632422
227	0x3dcaf3d7	0.0990979
228	0x00009a50	5.5357e-41
229	0x3d89334c	0.06699237
230	0x009cd2f0	1.4402008e-38
231	0x3d9fcbcc	0.07802543
232	0x3dd41140	0.10354853
233	0x3de47631	0.11155356
234	0x1b120f91	1.2081867e-22
235	0x3dcdde14	0.10052124
236	0x00009e60	5.6814e-41
237	0x3dba660a	0.09101494
238	0x016aaa30	4.3101116e-38
239	0x009baf90	1.4297482e-38
240	0x8000ab00	-6.1343e-41
241	0x3d399270	0.04530567
242	0x3da33024	0.079681665
243	0x3d9a6e14	0.07540527
244	0x02148952	1.0912732e-37
245	0x3dab782b	0.083725296
246	0x3db02831	0.08601416
247	0x3cb397ea	0.021923024
248	0x3d6285c8	0.055303365
249	0x3dc6d420	0.097084284
250	0x3caceedb	0.021109989
251	0x3dd2267d	0.10261247
252	0x3da3016b	0.07959255
253	0x3dbe6802	0.09297182
254	0x3db42d2c	0.08797678
255	0x3db13652	0.08652939

mlp.5.weight f4 [4, 256]
0	0xbdba09c9	-0.090838976
1	0xbd4fff17	-0.050780382
2	0x0000a760	6.0043e-41
3	0xbd0873d6	-0.033313595
4	0xbda74a5c	-0.0816848
5	0xbcabb79b	-0.020961573
6	0xbd3132c6	-0.043261312
7	0xbd888d97	-0.06667631
8	0xbcaae76b	-0.020862302
9	0xbdb879ba	-0.090075925
10	0xbd9b043b	-0.07569166
11	0xbda37bad	-0.07982574
12	0xbda5a8a4	-0.08088806
13	0xbd85503f	-0.06509446
14	0x942bf118	-8.680841e-27
15	0xa1b56c77	-1.2293747e-18
16	0xbdadbb8f	-0.084830396
17	0xaefb2c6f	-1.14220515e-10
18	0x8000aee0	-6.2733e-41
19	0x0000a5d0	5.9482e-41
20	0x81e18434	-8.284165e-38
21	0x81c551e0	-7.2483856e-38
22	0x81c5536c	-7.2486075e-38
23	0xbd0ebab3	-0.03484602
24	0xbd6db300	-0.058032036
25	0xbd1cb20d	-0.03825574
26	0x0000abb0	6.159e-41
27	0x000096e0	5.4124e-41
28	0xbd9ce65c	-0.07661125
29	0xbc7aae27	-0.01530031
30	0x80748850	-1.0701817e-38
31	0x8000a800	-6.0267e-41
32	0x92accc6c	-1.090512e-27
33	0xa971af67	-5.3664887e-14
34	0x819e0998	-5.80538e-38
35	0x819e251c	-5.8093283e-38
36	0xbda4b755	-0.0804278
37	0xbd706782	-0.058692463
38	0x80f145b0	-2.2157354e-38
39	0x812f0898	-3.214859e-38
40	0xbda63ab1	-0.08116663
41	0xbceded84	-0.02904392
42	0x819e2780	-5.8096713e-38
43	0x00008a10	4.9527e-41
44	0xbda4be8f	-0.08044159
45	0xbd8c5529	-0.068521805
46	0xbda3b466	-0.07993393
47	0x81a0fff4	-5.914199e-38
48	0xbd83faf4	-0.0644435
49	0x80008ed0	-5.1231e-41
50	0xbd70d90a	-0.058800735
51	0xbdad09f0	-0.08449161
52	0x80008ac0	-4.9774e-41
53	0xbc1f1326	-0.009709155
54	0x00008da0	5.0805e-41
55	0x812f0230	-3.2143993e-38
56	0xbd8cd407	-0.068763785
57	0x81cdb464	-7.5563955e-38
58	0xbda92e52	-0.08260788
59	0xbda39b04	-0.07988551
60	0xbd8654a4	-0.06559113
61	0xbda52d3b	-0.08065268
62	0xbd845d3d	-0.06463096
63	0xbc80049d	-0.0156272
64	0xbd9d0c26	-0.07668333
65	0x80008bf0	-5.02e-41
66	0xb5c0f6a6	-1.4376899e-06
67	0xbda7b370	-0.08188522
68	0xbd9d184f	-0.07670652
69	0x819e0a10	-5.805447e-38
70	0xb2cf39e1	-2.4124292e-08
71	0x99fcc233	-2.6134626e-23
72	0xbcef04b7	-0.029177053
73	0x952d550c	-3.5004162e-26
74	0xa4acf980	-7.501578e-17
75	0x80f15a80	-2.216482e-38
76	0xbc2d3c9e	-0.010573534
77	0xbda7bbc7	-0.081901126
78	0x80009560	-5.3586e-41
79	0xbdac7617	-0.08420961
80	0xada8410a	-1.9128272e-11
81	0x0000aac0	6.1254e-41
82	0xbccf64db	-0.025316646
83	0x800092c0	-5.2644e-41
84	0xbda45173	-0.08023348
85	0xbda9c1bb	-0.08288904
86	0xbd90e9f4	-0.07075873
87	0x80008b90	-5.0066e-41
88	0x0000a770	6.0065e-41
89	0x8000a2b0	-5.8361e-41
90	0x9746510d	-6.407955e-25
91	0xaa092589	-1.2181067e-13
92	0xbdaa60fa	-0.08319278
93	0xbdb0ebf5	-0.08638755
94	0x821a2ee0	-1.1327586e-37
95	0xa20241c1	-1.7653095e-18
96	0x812f0648	-3.214693e-38
97	0xbd93494c	-0.07191715
98	0xbd840bb8	-0.06447548
99	0x819e0d84	-5.805943e-38
100	0xbe21f674	-0.1581667
101	0xbdab9af7	-0.083791666
102	0x80008e70	-5.1097e-41
103	0x0000ae80	6.2599e-41
104	0xbcd98c1b	-0.026556065
105	0x8131b7c0	-3.26416e-38
106	0xbd9ea5a4	-0.07746437
107	0xbc8cda44	-0.01719392
108	0x80008960	-4.9281e-41
109	0xbdb270bd	-0.08712909
110	0x8217e810	-1.1160327e-37
111	0xbda4cd9a	-0.08047028
112	0x8000a570	-5.9348e-41
113	0xb208142f	-7.920831e-09
114	0xbdadb523	-0.08481815
115	0xbd8b26e2	-0.06794526
116	0x81cbabf4	-7.4817164e-38
117	0xbd8937c6	-0.06700091
118	0xbd849586	-0.06473832
119	0xbd8ec620	-0.06971383
120	0xbcbb4627	-0.0228606
121	0x9f5d73b0	-4.6894265e-20
122	0xbdad12fc	-0.084508866
123	0xbd43f9ab	-0.047845524
124	0xbd129f84	-0.035796657
125	0x00009910	5.4908e-41
126	0xbd981f3b	-0.07427832
127	0xbd83ff07	-0.06445127
128	0x80009130	-5.2083e-41
129	0xbd563f5b	-0.052306514
130	0x968a34db	-2.232846e-25
131	0xb89cd34a	-7.478015e-05
132	0x8c4300bb	-1.5022473e-31
133	0x0000ad30	6.2128e-41
134	0x82155c6a	-1.0973313e-37
135	0x0000aca0	6.1926e-41
136	0xb0438ef5	-7.114374e-10
137	0xbd130758	-0.035895675
138	0xbda0e1f7	-0.078555994
139	0x80009c90	-5.6164e-41
140	0xbd83b4e3	-0.06430986
141	0xbda6cd89	-0.081446715
142	0xbd7ef024	-0.062240735
143	0xb34ebc3f	-4.813432e-08
144	0xbce0be84	-0.027434595
145	0x8130ccf8	-3.2473153e-38
146	0xbd106570	-0.03525299
147	0xbda43bdc	-0.0801923
148	0xbda76e1c	-0.081752986
149	0xbda2714f	-0.07931768
150	0xbc9fb451	-0.019495161
151	0xbd79cd18	-0.06098661
152	0x0000a440	5.8922e-41
153	0x0000ad10	6.2083e-41
154	0x80008e20	-5.0985e-41
155	0xbd852424	-0.06501034
156	0x0000a010	5.742e-41
157	0xbc3b1d5c	-0.011420574
158	0x8074a3d0	-1.0711682e-38
159	0xbd9c39d9	-0.07628221
160	0xbd04907f	-0.032364365
161	0xbda56d96	-0.080775425
162	0xbd5323ad	-0.051547695
163	0xbd324298	-0.04352054
164	0xbda44841	-0.08021594
165	0x00009060	5.1792e-41
166	0xbda4286e	-0.08015524
167	0xbd7bd67a	-0.061483838
168	0x80ecdf00	-2.1753174e-38
169	0xbda987a2	-0.08277823
170	0xbce8a390	-0.028398305
171	0xbcaae3c1	-0.020860555
172	0xbda68421	-0.0813067
173	0x0000ae00	6.242e-41
174	0xbd976361	-0.07392002
175	0xa4efaed2	-1.03945885e-16
176	0xbda530df	-0.08065962
177	0x00009070	5.1814e-41
178	0xbd6cd267	-0.057817843
179	0xb137cb33	-2.674551e-09
180	0xbdb0bbbc	-0.086295575
181	0xbd85cc44	-0.06533101
182	0x00009f30	5.7106e-41
183	0xbd5db08f	-0.054123458
184	0x80008c60	-5.0357e-41
185	0xbdbe9005	-0.09304813
186	0xbd699ffb	-0.057037335
187	0x8213b3c6	-1.0851447e-37
188	0x80009d70	-5.6478e-41
189	0x81e74310	-8.495223e-38
190	0xaa98de40	-2.715484e-13
191	0xbc922032	-0.017837618
192	0x8074a740	-1.0712916e-38
193	0xbd9009f8	-0.070331514
194	0xbc1bc5b3	-0.009507584
195	0x8000a100	-5.7756e-41
196	0xbda79b42	-0.0818391
197	0x000089f0	4.9483e-41
198	0xbd989dc4	-0.074519664
199	0xbd532956	-0.051553093
200	0x80ecddf0	-2.1752793e-38
201	0xbd86db88	-0.06584841
202	0x00008b00	4.9864e-41
203	0xbda0114c	-0.07815799
204	0xbda5cc4f	-0.080956094
205	0x819e08e8	-5.8052813e-38
206	0x871a9800	-1.1630341e-34
207	0xbcc45fee	-0.023971524
208	0xbd717826	-0.058952473
209	0x819e2378	-5.809093e-38
210	0xbda57ade	-0.08080076
211	0xbda6e1de	-0.081485495
212	0xbda2b503	-0.079446815
213	0x819e0834	-5.8051804e-38
214	0xbd287a0d	-0.04113202
215	0xbd905173	-0.07046785
216	0x8000a5c0	-5.946e-41
217	0x9f14128e	-3.1355567e-20
218	0x81ef018c	-8.7796954e-38
219	0x8000a800	-6.0267e-41
220	0xbd931891	-0.0718242
221	0xbd968708	-0.07349974
222	0x8000a8a0	-6.0491e-41
223	0x80009860	-5.4662e-41
224	0xbda1624f	-0.07880079
225	0x819e0ddc	-5.805992e-38
226	0xbd3ba38f	-0.04581028
227	0xbda51e96	-0.080624744
228	0x00009a60	5.538e-41
229	0xbd5f358e	-0.054494433
230	0x8074a3e0	-1.0711705e-38
231	0xbd81ff2f	-0.063475005
232	0xbdac896f	-0.08424651
233	0xbdb9e0ac	-0.09076056
234	0x9aedcfb2	-9.835645e-23
235	0xbda77ddc	-0.08178303
236	0x8000aab0	-6.1231e-41
237	0xbd97a5da	-0.074046806
238	0x812f0dd8	-3.2152356e-38
239	0x80748920	-1.0702109e-38
240	0x8000ad20	-6.2106e-41
241	0xbd16e76c	-0.036841795
242	0xbd84c1f1	-0.06482304
243	0xbd7b4220	-0.06134236
244	0x81ef8280	-8.798199e-38
245	0xbd8b7f6f	-0.068114154
246	0xbd8f5019	-0.06997699
247	0xbc922725	-0.017840931
248	0xbd383c2e	-0.044979267
249	0xbda1c372	-0.07898606
250	0xbc8cc207	-0.017182363
251	0xbdaafa14	-0.0834848
252	0xbd849bec	-0.06475052
253	0xbd9ae8d1	-0.075639375
254	0xbd929585	-0.07157425
255	0xbd902bf1	-0.07039631

mlp.5.bias f4 [4]
0	0xbe9d3c37	-0.30710003
1	0xbe9d3c37	-0.30710003
2	0x3e9d3c38	0.30710006
3	0x3e9d3c37	0.30710003
