ddpg_actor_model_weights.pth (torch, 88498 bytes, 6 tensors)

mlp.0.weight f4 [128, 33]
000000 c4 a6 09 3e 3c 58 bc 3e 52 52 3a 3e 7a 99 dd be
       0.13442522 0.36786067 0.18195465 -0.43281156
000010 66 3a 34 3e 92 0f 06 bf c6 21 8e 3e d3 fd 2b bd
       0.17600402 -0.5236751 0.27760142 -0.041990113
000020 7c 3a e7 3d 13 d3 0e be a9 60 d5 bd de c6 ef bd
       0.11290452 -0.13947706 -0.10418827 -0.11707853
000030 d4 83 c4 3c e7 a6 8c be d8 66 5b be 8d d8 b4 bb
       0.023988642 -0.27471086 -0.2142595 -0.005518979
000040 f2 05 af 3d 12 25 a3 bd 8d 34 9b be a8 3e 1a 3e
       0.08546056 -0.07966055 -0.3031353 0.15062964
000050 e4 42 22 3d a6 1c b9 bd 00 fa 1b bd 22 a2 d1 3d
       0.039614573 -0.090386674 -0.038080215 0.102360025
000060 2a 2f b4 bd 1e 38 e9 3c 14 74 d3 3e 8b 26 42 3e
       -0.08798058 0.028469142 0.41299498 0.18960015
000070 87 fa 05 be 08 b9 1a 3b 0c 2e d7 bd 37 a0 1c bd
       -0.1308385 0.0023608822 -0.105068296 -0.03823873
000080 b6 54 f8 be 9a c2 df be 6b 00 d8 3e f5 af ac be
       -0.4850213 -0.43703157 0.4218782 -0.33727995
000090 d6 d6 a3 be a8 11 ee 3e d8 3f 8b be a8 3e 64 3c
       -0.31999844 0.46497846 -0.27197146 0.013930954
0000a0 99 8c d0 bd 5d b8 7b bc 60 fd 9d bd ac 6b 98 3b
       -0.10183067 -0.01536378 -0.07714343 0.0046515074
0000b0 9c 89 77 bc 09 fe bc 3d cc 3e f6 bd 43 eb f3 be
       -0.015108492 0.09228141 -0.12023696 -0.47640428
0000c0 53 53 0a 3d d0 db 23 3d f4 f1 9d 3c 86 16 51 3e
       0.03377087 0.04000455 0.019280411 0.20418748
0000d0 0c 7a 42 3c 1f a2 b9 3d d4 e5 6e 3d e2 5e bb 3b
       0.011869919 0.09064125 0.05832465 0.005718098
0000e0 35 f3 91 3d 29 b2 b1 bd a7 26 a1 bd ea 1d a4 3d
       0.07126466 -0.086765595 -0.078687005 0.08013518
0000f0 bb 2a 46 be 22 1e ce 3d 0c 4e a2 3d 94 5d 86 bd
       -0.19352238 0.10064341 0.079250425 -0.06560817
000100 b5 04 29 3e 38 cd cd bf 24 51 f1 3c 63 43 a7 bd
       0.16505702 -1.6078253 0.029457636 -0.0816715
000110 ac f0 6f be 42 3b 38 be 9f 1a 4b be fb d8 64 bd
       -0.23431653 -0.17991355 -0.19834374 -0.05587099
000120 92 04 88 be 1d f3 80 bd ae 2d 54 3e 52 8f bf 3e
       -0.26565987 -0.0629637 0.2072055 0.37414032
000130 3d 03 52 be 04 8c 2f bd 14 15 ae bd e7 cd 27 3e
       -0.20509048 -0.04285814 -0.08500114 0.1638714
000140 13 dc d3 3d 18 e1 e4 3e ed 9a 86 bc 8f 4e c3 bd
       0.1034471 0.44702983 -0.016431296 -0.09536468
000150 80 4f c6 bd 2f 4f 67 3d 2d cf 86 bc 38 4d 13 bd
       -0.09683132 0.056472 -0.016456211 -0.035962313
000160 68 3b e6 3c 2e a0 72 be 0e 0d 83 bd 43 8b f3 3d
       0.028104499 -0.23693916 -0.06398974 0.118917964
000170 a3 bd e1 be 83 11 0a 3e 26 ba 67 be 38 e2 d6 3c
       -0.44089994 0.13483243 -0.22629604 0.026230916
000180 94 05 89 be a5 10 e0 bd 46 42 64 bf ee 3e de 3d
       -0.26762068 -0.10940675 -0.89163625 0.10851847
000190 95 6d 95 bd 56 e0 35 be 0f 40 4a 3e c2 82 a3 3d
       -0.07296292 -0.17761359 0.19750999 0.079839244
0001a0 d7 1d 36 bd 93 ea 47 3e 37 9a 9d bd 7a 07 f4 3d
       -0.04446205 0.19523077 -0.0769543 0.119154885
0001b0 f4 58 a2 bd ae 28 75 3d 08 6c a6 bc 9f d0 67 bd
       -0.07927123 0.05985325 -0.020315185 -0.05659544
0001c0 ac 2f 87 3d a4 ae 66 3d 0e 80 66 bd d2 4a eb 3b
       0.066008896 0.056318894 -0.056274466 0.00718055
0001d0 50 2d 00 bd b3 a3 2c 3d 5c 6b aa bb 54 6b a8 3c
       -0.031293213 0.042148303 -0.0052007865 0.02055899
0001e0 c6 fc 67 b8 22 e6 0a 3e 97 50 f7 bd b8 3b 8a 3d
       -5.5310105e-05 0.13564351 -0.12075918 0.06749672
0001f0 b8 5b 9b 3d c5 38 3d be 13 77 17 bc 07 a7 fd bd
       0.07585853 -0.18478687 -0.009244698 -0.123853736
000200 b6 4a 11 be da f0 14 3e ab 3c be 3d cc c4 e5 bf
       -0.14188656 0.14545003 0.09288915 -1.7950683
000210 a1 7f b6 be 8d 97 1f 3f 86 d9 c0 bc 9b 0b 1a be
       -0.35644248 0.62340623 -0.023541223 -0.1504349
000220 08 cb f8 bd e7 b2 fd bd fc 2a 29 be 65 6d b3 3d
       -0.121481 -0.123876385 -0.16520303 0.087611
000230 66 59 b0 bc 6a 40 81 bc b1 6c be bc 9b fb 7a bb
       -0.021527003 -0.015777785 -0.023245187 -0.0038296941
000240 36 c1 e6 bd de 21 dc 3e b1 60 e4 be cd 7d 73 be
       -0.11267321 0.4299459 -0.4460502 -0.23778458
000250 fe 4a 6a be f5 28 ee 3d 78 96 81 bd 1c 68 ad 3d
       -0.2288017 0.11628906 -0.06327528 0.08467123
000260 fa b2 d7 bd 02 77 2e 3d d5 20 e3 3d 94 2b 32 3d
       -0.10532184 0.042593963 0.110902466 0.04349859
000270 dc cd 20 be a9 ea 28 be 74 45 ad be 34 b6 3d be
       -0.15703529 -0.16495766 -0.3384205 -0.18526536
000280 28 13 1d 3e 92 4a 36 bd f6 75 0f 3e 51 a9 0c be
       0.15339339 -0.04450471 0.14009842 -0.13736464
000290 b3 60 cd 3e dd 93 fc bc af 09 2c 3f a2 a0 7c be
       0.40112838 -0.030832225 0.67202276 -0.24670652
0002a0 df e0 58 be 8e a6 dd bd 43 0a 1f be 97 7f 13 3e
       -0.21179532 -0.108227834 -0.15531258 0.1440414
0002b0 89 b8 20 3d 53 f5 41 be 7f 2c 7d be ed a1 17 bc
       0.039238486 -0.1894124 -0.24724005 -0.009254915
0002c0 e5 0b 9f 3d 25 27 d0 3d 06 ff bc be c9 3d f1 be
       0.077659406 0.10163716 -0.36913317 -0.4711745
0002d0 bf e8 f3 bd 44 0c 8e be 8f 1c 52 3d 91 be 7a 3e
       -0.11909627 -0.27743733 0.051296767 0.24486758
0002e0 da 38 4c 3c 0d 08 ba bd 61 28 85 bd 06 48 16 3d
       0.012464726 -0.09083567 -0.06501842 0.03668978
0002f0 01 c5 0b be ef 03 43 3c 90 d6 22 be 4c 5f 7f 3e
       -0.1364937 0.011902793 -0.15902162 0.24938697
000300 d9 70 70 3d 0a 71 88 3e 67 14 02 bd 89 d0 8a be
       0.05870137 0.26648742 -0.03175774 -0.27112225
000310 ee 09 96 3d 09 26 de 3e b5 c6 60 3e 29 0a 17 be
       0.07326113 0.43388394 0.219508 -0.1474997
000320 40 26 ab be 12 8b 2a 3c 09 82 5f bd ef 0f 88 3e
       -0.3342762 0.0104091335 -0.05456737 0.26574656
000330 2f 01 15 3e 3d 55 bf bc 57 dc d9 3d 9e d1 0d bd
       0.14551233 -0.023356074 0.106377296 -0.034623735
000340 3c a1 29 bd 84 4d 81 3c b3 29 ef 3c 7a 54 a4 be
       -0.04141353 0.015784033 0.029194688 -0.320957
000350 02 e7 93 3c 48 41 ed 3e b9 db 30 3e 73 6f 96 3d
       0.018054489 0.46338868 0.17271318 0.07345476
000360 04 5b 80 be 27 c8 9e bd f7 b5 83 bc ba f6 ad 3c
       -0.2506944 -0.0775302 -0.016077979 0.021235812
000370 22 36 95 3d 79 5e 64 bd 19 e4 83 bb d8 7b 7a 3c
       0.07285716 -0.05575416 -0.004024994 0.015288316
000380 cd 32 b0 3d e3 1b db bd 50 4d a5 be 1d 00 ac 3d
       0.086034395 -0.10698678 -0.32285547 0.08398459
000390 00 ee 1c 3e 3c 4a 16 bb fb 4b e0 3f 87 a7 5f 3d
       0.15325165 -0.002293243 1.7523187 0.054603126
0003a0 e1 0d 85 3e fa f9 03 3d 6f 2c 08 be 05 a5 20 3c
       0.2598715 0.032220818 -0.132982 0.009804969
0003b0 30 d9 11 3f 74 98 f6 bc ed 62 94 3d ba be 53 be
       0.56972027 -0.030101992 0.07245431 -0.20678225
0003c0 b5 21 b6 3c 74 a4 1a be 56 42 d3 bd a1 32 ea bc
       0.02223287 -0.15101796 -0.10315387 -0.028588595
0003d0 92 e4 41 3e bf 0a 7c be 4b 73 d2 bd 77 7e 16 be
       0.18934849 -0.24613474 -0.10275897 -0.1469668
0003e0 89 08 d8 3d 86 e4 90 bd a6 b8 ad be d1 94 ea bd
       0.10548503 -0.070748374 -0.33929938 -0.11454166
0003f0 d4 2d f5 3c eb 42 73 be 26 25 38 be 49 7f 5b be
       0.02992908 -0.23755996 -0.17982921 -0.21435274

mlp.0.bias f4 [128]
000000 46 2a 23 bd a2 2c fa 3d 6d af 4b 3d 4d e0 84 3e
       -0.039835237 0.12215544 0.049727846 0.25952378
000010 73 16 1b 3d a6 d5 7b bd b5 ad 81 3c c3 77 e0 be
       0.037863206 -0.061483048 0.0158299 -0.4384137
000020 3d ff c5 3d 55 84 24 be 4b 1a ce be 45 82 c7 bd
       0.096678235 -0.16066106 -0.40254435 -0.09741644
000030 31 ca 3c be ba 8c 2d be 3e fd bf 3d 91 aa b8 be
       -0.18436505 -0.16948214 0.09374474 -0.36067632
000040 2a c5 61 be 1d c8 d3 3b 19 b7 c4 bd 34 3d 9e 3c
       -0.22047868 0.0064630643 -0.096052356 0.019316293
000050 71 9b 25 3d 0b 52 28 be 65 23 80 be 22 93 aa 3d
       0.040431444 -0.16437547 -0.25027004 0.083288446
000060 c1 01 81 3e 7f 6c 73 3d 1e 7a 6f be 75 d1 60 be
       0.2519665 0.05942964 -0.23386428 -0.21954902
000070 85 bb a4 be c6 9d db be 09 4e 96 bc 3e 9a 13 be
       -0.32174316 -0.4289381 -0.018347757 -0.14414307
000080 f3 db 83 3d 44 b9 7e bc 12 86 88 be 05 b0 0d 3e
       0.06438436 -0.0155471 -0.26664788 0.13836677
000090 36 1a 5f be c1 21 15 be d8 28 0a 3e 28 2f ad 3d
       -0.21787342 -0.14563657 0.13492143 0.0845626
0000a0 5a 61 09 3e ee 1d 62 bd 64 87 d5 be dc 3f e6 bd
       0.13416043 -0.055204324 -0.41704857 -0.11242649
0000b0 be 5a cd bd 5b 97 81 be 9b f9 89 be 6f 75 7d be
       -0.10027073 -0.25310788 -0.26948246 -0.24751829
0000c0 81 fe 8d be 35 ef 56 3e 40 cd a0 bc 63 30 36 be
       -0.27733234 0.20989688 -0.01962912 -0.17791896
0000d0 51 b2 24 bf 26 83 00 bf 77 15 bd 3d 60 b0 47 be
       -0.6433459 -0.50200117 0.0923261 -0.19500875
0000e0 0c 59 91 bc 9e 10 4a be 76 89 27 be 1a 95 80 be
       -0.017742656 -0.19732901 -0.16361031 -0.25113755
0000f0 e5 b6 12 bd ff 7d 81 bc 49 88 48 bd 4b 12 06 3d
       -0.035818953 -0.01580715 -0.048958097 0.03273229
000100 22 15 37 bd 4f d1 02 bd 62 e2 5c 3e ad 8e 93 bd
       -0.04469789 -0.031937893 0.21570733 -0.072049476
000110 87 5a 08 3d af 8e c4 3d 11 9b 94 3e da f8 6d be
       0.03328946 0.09597527 0.29024556 -0.2323946
000120 a6 85 58 3d 57 b5 85 3c 33 c5 95 bd 3d 5b 9d 3d
       0.052861832 0.016321821 -0.073130034 0.07683418
000130 9d 3d 46 bd 54 42 24 bd 95 ef fc bc ea 06 e8 be
       -0.048398603 -0.040102318 -0.03087596 -0.45317775
000140 6c 6e 33 b9 72 c6 5d be ec b2 52 3d 98 2f 04 be
       -0.00017111906 -0.21657732 0.051440164 -0.1290878
000150 84 91 2a bd 2b 77 d0 bd 87 d3 93 bd 69 91 b5 3d
       -0.04164268 -0.101789795 -0.0721808 0.088656254
000160 7b 23 f1 be e9 90 1a be 3d ae 8a 3c bc 3f 17 3e
       -0.47097382 -0.15094341 0.016928786 0.14770406
000170 53 de 57 3e c5 2a 24 bd 3a 9f 97 be 75 a7 8c 3e
       0.21080904 -0.04007985 -0.29613668 0.2747151
000180 02 87 c6 3d f8 3c 62 3c 07 96 bd be 78 bf a1 3d
       0.096937194 0.013808481 -0.37028524 0.07897848
000190 4d 8c 92 bd 70 a0 3d 3e 56 27 d7 3c a7 96 a2 be
       -0.071556665 0.18518233 0.026263874 -0.31755564
0001a0 9d f9 5f bd ef e5 32 3d bf e9 ea bd 9a cb be ba
       -0.05468141 0.043676313 -0.11470365 -0.0014556528
0001b0 f9 ba 7f be e6 29 24 be 39 9f 39 3c 0c 84 15 3d
       -0.24973668 -0.16031608 0.011329466 0.036502883
0001c0 5b e4 e2 bd a1 22 6a bd 33 29 c6 be e8 cc ff bd
       -0.110787116 -0.05716193 -0.38703308 -0.12490255
0001d0 ec c0 19 bd 36 90 97 bd f6 bd 35 3d c0 19 43 be
       -0.0375375 -0.07400553 0.044370614 -0.19052792
0001e0 26 80 99 be b6 f0 ff 3d 07 16 74 3a c7 25 b8 bd
       -0.29980582 0.12497084 0.00093111437 -0.089915805
0001f0 a3 11 4d be 9f 00 a7 be 41 30 ff bd 77 3d 63 bd
       -0.20026259 -0.3261766 -0.124603756 -0.05547854

mlp.2.weight f4 [128, 128]
000000 b3 29 e4 3d 61 5c 98 3d 23 b9 5b bd 4a e4 6a 3d
       0.11140766 0.07439495 -0.053643357 0.05734662
000010 78 71 6e 3e b2 f3 86 3e 53 53 29 be 11 9a 80 3e
       0.23285472 0.263578 -0.16535692 0.25117543
000020 93 95 0d bd e3 17 b4 3e 79 4b b6 3c 85 a6 d8 bd
       -0.034566473 0.35174474 0.022252785 -0.10578636
000030 71 fb 8b be 78 8f 37 be 93 36 0b bf f1 aa 5d be
       -0.27340272 -0.17925823 -0.5438015 -0.2164724
000040 ed 64 0a bc 19 ce 9e 3e 0f 03 8d bd 93 3e be bd
       -0.008446914 0.31016615 -0.06885349 -0.09289279
000050 ef 78 22 3d 15 87 d8 3d bd fa aa 3e 16 72 cd 3e
       0.039666113 0.1057264 0.33394423 0.40126103
000060 47 89 af bd 40 1d af 3d 45 0f 89 be 1e ed d8 3e
       -0.085711055 0.08550501 -0.26769462 0.42368406
000070 95 90 01 3f 2b 5c 58 3d 97 1b 93 bd fd 6c e0 bd
       0.5061124 0.052822273 -0.07182997 -0.10958288
000080 9c 90 ef bc ef 6d b1 bd 87 4c af 3d 03 39 40 be
       -0.02924376 -0.08663546 0.08559518 -0.18771748
000090 e8 43 f0 bc da 73 ce 3e 17 ce 96 bd 8c e7 85 bd
       -0.029329255 0.40322763 -0.07363527 -0.06538305
0000a0 9a aa 10 3e 7c ca ef be 53 13 13 bd 08 9a 42 be
       0.1412758 -0.4683417 -0.0359071 -0.19004071
0000b0 28 05 23 3d 16 df c6 3e f6 8e 87 be 14 e3 c5 3e
       0.03979984 0.38842076 -0.26476258 0.3864981
0000c0 37 f7 e7 bd 8a f8 21 bf 20 ed 85 bd 55 8e 0c 3e
       -0.11326449 -0.63269866 -0.06539369 0.1372617
0000d0 5c 4a 93 3e 63 34 64 3d 3f 1e 8a bd 9e 07 89 3d
       0.2876767 0.055714022 -0.0674405 0.06690906
0000e0 90 27 ca 3d 90 5f 2b be 2c a1 b6 bc 91 49 12 be
       0.09870827 -0.16735673 -0.02229365 -0.14285876
0000f0 8e a5 fe 3e f9 19 95 be d4 6d 29 bf 95 3f 46 3e
       0.49735683 -0.29121378 -0.6618321 0.19360192
000100 a8 df 12 3e 0c bb af be f1 b4 f2 be db fa eb bc
       0.1434313 -0.34322393 -0.47403672 -0.02880614
000110 05 53 56 bd 65 62 74 bd 77 cd 65 bf e8 66 0a bd
       -0.052325267 -0.05966415 -0.8976664 -0.033789545
000120 1a 59 eb 3d 6d 21 38 3e f5 1a 75 bd 8c 13 a7 be
       0.11491604 0.17981501 -0.05984016 -0.326321
000130 89 ab ba bd 8a b2 1b 3e 5b 0d 06 3b a5 38 81 be
       -0.09114749 0.15204826 0.0020454738 -0.2523853
000140 86 c3 a3 bd 98 40 de be 90 eb ee bd 1f 4c 5c 3d
       -0.079962775 -0.43408656 -0.11666024 0.053783532
000150 14 ba 3d be b5 0a bd be c9 f0 0f be 40 25 04 3e
       -0.18528014 -0.3692223 -0.14056696 0.12904835
000160 6b a9 7c 3d 1a ea 8b 3e f2 c7 7f bd 78 40 23 3f
       0.061685007 0.27327043 -0.062446542 0.63770247
000170 ec 78 83 3e 8f 33 e9 bd f9 80 66 be a7 1c 02 be
       0.25678194 -0.11386787 -0.22510137 -0.12706243
000180 f8 dc 0a 3d 31 48 c0 3e ef c2 34 be cb b6 c0 be
       0.03390214 0.37555078 -0.17652486 -0.3763946
000190 01 bb d6 be ea 38 7e 3d e7 98 16 3e 04 9b 9a 3e
       -0.41939548 0.062065996 0.14706765 0.30196393
0001a0 a8 68 3d be f6 cf 04 bf ff 68 b0 bc f0 da bc 3e
       -0.18496954 -0.51879823 -0.021534441 0.36885786
0001b0 11 1f c6 bc f0 4f 79 be 3e e2 1c be 27 2f 4e 3d
       -0.024184735 -0.243469 -0.1532068 0.050337937
0001c0 25 56 8a be 4b 64 3d 3c 4c f4 cb be 47 4e 4e bd
       -0.27018848 0.011559556 -0.3983482 -0.05036762
0001d0 d8 dd f9 bd c6 c1 19 3e 12 37 28 bf ae 7f e5 3d
       -0.122005165 0.15015325 -0.6570903 0.112059936
0001e0 1d 99 57 bd f2 eb 20 3c 86 9f d0 be 2b d7 01 be
       -0.052636255 0.009821879 -0.40746707 -0.12679736
0001f0 51 d3 88 3d 6a f4 67 bc 15 c5 ac 3e 6b 1a aa bd
       0.066809304 -0.014157394 0.33744112 -0.0830582
000200 c7 e9 80 bd 32 84 e0 3e 67 f4 96 bd 90 d9 fd bc
       -0.062945895 0.43850857 -0.07370835 -0.030987531
000210 31 22 94 be 48 40 fc be ad 40 96 bf 50 6f 5b 3d
       -0.28932336 -0.49267793 -1.1738487 0.053572953
000220 6a 89 6a be 30 e6 2d be 1b dd 03 3e 8f 35 84 be
       -0.22903982 -0.16982341 0.12877314 -0.25822112
000230 ac 57 dc bd 8d 25 b3 bd 20 c0 40 be 99 05 e7 be
       -0.107589096 -0.087473966 -0.1882329 -0.45121458
000240 84 98 dc be e0 6f b5 3d ce ae 28 be 79 ad 9f bd
       -0.4308511 0.08859229 -0.16472933 -0.07796759
000250 05 5b 5a 3e c0 a1 88 3d 72 fe db 3e 13 c1 ca be
       0.21323784 0.06671476 0.42967564 -0.3960043
000260 6c 01 cb bd e8 23 83 3e 08 eb b1 3e fa f6 85 bd
       -0.099123806 0.25613332 0.34749627 -0.06541248
000270 5e 43 c8 3d c9 92 c7 bd 8e aa 47 3e bf 88 c1 be
       0.09778474 -0.09744794 0.19498655 -0.3779964
000280 dc 17 96 3e 1c 62 4f 3e 04 29 07 be 12 bb fb 3d
       0.29315078 0.2025227 -0.1319924 0.1229154
000290 6c af ba be 7b 1e 0d bd ce 3d 7b bd 44 56 2b be
       -0.3646196 -0.034452897 -0.06133824 -0.16732126
0002a0 95 4b 56 3e aa b6 40 be 8a 31 f7 3c a6 b5 42 3e
       0.2092727 -0.18819681 0.03017499 0.19014606
0002b0 ae 0b 9f 3c d8 39 33 be ce 5b 09 3e 6f f0 f2 3d
       0.019414749 -0.17502534 0.13413927 0.11862265
0002c0 9b cb 84 be 45 7b f6 bd 70 77 87 3b d6 bb e1 3d
       -0.2593659 -0.120352305 0.004134111 0.11022155
0002d0 08 81 b8 bd bf a5 9f 3d c8 bc 46 3e b8 bc d4 be
       -0.09008986 0.077952854 0.19407952 -0.4155023
0002e0 5e 03 c9 3d ca cc 39 bd 62 41 8d bd d0 a9 a1 be
       0.09815095 -0.045361318 -0.068972364 -0.3157487
0002f0 fb 1f 96 be 7b d6 b4 be 47 0e 50 be f9 d2 31 3e
       -0.29321274 -0.35319886 -0.20317946 0.17365636
000300 52 d4 93 be a3 38 0f be 01 72 6d be 15 3e 06 be
       -0.28872925 -0.13986449 -0.2318802 -0.1310962
000310 d0 b5 4f bd 1e 5e a8 bc 36 5a a2 3d 51 49 04 3d
       -0.0507105 -0.020552691 0.079273626 0.032296482
000320 a4 db 46 be 1a 3e c4 3e 21 58 4a 3e 4f 87 d3 3e
       -0.19419724 0.3832863 0.19760181 0.4131417
000330 91 98 09 3d a3 51 8a be a0 3b e8 be 4b 64 e8 be
       0.033592764 -0.2701541 -0.4535799 -0.45389017
000340 4f 2a 7e 3e 4a 97 11 be 1d 13 4a be 5b 85 a2 be
       0.24820827 -0.14217868 -0.19733854 -0.31742367
000350 5e 5a c7 3d b7 42 8e bd 53 ae 48 3f 8d 8d 9b bd
       0.09734033 -0.069463186 0.78391 -0.07595358
000360 57 90 68 be aa 3c 15 be 86 c2 fb 3d 46 ba 4f be
       -0.22711311 -0.14573923 0.12292962 -0.20285901
000370 fa 72 e4 3e 25 d8 ff bc 3f cf 73 3e 24 45 99 be
       0.4461897 -0.031230995 0.23809527 -0.29935563
000380 ed 42 0f 3e a4 80 84 be 5e ab 95 be d0 86 c0 be
       0.13990374 -0.25879395 -0.29232305 -0.37602854
000390 11 4b 2f 3e 3b 44 76 3e 97 3a 33 be c5 7d fb 3d
       0.1711848 0.24049465 -0.17502819 0.12279848
0003a0 ea 93 12 3e c8 dc bf 3c de 00 bd 3e 79 3b cf b9
       0.14314237 0.023420706 0.36914724 -0.00039526427
0003b0 78 49 03 be bf 1b 3b be 8e a5 a9 be 25 d5 73 3e
       -0.12820995 -0.18272303 -0.3313412 0.23811777
0003c0 88 5e dd be ce ec 01 be cb 46 ad bd b8 c4 85 3e
       -0.43236184 -0.1268799 -0.08460768 0.26126647
0003d0 5e 96 df be 9d 77 26 be 77 4d 94 3e 4c b3 61 be
       -0.4366941 -0.16256566 0.2896535 -0.22041053
0003e0 fb 45 d3 3e ca 83 b0 3e dd cc 01 3d 50 b1 3b be
       0.41264328 0.34475547 0.031689513 -0.18329358
0003f0 2b 41 cf bc 65 05 64 bd 3c 22 1c be 1f aa 06 bf
       -0.02529963 -0.055669207 -0.15247434 -0.52603334

mlp.2.bias f4 [128]
000000 cf 6a 2c be 15 93 01 be 62 39 08 3d 4e 84 31 be
       -0.16837619 -0.12653764 0.03325785 -0.17335626
000010 e3 11 7d be 3e c8 c4 be 29 5e 0c bd bc 9c 8d bd
       -0.24713854 -0.38434023 -0.034269486 -0.0691466
000020 e8 6a 6c be 9a 2c 52 be 5a 52 93 bd e0 33 31 3e
       -0.23087656 -0.20524827 -0.07193442 0.17304945
000030 66 d6 dc 3d 7f 91 9b bd 91 89 1d be 91 9a ad 3d
       0.10783081 -0.075961106 -0.15384509 0.08476747
000040 fe ce 13 be c1 e9 38 bd 9f 71 9d bd 1f 84 7a 3d
       -0.1443443 -0.0451448 -0.07687687 0.061161157
000050 c1 7b ea bd d7 6d 1f be bd 62 1f bd c0 3f 99 3d
       -0.114493854 -0.15569244 -0.038912524 0.074828625
000060 9d 75 15 3e 08 73 97 3d 38 ee 52 3d f3 33 57 3e
       0.14595647 0.07394987 0.051496714 0.21015911
000070 38 3c 81 be 2d 9e d7 3c e7 e9 0f bd af b0 60 be
       -0.25241256 0.026320541 -0.035135176 -0.219424
000080 0f af 4c 3c ee e6 9b bd 09 81 c3 be 01 f4 65 3d
       0.012492909 -0.07612406 -0.38184384 0.056140903
000090 4b b9 b8 3d 7f 03 7f bd 8e ec 84 be b3 84 73 be
       0.09019717 -0.062259194 -0.25961727 -0.2378109
0000a0 1b ca fa bd 82 ef 28 3e 8c ba 80 bd b7 f1 4e be
       -0.1224558 0.16497615 -0.06285581 -0.20209394
0000b0 c8 fe 8e 3d 87 8e b9 3d df b8 4b 3d 47 e0 ad be
       0.069821894 0.09060388 0.049736854 -0.33960173
0000c0 a8 98 13 be df d9 a4 3d 98 f4 a9 be ab 4f 38 3d
       -0.14413702 0.08049368 -0.33194423 0.044997852
0000d0 4d f7 52 3d 13 20 09 be 38 a3 d1 bb be 3d 32 be
       0.051505376 -0.13391142 -0.006397631 -0.17406365
0000e0 48 3e 90 be e1 fc 6b bc 2c a5 c3 bd 61 bd 7c be
       -0.28172517 -0.014403553 -0.095529884 -0.24681617
0000f0 6c 04 d6 bd 0f f0 8a be e2 fa 82 be 67 d4 99 bd
       -0.10450062 -0.27136275 -0.25582033 -0.07511216
000100 20 dc 53 be 2b 05 74 be 28 8a ed bd 69 06 ab bd
       -0.2068944 -0.23830096 -0.11598617 -0.08350832
000110 43 bd 8b be 52 04 ec 3a 09 bf 34 3d 66 f0 07 be
       -0.27292833 0.0018006659 0.044127498 -0.13275298
000120 35 4a c4 bd 5f dd 0e 3e c3 82 ae bd 48 24 18 3e
       -0.09584466 0.13951634 -0.085210346 0.1485759
000130 ae f8 54 3d 49 ab 18 3d 06 5b 93 be 09 6c 83 3d
       0.051994972 0.037272725 -0.28780383 0.064170904
000140 69 f4 80 3b 02 ee 70 be f6 ca ff bd e7 eb 8c be
       0.003935386 -0.23528293 -0.124898836 -0.2752373
000150 18 b7 78 3d 83 cd 9c be b3 b7 c8 bd 4e b7 13 be
       0.060721487 -0.30625543 -0.09800663 -0.14425394
000160 31 91 06 3b a1 f6 48 3e 59 d9 94 bd 1e 40 e4 3c
       0.0020533318 0.19625331 -0.07268018 0.027862605
000170 f6 35 97 bd 28 c4 87 3e 42 b4 b2 bc 07 53 3e be
       -0.07383339 0.26516843 -0.02181447 -0.1858636
000180 de 17 78 3c c0 95 eb bd 42 19 b0 bd 66 eb 01 be
       0.015142409 -0.11503172 -0.085985675 -0.12687454
000190 f7 d5 16 be 96 f3 43 3e 23 75 73 3d 10 34 0c be
       -0.14730059 0.1913589 0.059437882 -0.13691735
0001a0 ff 0c 07 3d 5b 0b da 3d fa 0e 16 be 34 1a ff 3d
       0.03297138 0.10646697 -0.1465415 0.1245617
0001b0 0d ad 87 be 36 0b d1 bd 15 b8 59 3d 99 3a 4b bd
       -0.26499215 -0.102072164 0.05315407 -0.04961643
0001c0 83 fc 5d be 1e 8a 3a 3e 20 56 9c be 49 63 a7 bd
       -0.21678357 0.1821675 -0.30534458 -0.08173234
0001d0 70 1b a5 be 40 2b 81 be 36 7d 17 bd f7 af a1 bd
       -0.32247496 -0.2522831 -0.036984645 -0.07894891
0001e0 74 77 fd 3d c7 18 04 3c 23 21 40 be 53 d3 ac bd
       0.123762995 0.008062548 -0.1876264 -0.084387444
0001f0 6d 22 a1 3d 3a 3c 83 bc bb 00 10 3e 5e f1 bf 3d
       0.07867894 -0.01601993 0.14062779 0.09372209

mlp.4.weight f4 [4, 128]
000000 db be 87 3e 35 b1 60 3e 1f 07 4d bf ba ea b9 3e
       0.265128 0.21942599 -0.8008899 0.36311895
000010 c9 bf 6c bf ea 9c aa bf 6b e4 c5 3e e4 c0 15 be
       -0.9248014 -1.3329136 0.38650832 -0.14624363
000020 72 97 d4 be 6f c5 5f 3f 19 91 cf 3e 4c c3 20 be
       -0.41521794 0.87410635 0.40540388 -0.156995
000030 cd e0 bb be 62 24 1c 3f a5 61 ca 3e 5f bf 6b be
       -0.36694947 0.60993016 0.39527622 -0.23022221
000040 91 89 c7 be 64 0b 68 bf 9b f6 b1 bd d0 25 98 be
       -0.38972142 -0.9064238 -0.086896144 -0.2971635
000050 f6 06 08 bf a4 a1 c6 be 08 c3 86 bd 12 b7 ab 3d
       -0.5313562 -0.38795197 -0.06580168 0.08384527
000060 f0 c1 e1 be b4 5a 35 3f 4f a4 c4 3c 34 e2 a7 bf
       -0.44093275 0.70841527 0.02400413 -1.3115907
000070 9d 83 07 3f 56 c8 04 3f 35 b0 ff be 5c 50 28 3f
       0.529352 0.5186819 -0.49939123 0.6574762
000080 36 75 87 be 66 6d d4 3d 5b 38 b9 bf 3e 92 37 bf
       -0.26456612 0.103724286 -1.4470323 -0.7170752
000090 35 a0 87 bd 51 ea 1d 3f 76 a7 94 3f ac 43 8c 3f
       -0.06622354 0.61685663 1.1613605 1.0958152
0000a0 36 00 02 3f 8f 28 11 3f 3c 12 09 bf af 2f 6c bf
       0.5078157 0.5670251 -0.5354345 -0.9226026
0000b0 04 85 76 be 59 76 68 be 3e 7a 1d 3e bd ef 0c bf
       -0.24074179 -0.22701396 0.15378663 -0.5505331
0000c0 aa ab 0c 3f 5b 69 1b bf 5a a8 af 3f 58 d4 82 be
       0.5494944 -0.60707635 1.3723252 -0.2555263
0000d0 ce 55 91 be 4a 32 19 bf 98 36 a0 3e c5 90 5b be
       -0.28385776 -0.5984236 0.31291652 -0.21441944
0000e0 f0 a4 97 3d 86 4b db bb a4 06 2c be bd 17 49 3e
       0.07404506 -0.0066923527 -0.16799408 0.19637962
0000f0 ee 7a 66 be ae 4d 70 3e f2 19 41 be 0d 08 07 bf
       -0.22507831 0.23467132 -0.18857554 -0.5274666
000100 48 2e 40 3e 9f 34 55 3e 38 42 35 3e bb 49 2d be
       0.18767655 0.20820855 0.17701042 -0.16922657
000110 e0 71 9b bf 36 cc b5 bd a5 f3 e9 3e a9 6a 2b bf
       -1.2144127 -0.08876841 0.456937 -0.66959625
000120 b3 b8 1c bf 96 b3 ab 3e 54 7a 8f 3f 61 37 9a 3e
       -0.6121933 0.3353545 1.1209207 0.30120376
000130 f2 31 e8 be e8 13 e5 bd a5 62 fa 3d cc 24 5d 3e
       -0.45350605 -0.111854374 0.12225846 0.21596068
000140 f5 ac 55 be 7d cf 36 3f 2d 9c 03 3f 9d 36 7e 3d
       -0.20866759 0.7141035 0.5141018 0.062063802
000150 27 75 b6 3e 07 56 1d bf 66 ce ff 3e 52 9a 76 bf
       0.35636255 -0.6145939 0.49962157 -0.96329224
000160 12 c7 03 3e ed 86 32 be bc fe 83 3e 99 0a 82 3f
       0.12868908 -0.17434283 0.25780284 1.0159484
000170 84 11 87 3f 8f 8e a5 3d a4 14 54 be 96 42 23 3c
       1.055222 0.080838315 -0.20710999 0.009964606
000180 5d ab 4a be 7c 6a 9d 3e f5 c2 91 be 64 b4 d1 3d
       -0.19791932 0.30745304 -0.28469053 0.10239485
000190 a8 98 2e 3e c6 07 5c bf 54 88 51 3f f5 57 d0 3e
       0.17050421 -0.8594936 0.81848645 0.40692106
0001a0 fa 63 c3 3e aa 0b 15 bf 00 7e b9 3e 5d 70 7d be
       0.38162214 -0.5822092 0.36228943 -0.24749894
0001b0 24 34 8d 3f 98 7d a9 3e 1f 76 d6 be b5 3f e1 3d
       1.1031537 0.33103633 -0.41886994 0.10998479
0001c0 9f 50 5d bf 2b c0 8e 3f a1 68 46 3e 8c 19 f7 3e
       -0.86451143 1.1152395 0.1937585 0.48261678
0001d0 5e 6e 13 3f cc 57 e7 3e 1d 79 5d be 06 0c 5e 3c
       0.5759028 0.4518417 -0.21628232 0.013552671
0001e0 90 70 c0 3e 2d b1 8b 3d 8f 0b af bd 58 fe e9 be
       0.37585878 0.06820903 -0.085471265 -0.4570186
0001f0 1b ee 2a be bb 37 ea 3e fd 55 e2 bd 24 e5 17 be
       -0.16692393 0.45745644 -0.11051557 -0.14833504
000200 64 45 26 3e d9 87 43 be a8 a2 1a 3e e2 0f d4 bc
       0.16237408 -0.1909479 0.15101111 -0.02588648
000210 0e 7b e7 be 4a f0 90 3f 8c 8c 99 3d 73 1d c5 bd
       -0.4521107 1.132333 0.0749751 -0.096247576
000220 e2 7a f3 be d7 8c 39 be 24 e5 30 3d 67 e1 1c bf
       -0.4755469 -0.18120132 0.043187276 -0.61281437
000230 33 96 60 3f 33 cf 93 3f e4 bc 14 3f b0 6f 64 bf
       0.87729186 1.1547607 0.58100724 -0.8923292
000240 b4 6a 2a 3f 03 19 c8 3e 93 9e 0e bf ff 29 f8 3e
       0.66569066 0.39081582 -0.55710715 0.4846954
000250 5e a9 30 3f 5e 90 a5 be 2f 29 2d bf ad 2d 86 3e
       0.69008434 -0.32336706 -0.67640966 0.26206723
000260 cf 31 e7 3e 4a 15 68 be 81 21 1f bf 2b b2 92 bf
       0.45155188 -0.22664371 -0.621605 -1.1460623
000270 4d ee 2c be 96 97 af be b7 12 be 3f c3 c3 d8 be
       -0.1688778 -0.34295338 1.4849461 -0.42336854
000280 a5 af ca be 6e 2c 73 3d 78 e3 ad bf c5 5b 41 3e
       -0.3958713 0.059368543 -1.3585043 0.18882664
000290 1c 98 3e 3e 97 9f cd bd 67 e0 46 3f 68 a3 57 bf
       0.18612713 -0.10040205 0.7768616 -0.84233713
0002a0 77 47 33 be 88 0c 40 be 1d 5d 6e 3e 04 73 db 3d
       -0.1750773 -0.1875478 0.23277707 0.10715297
0002b0 8a da 81 bf fd 71 00 bf 5d ba 76 be 9d 1c 1c 40
       -1.0144818 -0.5017393 -0.2409453 2.4392464
0002c0 a0 0f 1c bf d8 01 e5 3e 3d 4f 1f 3f 81 11 c8 bd
       -0.6096134 0.4472797 0.62230283 -0.097689636
0002d0 04 6d 39 be 3d dd f0 3e ec e2 3c 3f c0 99 3a 3d
       -0.18107992 0.4704379 0.73783755 0.045556784
0002e0 e4 cb 2b be 47 e5 89 3f 3a f8 87 bf dc 63 3e 3f
       -0.16776997 1.0773095 -1.0622628 0.74371123
0002f0 78 03 95 bf ae f1 90 be 86 a9 13 3f ed 70 06 3f
       -1.1641684 -0.28309387 0.5768055 0.5251606
000300 6f 33 83 bd 21 98 ee be dd be 09 3f db 64 6c 3f
       -0.064062946 -0.4660044 0.5380686 0.92341393
000310 97 cf 18 be 8b 2b 96 3e 88 1c 3a bf 44 28 d0 be
       -0.14922939 0.29330096 -0.72699785 -0.4065572
000320 ae 4e c6 3e 87 2f 09 3f cb 37 50 3f 25 ab fe 3d
       0.38731903 0.53588146 0.81335133 0.12434987
000330 ba 2b 98 3e ae 3e a3 3f d4 eb 92 bf 46 bd ec 3d
       0.2972086 1.2753503 -1.1478219 0.115595385
000340 2d 2e 55 bf 5c be 58 bf 41 3f 21 bf e6 ee 04 3f
       -0.83273584 -0.84665465 -0.6298714 0.5192703
000350 0b 6b e4 3e ef 44 a5 bf d5 d5 fa 3c a3 2b 9d 3f
       0.44612917 -1.2911662 0.030619541 1.2278942
000360 0f d3 56 bf a0 99 f0 3d 98 a7 2c 3f f2 bb a9 3f
       -0.839158 0.11748052 0.6744323 1.3260481
000370 8b 34 2a 3f 20 82 08 3f 40 e8 31 bf 1d f7 51 bf
       0.66486424 0.53323555 -0.6949501 -0.8201769
000380 6b ec 25 be cd 6f 57 3e b4 8a a8 3c 59 bc 70 be
       -0.16203468 0.21038742 0.020573951 -0.23509349
000390 cc b8 3f 3f b3 26 36 3f de 3c 10 3f 88 dc 06 3e
       0.7489135 0.711528 0.56342876 0.13170063
0003a0 12 54 8c 3e 2a 0d a7 be 5a 3f da be 7d d2 15 3f
       0.2740789 -0.3262723 -0.42626458 0.58524305
0003b0 74 9c a5 bf 5c da 2d 3f 0b fb fc bd dd 8f 9a 3e
       -1.2938371 0.67911315 -0.1235257 0.30187884
0003c0 e2 c9 3a 3f 71 1e 29 3f f2 ce 8d 3f f6 3b 2c bf
       0.729643 0.66062075 1.107878 -0.67278993
0003d0 c4 af 5e bf fc d3 75 3f ec 88 32 be 34 32 ff be
       -0.8698695 0.9602659 -0.17435044 -0.4984299
0003e0 36 3b 2d bf 27 ad cc 3e 57 ed 7b bf 4b 5d 66 be
       -0.67668474 0.39975855 -0.98409027 -0.22496526
0003f0 83 55 27 3e 3b 94 71 be 06 98 6a 3e 06 cb 83 be
       0.16341214 -0.23591702 0.22909555 -0.25740832

mlp.4.bias f4 [4]
000000 50 50 6c 3e 92 3b c8 bd de b1 90 3d 97 8f 5a 3d
       0.23077512 -0.09776987 0.070651755 0.053359594
