ddpg_critic_model_weights.pth (torch, 161155 bytes, 9 tensors)

v1.0.weight f4 [128, 33]
0	0x800089b8	-4.9404e-41
1	0x80008a7f	-4.9683e-41
2	0x80008a4c	-4.9612e-41
3	0x00008998	4.936e-41
4	0x80008bd9	-5.0168e-41
5	0x8000920f	-5.2396e-41
6	0x00008cb8	5.048e-41
7	0x800088fc	-4.9141e-41
8	0x00008970	4.9303e-41
9	0x80008b47	-4.9963e-41
10	0x800088f4	-4.913e-41
11	0x000089f8	4.9494e-41
12	0x800089bc	-4.941e-41
13	0x000088c5	4.9064e-41
14	0x00008a05	4.9512e-41
15	0x8000893f	-4.9235e-41
16	0x80008d8c	-5.0777e-41
17	0x00008f7b	5.1471e-41
18	0x00009b58	5.5727e-41
19	0x00008c97	5.0434e-41
20	0x8000894c	-4.9253e-41
21	0x80008adb	-4.9812e-41
22	0x800088e2	-4.9104e-41
23	0x00009953	5.5002e-41
24	0x800089d4	-4.9443e-41
25	0x80008995	-4.9355e-41
26	0x00008970	4.9303e-41
27	0x00019ddd	1.48466e-40
28	0x8000892d	-4.921e-41
29	0x80008bb2	-5.0113e-41
30	0x8001291f	-1.06587e-40
31	0x00008fdd	5.1608e-41
32	0x80008ceb	-5.0552e-41
33	0x00008a34	4.9578e-41
34	0x8000894c	-4.9253e-41
35	0x8000ab13	-6.137e-41
36	0x80008fce	-5.1587e-41
37	0x8000932d	-5.2797e-41
38	0x00008f86	5.1487e-41
39	0x0000906a	5.1806e-41
40	0x00008a24	4.9556e-41
41	0x8000897b	-4.9319e-41
42	0x800088c7	-4.9066e-41
43	0x800088d8	-4.909e-41
44	0x800089fe	-4.9502e-41
45	0x800089d3	-4.9442e-41
46	0x80008923	-4.9195e-41
47	0x800089e3	-4.9464e-41
48	0x000097f2	5.4508e-41
49	0x80008b71	-5.0022e-41
50	0x80009031	-5.1726e-41
51	0x00008b24	4.9914e-41
52	0x000088f8	4.9135e-41
53	0x000089e8	4.9471e-41
54	0x80008b0c	-4.988e-41
55	0x000089ec	4.9477e-41
56	0x800089c2	-4.9418e-41
57	0x00008985	4.9333e-41
58	0x00008926	4.92e-41
59	0x80008956	-4.9267e-41
60	0x800325f5	-2.89123e-40
61	0x0000895e	4.9278e-41
62	0x000088e8	4.9113e-41
63	0x0000a4ec	5.9163e-41
64	0x800088d3	-4.9083e-41
65	0x00008bf4	5.0206e-41
66	0x000089b7	4.9403e-41
67	0x00008a2d	4.9568e-41
68	0x80008ac8	-4.9785e-41
69	0x800092dc	-5.2683e-41
70	0x80008d92	-5.0786e-41
71	0x00008af6	4.985e-41
72	0x0000893b	4.9229e-41
73	0x00008a68	4.9651e-41
74	0x0000892f	4.9212e-41
75	0x000088e0	4.9101e-41
76	0x80008a11	-4.9529e-41
77	0x8000890a	-4.916e-41
78	0x80008914	-4.9174e-41
79	0x000089ce	4.9435e-41
80	0x80008991	-4.935e-41
81	0x00008947	4.9246e-41
82	0x800088d7	-4.9089e-41
83	0x00008d26	5.0635e-41
84	0x000088ef	4.9123e-41
85	0x00008a64	4.9645e-41
86	0x800089f6	-4.9491e-41
87	0x80009045	-5.1754e-41
88	0x00008a69	4.9652e-41
89	0x000088bd	4.9052e-41
90	0x00008979	4.9316e-41
91	0x80008959	-4.9271e-41
92	0x00008947	4.9246e-41
93	0x000468b3	4.04901e-40
94	0x800089c7	-4.9425e-41
95	0x000088e7	4.9111e-41
96	0x00009d05	5.6328e-41
97	0x80008959	-4.9271e-41
98	0x800089f2	-4.9485e-41
99	0x00008af2	4.9844e-41
100	0x800088fd	-4.9142e-41
101	0x80008a19	-4.954e-41
102	0x80008d85	-5.0768e-41
103	0x00008aa7	4.9739e-41
104	0x00008c8a	5.0416e-41
105	0x80008fb0	-5.1545e-41
106	0x80008939	-4.9226e-41
107	0x80008cd5	-5.0521e-41
108	0x80008fd0	-5.159e-41
109	0x0000894b	4.9251e-41
110	0x80008995	-4.9355e-41
111	0x0000895c	4.9275e-41
112	0x8000896f	-4.9302e-41
113	0x00008966	4.9289e-41
114	0x000088cd	4.9075e-41
115	0x80008fc9	-5.158e-41
116	0x80008a17	-4.9537e-41
117	0x8000945e	-5.3224e-41
118	0x80008d28	-5.0637e-41
119	0x800089a7	-4.938e-41
120	0x80008b55	-4.9983e-41
121	0x80008986	-4.9334e-41
122	0x000089d2	4.944e-41
123	0x800089ae	-4.939e-41
124	0x800088e7	-4.9111e-41
125	0x00008a16	4.9536e-41
126	0x800035ce	-1.9301e-41
127	0x80008a0a	-4.9519e-41
128	0x0000a0d5	5.7696e-41
129	0x80009c61	-5.6098e-41
130	0x80008a8f	-4.9705e-41
131	0x00008f04	5.1304e-41
132	0x80008ce7	-5.0546e-41
133	0x80008a1c	-4.9544e-41
134	0x80008c12	-5.0248e-41
135	0x8000a125	-5.7808e-41
136	0x80008e2d	-5.1003e-41
137	0x0000ab9c	6.1562e-41
138	0x800095ac	-5.3692e-41
139	0x80008cfc	-5.0576e-41
140	0x80008d67	-5.0726e-41
141	0x0000895f	4.928e-41
142	0x00008a72	4.9665e-41
143	0x00008a48	4.9606e-41
144	0x00008ae8	4.983e-41
145	0x000088ce	4.9076e-41
146	0x80008b3d	-4.9949e-41
147	0x800088b9	-4.9047e-41
148	0x00008e49	5.1042e-41
149	0x80009a14	-5.5273e-41
150	0x000099e4	5.5206e-41
151	0x000094c2	5.3364e-41
152	0x000089d2	4.944e-41
153	0x800090b5	-5.1911e-41
154	0x800089a5	-4.9378e-41
155	0x80008a47	-4.9605e-41
156	0x000089f4	4.9488e-41
157	0x000089a7	4.938e-41
158	0x8000892d	-4.921e-41
159	0x0002036a	1.84896e-40
160	0x8000ada9	-6.2298e-41
161	0x8000891e	-4.9188e-41
162	0x00000fd2	5.675e-42
163	0x00008b5e	4.9996e-41
164	0x800090e7	-5.1981e-41
165	0x00008a0d	4.9523e-41
166	0x000089f1	4.9484e-41
167	0x00008a24	4.9556e-41
168	0x80008acd	-4.9792e-41
169	0x00008b19	4.9899e-41
170	0x80008c34	-5.0295e-41
171	0x80008db5	-5.0835e-41
172	0x8000893a	-4.9228e-41
173	0x80008cd1	-5.0515e-41
174	0x00008a06	4.9513e-41
175	0x800089b7	-4.9403e-41
176	0x800088ba	-4.9048e-41
177	0x80008904	-4.9152e-41
178	0x0000898c	4.9343e-41
179	0x800088e1	-4.9103e-41
180	0x00008a18	4.9539e-41
181	0x800088f7	-4.9134e-41
182	0x8000894f	-4.9257e-41
183	0x00008d1a	5.0618e-41
184	0x80008a75	-4.9669e-41
185	0x80008941	-4.9237e-41
186	0x80008a43	-4.9599e-41
187	0x80008986	-4.9334e-41
188	0x8000893b	-4.9229e-41
189	0x800089eb	-4.9476e-41
190	0x00008a1b	4.9543e-41
191	0x8000895d	-4.9277e-41
192	0x800088d3	-4.9083e-41
193	0x0000893d	4.9232e-41
194	0x00008bed	5.0196e-41
195	0x000088c1	4.9058e-41
196	0x00008c39	5.0302e-41
197	0x80008bc3	-5.0137e-41
198	0x000088bf	4.9055e-41
199	0x80008a45	-4.9602e-41
200	0x8000aa04	-6.099e-41
201	0x80008ca5	-5.0454e-41
202	0x00008b7c	5.0038e-41
203	0x00008d0e	5.0601e-41
204	0x0000a4bb	5.9094e-41
205	0x8000894c	-4.9253e-41
206	0x00008e0a	5.0954e-41
207	0x80008b0e	-4.9883e-41
208	0x00008973	4.9307e-41
209	0x00008950	4.9258e-41
210	0x800088d6	-4.9087e-41
211	0x800089c9	-4.9428e-41
212	0x800089fa	-4.9497e-41
213	0x00008c35	5.0297e-41
214	0x00008ceb	5.0552e-41
215	0x00008efe	5.1296e-41
216	0x80008c65	-5.0364e-41
217	0x800088e3	-4.9106e-41
218	0x000089b3	4.9397e-41
219	0x000089f6	4.9491e-41
220	0x00008919	4.9181e-41
221	0x00008902	4.9149e-41
222	0x000089eb	4.9476e-41
223	0x800088ba	-4.9048e-41
224	0x000089b0	4.9393e-41
225	0x80009255	-5.2494e-41
226	0x000089ad	4.9389e-41
227	0x00008a3a	4.9586e-41
228	0x00008e79	5.111e-41
229	0x00008b3a	4.9945e-41
230	0x000089dc	4.9455e-41
231	0x000089d3	4.9442e-41
232	0x000088f6	4.9132e-41
233	0x00008a8b	4.97e-41
234	0x80008d41	-5.0672e-41
235	0x00008d82	5.0763e-41
236	0x000088d3	4.9083e-41
237	0x00008cdb	5.053e-41
238	0x000089b9	4.9406e-41
239	0x00008a8f	4.9705e-41
240	0x00008a31	4.9574e-41
241	0x800089e1	-4.9462e-41
242	0x800089b9	-4.9406e-41
243	0x000089e7	4.947e-41
244	0x00008951	4.926e-41
245	0x000088f6	4.9132e-41
246	0x80008993	-4.9352e-41
247	0x00008fa8	5.1534e-41
248	0x80008b8c	-5.006e-41
249	0x00008cb0	5.0469e-41
250	0x80008a27	-4.956e-41
251	0x00008948	4.9247e-41
252	0x80008a74	-4.9668e-41
253	0x00008a39	4.9585e-41
254	0x800089f4	-4.9488e-41
255	0x0000897d	4.9322e-41

v1.0.bias f4 [128]
0	0x80005657	-3.0973e-41
1	0x8000ac52	-6.1817e-41
2	0x80010b8d	-9.5979e-41
3	0x80060ba2	-5.55186e-40
4	0x8002fce3	-2.7439e-40
5	0x00017e7c	1.3721e-40
6	0x00005169	2.9204e-41
7	0x8000517e	-2.9234e-41
8	0x0001f9b2	1.81409e-40
9	0x80001af0	-9.663e-42
10	0x8000a1d2	-5.805e-41
11	0x000353c0	3.0555e-40
12	0x00009e5b	5.6807e-41
13	0x00009650	5.3922e-41
14	0x00008ba2	5.0091e-41
15	0x00009124	5.2067e-41
16	0x80011947	-1.00903e-40
17	0x800362a9	-3.10899e-40
18	0x8000af8c	-6.2974e-41
19	0x8001e9f4	-1.75762e-40
20	0x0002053c	1.85549e-40
21	0x80032e3b	-2.92091e-40
22	0x8000a184	-5.7941e-41
23	0x80011bba	-1.01782e-40
24	0x80048524	-4.15104e-40
25	0x0004a94b	4.28073e-40
26	0x0001ad31	1.53965e-40
27	0x00018cc4	1.42333e-40
28	0x0000aba1	6.1569e-41
29	0x80008d96	-5.0791e-41
30	0x80061049	-5.56855e-40
31	0x00009b7e	5.578e-41
32	0x0002be94	2.52038e-40
33	0x8001dc97	-1.70968e-40
34	0x0001e302	1.7327e-40
35	0x8004b156	-4.30958e-40
36	0x8000aea4	-6.2649e-41
37	0x8006265d	-5.64775e-40
38	0x8000ad45	-6.2157e-41
39	0x000088d4	4.9085e-41
40	0x00009274	5.2537e-41
41	0x8000983d	-5.4613e-41
42	0x000162e5	1.27312e-40
43	0x8000853e	-4.7798e-41
44	0x00011dc0	1.02508e-40
45	0x0000147f	7.353e-42
46	0x00005193	2.9263e-41
47	0x0000ab9c	6.1562e-41
48	0x80008c5f	-5.0356e-41
49	0x800095aa	-5.369e-41
50	0x8004c268	-4.37082e-40
51	0x80008b17	-4.9896e-41
52	0x00009752	5.4283e-41
53	0x0000a7ff	6.0266e-41
54	0x80008a20	-4.955e-41
55	0x80015f09	-1.25928e-40
56	0x800088d7	-4.9089e-41
57	0x000064e7	3.6197e-41
58	0x00014254	1.1563e-40
59	0x000023be	1.2822e-41
60	0x8000ad65	-6.2202e-41
61	0x8001f755	-1.80562e-40
62	0x0004c783	4.38913e-40
63	0x9d389629	-2.4429828e-21
64	0x00009a88	5.5435e-41
65	0x00047d83	4.12367e-40
66	0x80009e8a	-5.6873e-41
67	0x00061641	5.58996e-40
68	0x00061254	5.57588e-40
69	0x8002c31e	-2.53666e-40
70	0x80046bc3	-4.06e-40
71	0x8000a39d	-5.8693e-41
72	0x8000a376	-5.8639e-41
73	0x00009f6a	5.7187e-41
74	0x00008907	4.9156e-41
75	0x80032ac4	-2.90848e-40
76	0x0002f5bb	2.71822e-40
77	0x00009671	5.3968e-41
78	0x00008f7b	5.1471e-41
79	0x000062fd	3.551e-41
80	0x000090fc	5.201e-41
81	0x80009de6	-5.6643e-41
82	0x800090e0	-5.1971e-41
83	0x00008b40	4.9953e-41
84	0x800336bf	-2.95146e-40
85	0x00014fc3	1.20449e-40
86	0x800103de	-9.3223e-41
87	0x00008b4e	4.9973e-41
88	0x8000a7d7	-6.021e-41
89	0x8002be91	-2.52033e-40
90	0x00009409	5.3105e-41
91	0x00014a67	1.18526e-40
92	0x80015c2a	-1.24898e-40
93	0x00008d67	5.0726e-41
94	0x8003557e	-3.06175e-40
95	0x0004aed3	4.30057e-40
96	0x000200c0	1.8394e-40
97	0x0001ea80	1.75958e-40
98	0x80008294	-4.6843e-41
99	0x0004a112	4.25123e-40
100	0x8002ac75	-2.45537e-40
101	0x0000a529	5.9248e-41
102	0x00005ffa	3.443e-41
103	0x0000aed5	6.2718e-41
104	0x80007253	-4.1012e-41
105	0x00006f05	3.9826e-41
106	0x80008902	-4.9149e-41
107	0x8000be33	-6.823e-41
108	0x800093cc	-5.302e-41
109	0x8001e866	-1.75204e-40
110	0x8002cfda	-2.58234e-40
111	0x80034c37	-3.02847e-40
112	0x800053e7	-3.0098e-41
113	0x80030b71	-2.79611e-40
114	0xb1b63716	-5.3031597e-09
115	0x0004b2ca	4.3148e-40
116	0x00036159	3.10428e-40
117	0x00009644	5.3905e-41
118	0x0000a02c	5.7459e-41
119	0x000088de	4.9099e-41
120	0x80008f78	-5.1467e-41
121	0x00001e6e	1.0916e-41
122	0x0000a68f	5.975e-41
123	0x00008fd4	5.1596e-41
124	0x00014c88	1.1929e-40
125	0x0002aef4	2.46432e-40
126	0x000475ec	4.09644e-40
127	0x00004194	2.3525e-41

v1.1.weight f4 [128]
0	0x000089fc	4.95e-41
1	0x0000892b	4.9207e-41
2	0x8000899f	-4.9369e-41
3	0x800088b9	-4.9047e-41
4	0x000089e3	4.9464e-41
5	0x0000894c	4.9253e-41
6	0x80008a03	-4.9509e-41
7	0x800089a6	-4.9379e-41
8	0x00008952	4.9261e-41
9	0x00008919	4.9181e-41
10	0x00008918	4.918e-41
11	0x00008983	4.933e-41
12	0x800088dd	-4.9097e-41
13	0x80008987	-4.9336e-41
14	0x80008ae9	-4.9832e-41
15	0x80008a24	-4.9556e-41
16	0x00008908	4.9158e-41
17	0x80008963	-4.9285e-41
18	0x80008996	-4.9357e-41
19	0x80008a0b	-4.952e-41
20	0x00008920	4.9191e-41
21	0x8000897a	-4.9317e-41
22	0x8000893d	-4.9232e-41
23	0x0000893e	4.9233e-41
24	0x00008998	4.936e-41
25	0x000088dd	4.9097e-41
26	0x000089c8	4.9427e-41
27	0x800089c1	-4.9417e-41
28	0x00008c89	5.0415e-41
29	0x800089f1	-4.9484e-41
30	0x0000896c	4.9298e-41
31	0x80008a2e	-4.957e-41
32	0x000088c1	4.9058e-41
33	0x000088f1	4.9125e-41
34	0x80008923	-4.9195e-41
35	0x80008932	-4.9216e-41
36	0x8000893f	-4.9235e-41
37	0x00008b0b	4.9879e-41
38	0x80008945	-4.9243e-41
39	0x800089b6	-4.9401e-41
40	0x8000893f	-4.9235e-41
41	0x800089c2	-4.9418e-41
42	0x000089bd	4.9411e-41
43	0x8000894a	-4.925e-41
44	0x000089df	4.9459e-41
45	0x800089fb	-4.9498e-41
46	0x800088d3	-4.9083e-41
47	0x000089f8	4.9494e-41
48	0x80008938	-4.9225e-41
49	0x800088e1	-4.9103e-41
50	0x0000895e	4.9278e-41
51	0x00008a42	4.9598e-41
52	0x80008907	-4.9156e-41
53	0x800089a7	-4.938e-41
54	0x80008945	-4.9243e-41
55	0x000088be	4.9054e-41
56	0x800089a6	-4.9379e-41
57	0x000089b1	4.9394e-41
58	0x0000891b	4.9184e-41
59	0x80008993	-4.9352e-41
60	0x8000890d	-4.9165e-41
61	0x000088f7	4.9134e-41
62	0x80008a09	-4.9518e-41
63	0x2a780a30	2.2030359e-13
64	0x800088d8	-4.909e-41
65	0x0000894c	4.9253e-41
66	0x000089ab	4.9386e-41
67	0x80008916	-4.9177e-41
68	0x000088c9	4.9069e-41
69	0x8000898b	-4.9341e-41
70	0x800089e6	-4.9469e-41
71	0x00008a0a	4.9519e-41
72	0x000089b5	4.94e-41
73	0x800088ff	-4.9145e-41
74	0x80008929	-4.9204e-41
75	0x000089c5	4.9422e-41
76	0x000089e6	4.9469e-41
77	0x800089be	-4.9413e-41
78	0x800088e8	-4.9113e-41
79	0x000089f3	4.9487e-41
80	0x000088f3	4.9128e-41
81	0x000088dc	4.9096e-41
82	0x800089d5	-4.9445e-41
83	0x800089b7	-4.9403e-41
84	0x0000891f	4.919e-41
85	0x80008931	-4.9215e-41
86	0x800088c7	-4.9066e-41
87	0x80008914	-4.9174e-41
88	0x000088c0	4.9057e-41
89	0x000088c6	4.9065e-41
90	0x00008971	4.9305e-41
91	0x000088e0	4.9101e-41
92	0x000088fc	4.9141e-41
93	0x80008a19	-4.954e-41
94	0x800088e9	-4.9114e-41
95	0x8000a027	-5.7452e-41
96	0x80008a3c	-4.9589e-41
97	0x00008a13	4.9532e-41
98	0x80008a30	-4.9572e-41
99	0x00008a4c	4.9612e-41
100	0x00008958	4.927e-41
101	0x800089e7	-4.947e-41
102	0x00008a1a	4.9542e-41
103	0x800089ac	-4.9387e-41
104	0x000089c0	4.9415e-41
105	0x8000896f	-4.9302e-41
106	0x800089a2	-4.9373e-41
107	0x800095b6	-5.3706e-41
108	0x00008915	4.9176e-41
109	0x80008934	-4.9219e-41
110	0x00008900	4.9146e-41
111	0x800088c4	-4.9062e-41
112	0x000089e6	4.9469e-41
113	0x8000895c	-4.9275e-41
114	0x3e1195bf	0.1421728
115	0x000088c7	4.9066e-41
116	0x000088c0	4.9057e-41
117	0x800088bc	-4.9051e-41
118	0x000089b3	4.9397e-41
119	0x80008a21	-4.9551e-41
120	0x80008902	-4.9149e-41
121	0x00008942	4.9239e-41
122	0x800088e1	-4.9103e-41
123	0x80008a0b	-4.952e-41
124	0x00008940	4.9236e-41
125	0x80008a9a	-4.9721e-41
126	0x0000891c	4.9186e-41
127	0x800089a5	-4.9378e-41

v1.1.bias f4 [128]
0	0x8000899c	-4.9365e-41
1	0x80008a4b	-4.961e-41
2	0x800088c9	-4.9069e-41
3	0x80008a01	-4.9506e-41
4	0x800089b1	-4.9394e-41
5	0x8000918a	-5.221e-41
6	0x800089f8	-4.9494e-41
7	0x80008aa3	-4.9733e-41
8	0x80008bc2	-5.0136e-41
9	0x80008940	-4.9236e-41
10	0x800089c0	-4.9415e-41
11	0x80009bdc	-5.5912e-41
12	0x8000892f	-4.9212e-41
13	0x80008977	-4.9313e-41
14	0x80008963	-4.9285e-41
15	0x80008932	-4.9216e-41
16	0x800089cc	-4.9432e-41
17	0x80008907	-4.9156e-41
18	0x80008c6f	-5.0378e-41
19	0x80008998	-4.936e-41
20	0x80008c95	-5.0431e-41
21	0x800088ed	-4.912e-41
22	0x80008a32	-4.9575e-41
23	0x8000934f	-5.2844e-41
24	0x80008a50	-4.9617e-41
25	0x8000a74d	-6.0016e-41
26	0x800089ea	-4.9474e-41
27	0x800092da	-5.268e-41
28	0x80008a4a	-4.9609e-41
29	0x800089f0	-4.9483e-41
30	0x80008d78	-5.075e-41
31	0x80008a1e	-4.9547e-41
32	0x8000892d	-4.921e-41
33	0x80008a24	-4.9556e-41
34	0x80008933	-4.9218e-41
35	0x800089fd	-4.9501e-41
36	0x800099a8	-5.5121e-41
37	0x8000931d	-5.2774e-41
38	0x80008a24	-4.9556e-41
39	0x800088fe	-4.9144e-41
40	0x80008b43	-4.9958e-41
41	0x800088bd	-4.9052e-41
42	0x80009d08	-5.6332e-41
43	0x80008955	-4.9265e-41
44	0x80009467	-5.3237e-41
45	0x800089cf	-4.9436e-41
46	0x80008928	-4.9202e-41
47	0x800089d9	-4.945e-41
48	0x80008a98	-4.9718e-41
49	0x800089c5	-4.9422e-41
50	0x800088d8	-4.909e-41
51	0x80008a1e	-4.9547e-41
52	0x80009016	-5.1688e-41
53	0x80008b59	-4.9989e-41
54	0x80008a1e	-4.9547e-41
55	0x800097a8	-5.4404e-41
56	0x80009e36	-5.6755e-41
57	0x80008932	-4.9216e-41
58	0x80008a11	-4.9529e-41
59	0x800089bf	-4.9414e-41
60	0x80008a27	-4.956e-41
61	0x800088de	-4.9099e-41
62	0x80009ad5	-5.5543e-41
63	0x29ae14bb	7.7307484e-14
64	0x80008a20	-4.955e-41
65	0x80008a27	-4.956e-41
66	0x80008900	-4.9146e-41
67	0x8000899a	-4.9362e-41
68	0x8000af3f	-6.2866e-41
69	0x8000894a	-4.925e-41
70	0x800089fc	-4.95e-41
71	0x80008905	-4.9153e-41
72	0x80008928	-4.9202e-41
73	0x800089eb	-4.9476e-41
74	0x80009403	-5.3097e-41
75	0x8000af9f	-6.3001e-41
76	0x8000892c	-4.9208e-41
77	0x80008b5d	-4.9994e-41
78	0x80009074	-5.182e-41
79	0x800089a2	-4.9373e-41
80	0x80008aaa	-4.9743e-41
81	0x80008934	-4.9219e-41
82	0x8000891d	-4.9187e-41
83	0x80008991	-4.935e-41
84	0x800089ee	-4.948e-41
85	0x8000a50a	-5.9205e-41
86	0x80008a4b	-4.961e-41
87	0x8000a784	-6.0093e-41
88	0x80008987	-4.9336e-41
89	0x800088fc	-4.9141e-41
90	0x800088c7	-4.9066e-41
91	0x80008924	-4.9197e-41
92	0x80008961	-4.9282e-41
93	0x8000891d	-4.9187e-41
94	0x800089ef	-4.9481e-41
95	0x80008ec6	-5.1217e-41
96	0x80008a41	-4.9596e-41
97	0x800088c9	-4.9069e-41
98	0x80008a33	-4.9577e-41
99	0x80008bf7	-5.021e-41
100	0x8000911d	-5.2057e-41
101	0x800089e2	-4.9463e-41
102	0x800089d8	-4.9449e-41
103	0x80008967	-4.929e-41
104	0x800088c0	-4.9057e-41
105	0x80008df7	-5.0927e-41
106	0x80008ccb	-5.0507e-41
107	0x80008b11	-4.9888e-41
108	0x80008aca	-4.9788e-41
109	0x80008937	-4.9223e-41
110	0x80008aac	-4.9746e-41
111	0x8000898d	-4.9344e-41
112	0x80008b20	-4.9909e-41
113	0x80008940	-4.9236e-41
114	0x3d15bc75	0.03655668
115	0x800089ba	-4.9407e-41
116	0x800089b3	-4.9397e-41
117	0x8000a1e8	-5.8081e-41
118	0x80008e3a	-5.1021e-41
119	0x80008c3a	-5.0304e-41
120	0x80008985	-4.9333e-41
121	0x80008a06	-4.9513e-41
122	0x8000890b	-4.9162e-41
123	0x80008a21	-4.9551e-41
124	0x8000891a	-4.9183e-41
125	0x80008935	-4.922e-41
126	0x80008a7d	-4.968e-41
127	0x8000a19c	-5.7975e-41

v1.1.running_mean f4 [128]
0	0x80035335	-3.05356e-40
1	0x00043dde	3.89536e-40
2	0x8000952e	-5.3516e-41
3	0x8003d84e	-3.53102e-40
4	0x00024bcb	2.1086e-40
5	0x8001944f	-1.45039e-40
6	0x000620c0	5.62761e-40
7	0x80042bfb	-3.83119e-40
8	0x8006054b	-5.52912e-40
9	0x8000f37d	-8.7347e-41
10	0x8002c889	-2.5561e-40
11	0x00020abb	1.8752e-40
12	0x8001aeec	-1.54586e-40
13	0x0000bfe2	6.8835e-41
14	0x000032d8	1.824e-41
15	0x800499c1	-4.22498e-40
16	0x8001f537	-1.79802e-40
17	0x0002193e	1.92726e-40
18	0x000322e3	2.88021e-40
19	0x80001aac	-9.568e-42
20	0x000246a5	2.09013e-40
21	0x800604cc	-5.52734e-40
22	0x000448c8	3.93451e-40
23	0x00008167	4.6421e-41
24	0x8001e49a	-1.73842e-40
25	0x0000616a	3.4946e-41
26	0x00025ebe	2.17658e-40
27	0x80000623	-2.201e-42
28	0x0004afa6	4.30353e-40
29	0x80008625	-4.8122e-41
30	0x8002ecdf	-2.68644e-40
31	0x0000744f	4.1724e-41
32	0x800297c1	-2.3811e-40
33	0x0002b5c6	2.48879e-40
34	0x80019fe1	-1.49189e-40
35	0x800233d9	-2.0227e-40
36	0x8004a619	-4.26927e-40
37	0x8000ace8	-6.2027e-41
38	0x8000a1a5	-5.7987e-41
39	0x00011194	9.8141e-41
40	0x80010afe	-9.5779e-41
41	0x00009e1a	5.6716e-41
42	0x80026f44	-2.23586e-40
43	0x800475e1	-4.09629e-40
44	0x0003877a	3.24106e-40
45	0x0000d377	7.5859e-41
46	0x8000d903	-7.7849e-41
47	0x00010555	9.3748e-41
48	0x00019727	1.46059e-40
49	0x80033b48	-2.96773e-40
50	0x0004f472	4.55032e-40
51	0x8002f519	-2.71595e-40
52	0x8004a8b3	-4.2786e-40
53	0x0001086b	9.4855e-41
54	0x00000f67	5.525e-42
55	0x8001f322	-1.79055e-40
56	0x00028d2c	2.34314e-40
57	0x8002b354	-2.48002e-40
58	0x8002b9cd	-2.50324e-40
59	0x8000bcf7	-6.7788e-41
60	0x80008ef4	-5.1282e-41
61	0x8001af6c	-1.54765e-40
62	0x80030bc6	-2.7973e-40
63	0x31e8d22a	6.7759816e-09
64	0x8000a4a3	-5.906e-41
65	0x00015cb8	1.25097e-40
66	0x80039da4	-3.32057e-40
67	0x8001bc41	-1.59368e-40
68	0x00039545	3.29054e-40
69	0x8001b98a	-1.58394e-40
70	0x80036703	-3.1246e-40
71	0x00019cfc	1.48151e-40
72	0x0000b07b	6.3309e-41
73	0x00025f2a	2.1781e-40
74	0x80001788	-8.441e-42
75	0x0002d684	2.60625e-40
76	0x8000bd3a	-6.7882e-41
77	0x00050a13	4.62791e-40
78	0x80004967	-2.6332e-41
79	0x00002d06	1.6151e-41
80	0x800270ae	-2.24093e-40
81	0x8003d75a	-3.5276e-40
82	0x8002698c	-2.21534e-40
83	0x80029da9	-2.40229e-40
84	0x0001884b	1.40728e-40
85	0x80006373	-3.5676e-41
86	0x00027634	2.26074e-40
87	0x0002e671	2.66338e-40
88	0x00025246	2.13185e-40
89	0x0002a406	2.42512e-40
90	0x800310d2	-2.8154e-40
91	0x0000de86	7.9826e-41
92	0x8000391a	-2.0484e-41
93	0x00002cf1	1.6122e-41
94	0x8000eca8	-8.4896e-41
95	0x8000d795	-7.7336e-41
96	0x0001c294	1.61637e-40
97	0x80009c79	-5.6132e-41
98	0x8001c19d	-1.61291e-40
99	0x80004ed4	-2.8278e-41
100	0x80028e60	-2.34746e-40
101	0x00046345	4.02953e-40
102	0x0001d378	1.67696e-40
103	0x00023b8a	2.0503e-40
104	0x8000678f	-3.715e-41
105	0x800168d4	-1.29441e-40
106	0x800181ad	-1.38354e-40
107	0x00034e6a	3.03636e-40
108	0x0001dfcb	1.72117e-40
109	0x00016a0c	1.29878e-40
110	0x8001787f	-1.35061e-40
111	0x0003de22	3.55193e-40
112	0x0002c752	2.55174e-40
113	0x00014217	1.15544e-40
114	0x3d30ee16	0.043195806
115	0x0004d8c1	4.45099e-40
116	0x80014581	-1.16769e-40
117	0x80011702	-1.00089e-40
118	0x0001f2c1	1.78919e-40
119	0x00008809	4.88e-41
120	0x80022544	-1.9704e-40
121	0x0002add4	2.46029e-40
122	0x0003d6d3	3.52571e-40
123	0x00003b99	2.138e-41
124	0x80008eb8	-5.1198e-41
125	0x80015d97	-1.25409e-40
126	0x8002c74e	-2.55168e-40
127	0x80046f1b	-4.07199e-40

v1.1.running_var f4 [128]
0	0x00000004	6e-45
1	0x00000004	6e-45
2	0x00000004	6e-45
3	0x00000004	6e-45
4	0x00000004	6e-45
5	0x00000004	6e-45
6	0x00000004	6e-45
7	0x00000004	6e-45
8	0x00000004	6e-45
9	0x00000004	6e-45
10	0x00000004	6e-45
11	0x00000004	6e-45
12	0x00000004	6e-45
13	0x00000004	6e-45
14	0x00000004	6e-45
15	0x00000004	6e-45
16	0x00000004	6e-45
17	0x00000004	6e-45
18	0x00000004	6e-45
19	0x00000004	6e-45
20	0x00000004	6e-45
21	0x00000004	6e-45
22	0x00000004	6e-45
23	0x00000004	6e-45
24	0x00000004	6e-45
25	0x00000004	6e-45
26	0x00000004	6e-45
27	0x00000004	6e-45
28	0x00000004	6e-45
29	0x00000004	6e-45
30	0x00000004	6e-45
31	0x00000004	6e-45
32	0x00000004	6e-45
33	0x00000004	6e-45
34	0x00000004	6e-45
35	0x00000004	6e-45
36	0x00000004	6e-45
37	0x00000004	6e-45
38	0x00000004	6e-45
39	0x00000004	6e-45
40	0x00000004	6e-45
41	0x00000004	6e-45
42	0x00000004	6e-45
43	0x00000004	6e-45
44	0x00000004	6e-45
45	0x00000004	6e-45
46	0x00000004	6e-45
47	0x00000004	6e-45
48	0x00000004	6e-45
49	0x00000004	6e-45
50	0x00000004	6e-45
51	0x00000004	6e-45
52	0x00000004	6e-45
53	0x00000004	6e-45
54	0x00000004	6e-45
55	0x00000004	6e-45
56	0x00000004	6e-45
57	0x00000004	6e-45
58	0x00000004	6e-45
59	0x00000004	6e-45
60	0x00000004	6e-45
61	0x00000004	6e-45
62	0x00000004	6e-45
63	0x29f0f795	1.070109e-13
64	0x00000004	6e-45
65	0x00000004	6e-45
66	0x00000004	6e-45
67	0x00000004	6e-45
68	0x00000004	6e-45
69	0x00000004	6e-45
70	0x00000004	6e-45
71	0x00000004	6e-45
72	0x00000004	6e-45
73	0x00000004	6e-45
74	0x00000004	6e-45
75	0x00000004	6e-45
76	0x00000004	6e-45
77	0x00000004	6e-45
78	0x00000004	6e-45
79	0x00000004	6e-45
80	0x00000004	6e-45
81	0x00000004	6e-45
82	0x00000004	6e-45
83	0x00000004	6e-45
84	0x00000004	6e-45
85	0x00000004	6e-45
86	0x00000004	6e-45
87	0x00000004	6e-45
88	0x00000004	6e-45
89	0x00000004	6e-45
90	0x00000004	6e-45
91	0x00000004	6e-45
92	0x00000004	6e-45
93	0x00000004	6e-45
94	0x00000004	6e-45
95	0x00000004	6e-45
96	0x00000004	6e-45
97	0x00000004	6e-45
98	0x00000004	6e-45
99	0x00000004	6e-45
100	0x00000004	6e-45
101	0x00000004	6e-45
102	0x00000004	6e-45
103	0x00000004	6e-45
104	0x00000004	6e-45
105	0x00000004	6e-45
106	0x00000004	6e-45
107	0x00000004	6e-45
108	0x00000004	6e-45
109	0x00000004	6e-45
110	0x00000004	6e-45
111	0x00000004	6e-45
112	0x00000004	6e-45
113	0x00000004	6e-45
114	0x3d06fa10	0.032953322
115	0x00000004	6e-45
116	0x00000004	6e-45
117	0x00000004	6e-45
118	0x00000004	6e-45
119	0x00000004	6e-45
120	0x00000004	6e-45
121	0x00000004	6e-45
122	0x00000004	6e-45
123	0x00000004	6e-45
124	0x00000004	6e-45
125	0x00000004	6e-45
126	0x00000004	6e-45
127	0x00000004	6e-45

v2.0.weight f4 [256, 132]
0	0x0000890f	4.9167e-41
1	0x8000895f	-4.928e-41
2	0x800089f0	-4.9483e-41
3	0x0000890a	4.916e-41
4	0x0000919f	5.2239e-41
5	0x00008cfb	5.0574e-41
6	0x00008921	4.9193e-41
7	0x00008fa7	5.1533e-41
8	0x80009f96	-5.7249e-41
9	0x80005db6	-3.3617e-41
10	0x0000a422	5.888e-41
11	0x00008958	4.927e-41
12	0x80007ce5	-4.4804e-41
13	0x80008cf9	-5.0571e-41
14	0x8000a5ce	-5.948e-41
15	0x80008ad3	-4.9801e-41
16	0x00008bf6	5.0209e-41
17	0x00009016	5.1688e-41
18	0x80009a34	-5.5318e-41
19	0x800091ec	-5.2347e-41
20	0x80008e3c	-5.1024e-41
21	0x80008ceb	-5.0552e-41
22	0x00008c85	5.0409e-41
23	0x00008ac6	4.9783e-41
24	0x80009641	-5.3901e-41
25	0x00008a44	4.96e-41
26	0x80008b5d	-4.9994e-41
27	0x80007ac9	-4.4047e-41
28	0x80008a17	-4.9537e-41
29	0x00008c54	5.034e-41
30	0x80009ca1	-5.6188e-41
31	0x0000896e	4.93e-41
32	0x00008b20	4.9909e-41
33	0x00002fb4	1.7113e-41
34	0x80008cdc	-5.0531e-41
35	0x80008b3c	-4.9948e-41
36	0x0000892a	4.9205e-41
37	0x80008a39	-4.9585e-41
38	0x000088fe	4.9144e-41
39	0x0000896c	4.9298e-41
40	0x80009d9a	-5.6537e-41
41	0x80008aed	-4.9837e-41
42	0x00008b24	4.9914e-41
43	0x00008970	4.9303e-41
44	0x80008a74	-4.9668e-41
45	0x00008b48	4.9965e-41
46	0x00008910	4.9169e-41
47	0x80008aa8	-4.974e-41
48	0x00008a9d	4.9725e-41
49	0x800089cf	-4.9436e-41
50	0x00009719	5.4204e-41
51	0x00008948	4.9247e-41
52	0x80009f06	-5.7047e-41
53	0x000088bd	4.9052e-41
54	0x00008a01	4.9506e-41
55	0x00008d0d	5.06e-41
56	0x80008ad8	-4.9808e-41
57	0x000089fe	4.9502e-41
58	0x00008d2b	5.0642e-41
59	0x800004c4	-1.71e-42
60	0x80008a59	-4.963e-41
61	0x00008a38	4.9584e-41
62	0x00008b51	4.9977e-41
63	0x00009e97	5.6891e-41
64	0x00008e8b	5.1135e-41
65	0x80008d28	-5.0637e-41
66	0x00008dae	5.0825e-41
67	0x8000199b	-9.186e-42
68	0x0000894b	4.9251e-41
69	0x800089d2	-4.944e-41
70	0x80008a1e	-4.9547e-41
71	0x00008a25	4.9557e-41
72	0x80008e34	-5.1013e-41
73	0x000088cc	4.9073e-41
74	0x00008e52	5.1055e-41
75	0x00008913	4.9173e-41
76	0x00008b2c	4.9925e-41
77	0x80008b6a	-5.0012e-41
78	0x000089c1	4.9417e-41
79	0x800088ed	-4.912e-41
80	0x00008952	4.9261e-41
81	0x80008a39	-4.9585e-41
82	0x000090ef	5.1992e-41
83	0x80000d4f	-4.774e-42
84	0x00008da7	5.0815e-41
85	0x00008a72	4.9665e-41
86	0x80008b44	-4.9959e-41
87	0x80008b50	-4.9976e-41
88	0x00008c21	5.0269e-41
89	0x00008a56	4.9626e-41
90	0x80008984	-4.9331e-41
91	0x80008edf	-5.1252e-41
92	0x80004926	-2.6241e-41
93	0x000027ee	1.4324e-41
94	0x00003fd5	2.2899e-41
95	0x000095c0	5.372e-41
96	0x80006d9e	-3.9323e-41
97	0x80008f35	-5.1373e-41
98	0x80008b0f	-4.9885e-41
99	0x80008bb8	-5.0122e-41
100	0x80008bec	-5.0195e-41
101	0x00008ac7	4.9784e-41
102	0x00008aec	4.9836e-41
103	0x8000895d	-4.9277e-41
104	0x80008ba8	-5.0099e-41
105	0x80009117	-5.2048e-41
106	0x80008abe	-4.9771e-41
107	0x80009689	-5.4002e-41
108	0x00008a1f	4.9549e-41
109	0x80008c71	-5.0381e-41
110	0x80008d7a	-5.0752e-41
111	0x00006607	3.66e-41
112	0x800088e7	-4.9111e-41
113	0x800088be	-4.9054e-41
114	0x8000398e	-2.0647e-41
115	0x00009018	5.1691e-41
116	0x00008997	4.9358e-41
117	0x00008c0c	5.024e-41
118	0x8000976f	-5.4324e-41
119	0x00008939	4.9226e-41
120	0x00008a26	4.9558e-41
121	0x00008ae4	4.9825e-41
122	0x800088e9	-4.9114e-41
123	0x80008dff	-5.0939e-41
124	0x00000a51	3.701e-42
125	0x00008901	4.9148e-41
126	0x80009dc8	-5.6601e-41
127	0x800049c1	-2.6458e-41
128	0x0000891a	4.9183e-41
129	0x80008a0d	-4.9523e-41
130	0x800089d9	-4.945e-41
131	0x80008937	-4.9223e-41
132	0x80008bde	-5.0175e-41
133	0x800089a8	-4.9382e-41
134	0x00032b1b	2.9097e-40
135	0x8000978f	-5.4369e-41
136	0x00009f09	5.7051e-41
137	0x00008a50	4.9617e-41
138	0x00008d9a	5.0797e-41
139	0x8000acae	-6.1946e-41
140	0x0000979e	5.439e-41
141	0x80008cda	-5.0528e-41
142	0x80009739	-5.4248e-41
143	0x0000afa7	6.3012e-41
144	0x80008aa5	-4.9736e-41
145	0x8000a773	-6.007e-41
146	0x000166d6	1.28726e-40
147	0x80008901	-4.9148e-41
148	0x8001e81e	-1.75103e-40
149	0x8004c430	-4.37721e-40
150	0x00019332	1.44639e-40
151	0x8001c745	-1.6332e-40
152	0x000089ab	4.9386e-41
153	0x00012385	1.04578e-40
154	0x8001e480	-1.73806e-40
155	0x00033264	2.93583e-40
156	0x8000964f	-5.392e-41
157	0x00030bc5	2.79729e-40
158	0x000088ca	4.907e-41
159	0x000089fe	4.9502e-41
160	0x000090fe	5.2013e-41
161	0x000088bb	4.905e-41
162	0x000088d4	4.9085e-41
163	0x0000899c	4.9365e-41
164	0x000038ed	2.0421e-41
165	0x00033cec	2.97361e-40
166	0x00013db9	1.13977e-40
167	0x0000a312	5.8499e-41
168	0x8000890f	-4.9167e-41
169	0x000036b1	1.962e-41
170	0x0000a92e	6.069e-41
171	0x800089ad	-4.9389e-41
172	0x00008a2e	4.957e-41
173	0x0000ab18	6.1377e-41
174	0x800088e6	-4.911e-41
175	0x80008f98	-5.1512e-41
176	0x00009094	5.1865e-41
177	0x000089de	4.9457e-41
178	0x00008c25	5.0274e-41
179	0x0001a01a	1.49269e-40
180	0x000088c7	4.9066e-41
181	0x00008a59	4.963e-41
182	0x800088c5	-4.9064e-41
183	0x80008ae0	-4.9819e-41
184	0x0000a52c	5.9253e-41
185	0x80008915	-4.9176e-41
186	0x00008a10	4.9527e-41
187	0x0000a02b	5.7457e-41
188	0x80008bb2	-5.0113e-41
189	0x8001e498	-1.7384e-40
190	0x80018c74	-1.4222e-40
191	0x800126bc	-1.05731e-40
192	0x0001582f	1.2347e-40
193	0x0000a609	5.9562e-41
194	0x0000a94e	6.0735e-41
195	0x0bc7432f	7.67531e-32
196	0x0002e801	2.66898e-40
197	0x00008bba	5.0124e-41
198	0x8000a37e	-5.865e-41
199	0x0000a910	6.0648e-41
200	0x80008a11	-4.9529e-41
201	0x00008ead	5.1182e-41
202	0x00008a0a	4.9519e-41
203	0x80008a21	-4.9551e-41
204	0x8000933d	-5.2819e-41
205	0x8001a685	-1.51571e-40
206	0x800088c8	-4.9068e-41
207	0x0000361c	1.9411e-41
208	0x80008b73	-5.0025e-41
209	0x800089c5	-4.9422e-41
210	0x000088f1	4.9125e-41
211	0x800088da	-4.9093e-41
212	0x800089d8	-4.9449e-41
213	0x00008912	4.9172e-41
214	0x0004ae6f	4.29917e-40
215	0x00008c9f	5.0445e-41
216	0x0000a412	5.8857e-41
217	0x00009731	5.4237e-41
218	0x80009f16	-5.7069e-41
219	0x8000a222	-5.8162e-41
220	0x0000895e	4.9278e-41
221	0x00008d2c	5.0643e-41
222	0x00008a69	4.9652e-41
223	0x00008b15	4.9893e-41
224	0x000089d1	4.9439e-41
225	0x8000a8e6	-6.059e-41
226	0x000088db	4.9094e-41
227	0x0000a8b2	6.0516e-41
228	0x0000a004	5.7403e-41
229	0x00009fe8	5.7364e-41
230	0x80008a0a	-4.9519e-41
231	0x0001ab8e	1.53378e-40
232	0x8000adda	-6.2366e-41
233	0x80008afd	-4.986e-41
234	0x80008915	-4.9176e-41
235	0x80008964	-4.9286e-41
236	0x00008dc3	5.0855e-41
237	0x000090d2	5.1952e-41
238	0x00008a28	4.9561e-41
239	0x0001250e	1.05128e-40
240	0x8000899f	-4.9369e-41
241	0x000088e5	4.9109e-41
242	0x80002627	-1.3686e-41
243	0x80009c58	-5.6086e-41
244	0x800088c7	-4.9066e-41
245	0x8000ae18	-6.2453e-41
246	0x9f81996a	-5.488743e-20
247	0x80008786	-4.8617e-41
248	0x00018504	1.39553e-40
249	0x000088cc	4.9073e-41
250	0x800169f8	-1.2985e-40
251	0x000088be	4.9054e-41
252	0x800088dd	-4.9097e-41
253	0x0000a1b6	5.8011e-41
254	0x000088d3	4.9083e-41
255	0x8000898d	-4.9344e-41

v2.0.bias f4 [256]
0	0x80007f41	-4.565e-41
1	0x9ec881a1	-2.1229437e-20
2	0xaaa6473a	-2.9536947e-13
3	0x39e9f950	0.00044626975
4	0xa81d40c6	-8.729296e-15
5	0x80008bde	-5.0175e-41
6	0x9d79bc5d	-3.3052257e-21
7	0x800089af	-4.9392e-41
8	0x80008a5d	-4.9635e-41
9	0x80008ff9	-5.1648e-41
10	0x2b00fabc	4.58227e-13
11	0xab07c7a8	-4.8238713e-13
12	0x9f0c4298	-2.9701238e-20
13	0x80009b88	-5.5794e-41
14	0x8e6f5193	-2.9498301e-30
15	0xb914bc1a	-0.00014184453
16	0xb6c4e01e	-5.867346e-06
17	0x80008ab5	-4.9759e-41
18	0x80008944	-4.9242e-41
19	0x80008b1b	-4.9902e-41
20	0xb68ddc2b	-4.2277584e-06
21	0x80008b0f	-4.9885e-41
22	0xbb2f91ca	-0.0026789778
23	0x800088ec	-4.9118e-41
24	0xafd42290	-3.8587133e-10
25	0xb30e8741	-3.3184964e-08
26	0x800089af	-4.9392e-41
27	0x96db3fc9	-3.5421612e-25
28	0xb7de63b8	-2.6510897e-05
29	0x80009039	-5.1737e-41
30	0x80008e81	-5.1121e-41
31	0x80008a54	-4.9623e-41
32	0x80008e53	-5.1056e-41
33	0x800089a9	-4.9383e-41
34	0x80008a12	-4.953e-41
35	0x2fb5a61d	3.304174e-10
36	0xb924f488	-0.00015731354
37	0xae31702d	-4.0344773e-11
38	0x80008b32	-4.9934e-41
39	0xa4a747fd	-7.254666e-17
40	0x8000a801	-6.0268e-41
41	0x800088bd	-4.9052e-41
42	0x80008c19	-5.0258e-41
43	0x80008c13	-5.0249e-41
44	0xa7bad79a	-5.1859126e-15
45	0xbb061fda	-0.0020465762
46	0xbc48ccae	-0.012255831
47	0x2f64bab8	2.0802815e-10
48	0xbb540fe8	-0.0032358114
49	0x38446a90	4.6829286e-05
50	0x80007696	-4.254e-41
51	0x80008b7c	-5.0038e-41
52	0x80008a54	-4.9623e-41
53	0x9e3434ab	-9.540012e-21
54	0x800089c5	-4.9422e-41
55	0xb90331b2	-0.00012511646
56	0xb08dedda	-1.0326702e-09
57	0x8000902e	-5.1722e-41
58	0xb74b52ab	-1.21189905e-05
59	0x0000890d	4.9165e-41
60	0x00008927	4.9201e-41
61	0x80008b09	-4.9876e-41
62	0xb5398df5	-6.9124445e-07
63	0x80009215	-5.2404e-41
64	0x800089da	-4.9452e-41
65	0x80008cc2	-5.0494e-41
66	0x800088d8	-4.909e-41
67	0xac553fce	-3.030454e-12
68	0x8000a97e	-6.0802e-41
69	0x9b00d359	-1.0656202e-22
70	0x2fe40f98	4.1484038e-10
71	0x80009239	-5.2455e-41
72	0x80009001	-5.1659e-41
73	0x80008dbd	-5.0846e-41
74	0xb382e6c1	-6.0955706e-08
75	0x800088ca	-4.907e-41
76	0x3b4aea25	0.0030962315
77	0x8000891c	-4.9186e-41
78	0xbb1cc3bd	-0.002392038
79	0x80008db3	-5.0832e-41
80	0x80008994	-4.9354e-41
81	0xac7abf2b	-3.5633256e-12
82	0xa9b54952	-8.050734e-14
83	0x80008c1b	-5.026e-41
84	0xb40c5983	-1.307108e-07
85	0xa97e9cae	-5.6535228e-14
86	0x80008b8d	-5.0061e-41
87	0x80008a59	-4.963e-41
88	0xb9adec73	-0.000331733
89	0x9c04ab88	-4.3896835e-22
90	0x80008a84	-4.969e-41
91	0x80008bc7	-5.0143e-41
92	0x80009c2b	-5.6023e-41
93	0x33886f00	6.353184e-08
94	0x00008992	4.9351e-41
95	0xb121bebe	-2.3537008e-09
96	0x000000e4	3.2e-43
97	0x00008a14	4.9533e-41
98	0x9c3226a0	-5.894518e-22
99	0x80008e8c	-5.1136e-41
100	0xabe74954	-1.643389e-12
101	0x80008a9e	-4.9726e-41
102	0xa584ab82	-2.3014568e-16
103	0x80008fa1	-5.1524e-41
104	0x80008a5a	-4.9631e-41
105	0x80008a93	-4.9711e-41
106	0xa64eb11d	-7.171064e-16
107	0x80008afa	-4.9855e-41
108	0x3b917847	0.004439387
109	0x80008ba2	-5.0091e-41
110	0x80008a64	-4.9645e-41
111	0x80009097	-5.1869e-41
112	0x80009a68	-5.539e-41
113	0xad6c68b9	-1.34383e-11
114	0xb9c122d6	-0.00036837783
115	0x35643fd4	8.50295e-07
116	0x9a078db1	-2.8031803e-23
117	0xa366a751	-1.2503756e-17
118	0x80008a4f	-4.9616e-41
119	0xa0513b65	-1.772264e-19
120	0x394d3413	0.00019569723
121	0x80008b90	-5.0066e-41
122	0x80008a5f	-4.9638e-41
123	0xb2403edf	-1.1190166e-08
124	0x8000897d	-4.9322e-41
125	0xaad6859b	-3.8106744e-13
126	0x80008dc3	-5.0855e-41
127	0xab57f6e8	-7.6725995e-13
128	0xa0574da9	-1.8236904e-19
129	0xb59331db	-1.0966863e-06
130	0x80008d6f	-5.0737e-41
131	0x00008c2b	5.0283e-41
132	0x80008bfe	-5.022e-41
133	0x800090d0	-5.1949e-41
134	0x8000924b	-5.248e-41
135	0x00008cd6	5.0522e-41
136	0x800092fb	-5.2727e-41
137	0xa70db1f4	-1.966415e-15
138	0x80008b00	-4.9864e-41
139	0x80009117	-5.2048e-41
140	0xab8f56f9	-1.0184901e-12
141	0x80008a78	-4.9673e-41
142	0x80008abd	-4.977e-41
143	0xb4a3fc76	-3.0544805e-07
144	0x80008e22	-5.0988e-41
145	0xb5864af3	-1.0005591e-06
146	0xbbb122a2	-0.00540574
147	0xa6552442	-7.394836e-16
148	0xbb3d2848	-0.002886312
149	0x80008eb2	-5.119e-41
150	0xb9e81509	-0.0004426616
151	0x33c5518e	9.188362e-08
152	0x80008dae	-5.0825e-41
153	0xb953c585	-0.0002019611
154	0x3a6caf37	0.00090287946
155	0x80008b31	-4.9932e-41
156	0x8000906e	-5.1812e-41
157	0x80008a26	-4.9558e-41
158	0x80008f62	-5.1436e-41
159	0x8da67b5c	-1.0260238e-30
160	0x80008aa4	-4.9735e-41
161	0x3a505b57	0.0007948181
162	0x80008955	-4.9265e-41
163	0x80009374	-5.2896e-41
164	0x80008c2c	-5.0284e-41
165	0xba993bfd	-0.0011690852
166	0xb1b719bc	-5.3289266e-09
167	0x1239347a	5.844039e-28
168	0xb464e92d	-2.1318984e-07
169	0x8000894c	-4.9253e-41
170	0xb4b7eb2a	-3.425751e-07
171	0x31852cf3	3.8759196e-09
172	0x80008905	-4.9153e-41
173	0x800089e3	-4.9464e-41
174	0x80008ffc	-5.1652e-41
175	0x800088ff	-4.9145e-41
176	0xbb89dfd0	-0.0042075887
177	0x9485ca5d	-1.3509386e-26
178	0x80008993	-4.9352e-41
179	0xa9933349	-6.537008e-14
180	0xb2d203a3	-2.4448871e-08
181	0x8000a7fe	-6.0264e-41
182	0x8000890a	-4.916e-41
183	0xa8462f44	-1.1001457e-14
184	0x80008cb8	-5.048e-41
185	0x80008d38	-5.066e-41
186	0xb6193eab	-2.2835254e-06
187	0x800089e0	-4.946e-41
188	0x80008f3f	-5.1387e-41
189	0xab3e2398	-6.7550956e-13
190	0x80008bca	-5.0147e-41
191	0x800088fc	-4.9141e-41
192	0x00009042	5.175e-41
193	0xb4a21c09	-3.019525e-07
194	0x80008f6b	-5.1449e-41
195	0xbb746b68	-0.0037295464
196	0xb5719120	-8.999068e-07
197	0x80008923	-4.9195e-41
198	0xbbc4028f	-0.0059817503
199	0x80008bda	-5.0169e-41
200	0xa1ca6c5e	-1.3716737e-18
201	0x800088cb	-4.9072e-41
202	0xb51546cf	-5.5609866e-07
203	0x80008a55	-4.9624e-41
204	0xb4a9863c	-3.157637e-07
205	0x80008ad6	-4.9805e-41
206	0xb8d341f4	-0.00010073549
207	0x3bed6d33	0.0072456836
208	0xb8755f0a	-5.8501064e-05
209	0x80008c69	-5.037e-41
210	0x80008a34	-4.9578e-41
211	0x80008dd2	-5.0876e-41
212	0xa7275053	-2.321945e-15
213	0x80008945	-4.9243e-41
214	0x00008950	4.9258e-41
215	0x80008ea2	-5.1167e-41
216	0x87e157e5	-3.3905897e-34
217	0x23b3190f	1.9417832e-17
218	0x80008f57	-5.142e-41
219	0x80008d4e	-5.069e-41
220	0x000089f2	4.9485e-41
221	0x80008d9d	-5.0801e-41
222	0x80008ec9	-5.1222e-41
223	0x80008d2b	-5.0642e-41
224	0x80008d06	-5.059e-41
225	0x80008b55	-4.9983e-41
226	0xbb252cf6	-0.00252038
227	0xa7a97f75	-4.704511e-15
228	0x800089c8	-4.9427e-41
229	0xa9b895f0	-8.1972515e-14
230	0xa8d6f1ef	-2.3863695e-14
231	0xb7c6cfc1	-2.3700182e-05
232	0x8000897f	-4.9324e-41
233	0x800089fc	-4.95e-41
234	0x800089aa	-4.9385e-41
235	0x8000accc	-6.1988e-41
236	0x80008c58	-5.0346e-41
237	0x800088e3	-4.9106e-41
238	0x80008e85	-5.1126e-41
239	0x80008e53	-5.1056e-41
240	0xa3d6460c	-2.3231592e-17
241	0x80008ded	-5.0913e-41
242	0x80008a10	-4.9527e-41
243	0x80008964	-4.9286e-41
244	0x80008f6f	-5.1454e-41
245	0xb82e107a	-4.1500178e-05
246	0xa50ab471	-1.2030728e-16
247	0xb966bd66	-0.00022005066
248	0x80008927	-4.9201e-41
249	0xb200b4b2	-7.491666e-09
250	0x800090d9	-5.1962e-41
251	0x9b0052cf	-1.0614669e-22
252	0x80009a01	-5.5246e-41
253	0x80008f86	-5.1487e-41
254	0x80008973	-4.9307e-41
255	0xb53e8bc0	-7.098388e-07

v2.2.weight f4 [1, 256]
0	0x00008e81	5.1121e-41
1	0xa02e8f4b	-1.4785785e-19
2	0x2920ef47	3.5734677e-14
3	0x3bda02f3	0.0066531836
4	0xa7ee7929	-6.618963e-15
5	0x00008913	4.9173e-41
6	0xa1062bab	-4.545876e-19
7	0x00008a4c	4.9612e-41
8	0x00008a62	4.9642e-41
9	0x0000896d	4.9299e-41
10	0x2cc1f7ab	5.5128866e-12
11	0x2adfa326	3.9725964e-13
12	0x1edb08f4	2.319123e-20
13	0x00008a33	4.9577e-41
14	0x8e809450	-3.1697256e-30
15	0x3b3d8f82	0.0028924649
16	0xb6c7b304	-5.9515023e-06
17	0x000089d2	4.944e-41
18	0x80008994	-4.9354e-41
19	0x80008a1f	-4.9549e-41
20	0xb765904f	-1.3683063e-05
21	0x80008c83	-5.0406e-41
22	0xbb24b0e2	-0.0025129844
23	0x00008949	4.9249e-41
24	0x31825fb4	3.794378e-09
25	0xb203db56	-7.675075e-09
26	0x00000129	4.16e-43
27	0x9696eea2	-2.4384405e-25
28	0xb83571a4	-4.32596e-05
29	0x80008908	-4.9158e-41
30	0x00008a50	4.9617e-41
31	0x80008bf5	-5.0207e-41
32	0x80008a2d	-4.9568e-41
33	0x8000a621	-5.9596e-41
34	0x80008a49	-4.9607e-41
35	0x2f971867	2.748408e-10
36	0xb95e32a7	-0.0002119044
37	0xad1310b6	-8.359693e-12
38	0x0000896f	4.9302e-41
39	0xa2e8683f	-6.29941e-18
40	0x80008aea	-4.9833e-41
41	0x80008b09	-4.9876e-41
42	0x80008a1d	-4.9546e-41
43	0x00008a04	4.951e-41
44	0xa88a655d	-1.5365037e-14
45	0xb9e345e9	-0.000433489
46	0x3c85f4ec	0.01635214
47	0x3183d518	3.8368277e-09
48	0x3bca28a6	0.0061693965
49	0xba2520f5	-0.00062991615
50	0x00007727	4.2744e-41
51	0x00008aba	4.9766e-41
52	0x00008b61	5e-41
53	0x20f5425d	4.154853e-19
54	0x000088dc	4.9096e-41
55	0x39544331	0.00020242926
56	0x310cf1ca	2.0510122e-09
57	0x00008b24	4.9914e-41
58	0x373905a0	1.1028169e-05
59	0x00008a79	4.9675e-41
60	0x800076b0	-4.2577e-41
61	0x80008a76	-4.967e-41
62	0x349f7695	2.9702338e-07
63	0x0000890e	4.9166e-41
64	0x00002057	1.1601e-41
65	0x80008b11	-4.9888e-41
66	0x80002953	-1.4824e-41
67	0xac14acef	-2.1128062e-12
68	0x000089ca	4.943e-41
69	0x1ad07efa	8.6231925e-23
70	0x300087b6	4.6758986e-10
71	0x80008a93	-4.9711e-41
72	0x000088f2	4.9127e-41
73	0x00008a5e	4.9637e-41
74	0xb46eaf85	-2.2229331e-07
75	0x00008a89	4.9697e-41
76	0x3b855f6e	0.004070214
77	0x0000891f	4.919e-41
78	0x3b5d884f	0.003380317
79	0x80008adf	-4.9818e-41
80	0x0000537b	2.9947e-41
81	0x2f1f2b3c	1.4476326e-10
82	0x2b4477e4	6.979957e-13
83	0x80008991	-4.935e-41
84	0x33fe85cd	1.1852135e-07
85	0xa9a98196	-7.527587e-14
86	0x80008924	-4.9197e-41
87	0x80008a3a	-4.9586e-41
88	0xb9381084	-0.0001755376
89	0x9c1556a3	-4.941194e-22
90	0x00008904	4.9152e-41
91	0x80008ae5	-4.9826e-41
92	0x800089e4	-4.9466e-41
93	0x34ae8ab8	3.2510957e-07
94	0x00008d7f	5.0759e-41
95	0xb1da1b40	-6.347733e-09
96	0x000089e8	4.9471e-41
97	0x80008b8a	-5.0057e-41
98	0x1b7a222b	2.0690556e-22
99	0x80008999	-4.9361e-41
100	0x2cc971d5	5.7254015e-12
101	0x00008bb7	5.012e-41
102	0x259c32b8	2.7096055e-16
103	0x000089b9	4.9406e-41
104	0x80002c39	-1.5864e-41
105	0x000088d7	4.9089e-41
106	0x2591a7eb	2.5267276e-16
107	0x000088ba	4.9048e-41
108	0x3b5555b2	0.00325523
109	0x800089e6	-4.9469e-41
110	0x80008a04	-4.951e-41
111	0x80008931	-4.9215e-41
112	0x00008a9a	4.9721e-41
113	0x2d34aca6	1.0270151e-11
114	0x3a951edb	0.0011376993
115	0x356ec0c5	8.8942426e-07
116	0x19f5cfcd	2.5416336e-23
117	0xa3e9bf75	-2.5342996e-17
118	0x80008afb	-4.9857e-41
119	0xa1acb8b8	-1.1704068e-18
120	0x396429a5	0.00021759288
121	0x00008c01	5.0224e-41
122	0x80008b02	-4.9867e-41
123	0x314e4134	3.001401e-09
124	0x80008a2a	-4.9564e-41
125	0xaa0e11c8	-1.2618303e-13
126	0x000089b1	4.9394e-41
127	0x2c73e1e1	3.4657765e-12
128	0xa0e777af	-3.9212122e-19
129	0x36563ff7	3.1925717e-06
130	0x00008a78	4.9673e-41
131	0x80008a13	-4.9532e-41
132	0x80008bdf	-5.0176e-41
133	0x8000ae4c	-6.2526e-41
134	0x8000ac50	-6.1814e-41
135	0x00008a56	4.9626e-41
136	0x80008a2f	-4.9571e-41
137	0xa83c454d	-1.0451124e-14
138	0x000088d4	4.9085e-41
139	0x00008db6	5.0836e-41
140	0x2b7b8d58	8.9369267e-13
141	0x00008c14	5.025e-41
142	0x000088e5	4.9109e-41
143	0xb43eb946	-1.7762531e-07
144	0x00008a27	4.956e-41
145	0x3581f7f9	9.683419e-07
146	0x3c513aa5	0.01277033
147	0xa54fc18d	-1.8019966e-16
148	0x3c6156ae	0.013753576
149	0x000089aa	4.9385e-41
150	0x3a8e0f51	0.0010838305
151	0x33d85077	1.007292e-07
152	0x80008aa5	-4.9736e-41
153	0x37173381	9.012293e-06
154	0x3a88e069	0.0010442856
155	0x0000899d	4.9366e-41
156	0x800088f9	-4.9137e-41
157	0x000089a5	4.9378e-41
158	0x80008d2d	-5.0644e-41
159	0x0c3d4288	1.4580051e-31
160	0x80008a12	-4.953e-41
161	0x39d7197d	0.00041026986
162	0x000089be	4.9413e-41
163	0x00008a90	4.9707e-41
164	0x80008967	-4.929e-41
165	0x399acddf	0.00029526555
166	0xb242b971	-1.1334451e-08
167	0x1280ae42	8.120894e-28
168	0xb389174a	-6.383796e-08
169	0x8000727b	-4.1068e-41
170	0x3625023e	2.458822e-06
171	0x34898487	2.5614665e-07
172	0x000089fb	4.9498e-41
173	0x00006963	3.7806e-41
174	0x80008aa4	-4.9735e-41
175	0x00008a9a	4.9721e-41
176	0xbb8985a1	-0.004196838
177	0x145c1a05	1.1112293e-26
178	0x00008a11	4.9529e-41
179	0xa9938ac5	-6.552184e-14
180	0xb2f1d225	-2.8151655e-08
181	0x8000921d	-5.2416e-41
182	0x800088f6	-4.9132e-41
183	0xa85e09b1	-1.2325577e-14
184	0x80008944	-4.9242e-41
185	0x80008a59	-4.963e-41
186	0xb656d525	-3.2012551e-06
187	0x800089a9	-4.9383e-41
188	0x000089c1	4.9417e-41
189	0x2aa56419	2.9379345e-13
190	0x00008bdb	5.017e-41
191	0x000089f4	4.9488e-41
192	0x80008950	-4.9258e-41
193	0xb594c143	-1.1083106e-06
194	0x00008a8e	4.9704e-41
195	0x3b545a4a	0.003240245
196	0x36cec326	6.1619967e-06
197	0x00008b89	5.0056e-41
198	0x3c1b4a6f	0.009478196
199	0x00008a88	4.9696e-41
200	0xa141aa65	-6.561646e-19
201	0x00008b1a	4.99e-41
202	0xb652ca4d	-3.1410193e-06
203	0x00008914	4.9174e-41
204	0x34d75713	4.0110226e-07
205	0x80008b61	-5e-41
206	0xb8b1ab06	-8.471873e-05
207	0x3e1601ec	0.1464917
208	0xba302184	-0.00067188614
209	0x800089d6	-4.9446e-41
210	0x00008aec	4.9836e-41
211	0x000089bc	4.941e-41
212	0xa709d333	-1.912706e-15
213	0x80003c0a	-2.1538e-41
214	0x00008dae	5.0825e-41
215	0x80008a38	-4.9584e-41
216	0x863e7785	-3.5822837e-35
217	0xa45ec2fe	-4.830374e-17
218	0x800089d0	-4.9438e-41
219	0x00008c81	5.0403e-41
220	0x00008921	4.9193e-41
221	0x00008a1b	4.9543e-41
222	0x00008a72	4.9665e-41
223	0x00008b9a	5.008e-41
224	0x800089dd	-4.9456e-41
225	0x00008955	4.9265e-41
226	0x3b136188	0.0022488553
227	0xa69be77f	-1.0818033e-15
228	0x80008e1b	-5.0978e-41
229	0x2929e7e7	3.772668e-14
230	0x29a15c26	7.1658215e-14
231	0x37314d14	1.0567968e-05
232	0x80008910	-4.9169e-41
233	0x800089db	-4.9453e-41
234	0x00008b59	4.9989e-41
235	0x80008d45	-5.0678e-41
236	0x000089d1	4.9439e-41
237	0x80009016	-5.1688e-41
238	0x00008a93	4.9711e-41
239	0x00008ad5	4.9804e-41
240	0x240c0b6a	3.036733e-17
241	0x00008b02	4.9867e-41
242	0x00008978	4.9314e-41
243	0x000089f4	4.9488e-41
244	0x8000899b	-4.9364e-41
245	0x391aa19b	0.00014746787
246	0xa31ffc69	-8.672857e-18
247	0xba8d3a69	-0.0010774854
248	0x00008c2a	5.0281e-41
249	0x336d5900	5.5261808e-08
250	0x80008952	-4.9261e-41
251	0x9b3c56e0	-1.5579066e-22
252	0x00008f84	5.1484e-41
253	0x80008a62	-4.9642e-41
254	0x00008d9d	5.0801e-41
255	0x3583cf04	9.82051e-07
