ddpg_critic_model_weights.pth (torch, 88956 bytes, 5 tensors)

v.0.weight f4 [128, 37]
0	0xbd841b2e	-0.064504966
1	0x3eab39eb	0.33442625
2	0xbe72c393	-0.23707418
3	0xbe932efe	-0.2874679
4	0x3f08810c	0.5332191
5	0x3f820465	1.0157591
6	0xbde092f5	-0.1096553
7	0x3d8bab91	0.06819833
8	0xbd899dce	-0.06719552
9	0x3e9ea521	0.30985358
10	0x3d1629b1	0.036660854
11	0x3e4039ed	0.18772097
12	0xbcf01442	-0.029306535
13	0x3e90f0b9	0.28308657
14	0xbd77e2ee	-0.06051915
15	0xbe0ff658	-0.14058816
16	0x3bb76d15	0.0055977204
17	0x3c32f4e1	0.0109226415
18	0x3e102cdd	0.14079614
19	0x3dd9af5b	0.106291495
20	0xbdc2b0ff	-0.095064156
21	0x3cdb61b3	0.026779985
22	0xbe1b5202	-0.15168002
23	0x3e3ec7a6	0.18630847
24	0xbc6cb4d9	-0.014447414
25	0xbdddb5b6	-0.10825674
26	0x3cb96f2c	0.022636019
27	0x3f644426	0.89166486
28	0x3e720fe1	0.2363887
29	0x3e58207a	0.21106139
30	0xbf830724	-1.0236554
31	0xbe4a5a59	-0.19761027
32	0xc003b4a6	-2.057901
33	0x3bbe8f86	0.005815449
34	0xbd60ec44	-0.05491282
35	0x3d1927f6	0.037391625
36	0x3dc2694a	0.094927385
37	0x3e896f18	0.2684257
38	0x3ee390e2	0.44446474
39	0x3da2700f	0.0793153
40	0xbe0df069	-0.1386124
41	0xbe8b1c16	-0.27169865
42	0x3eeb6a3b	0.45979485
43	0x3d9eb6e0	0.077497244
44	0xbc14b851	-0.009077148
45	0xbe100ac2	-0.14066604
46	0x3cc38db0	0.023871273
47	0x3cfaac69	0.03059979
48	0x3d97d370	0.074133754
49	0x3e546630	0.20742106
50	0xbea466be	-0.32109636
51	0x3b7b8c32	0.0038383123
52	0xbed7e3d0	-0.42165995
53	0x3d1489a0	0.036264062
54	0xbd8fdf4a	-0.07025011
55	0xbe00ec6e	-0.12590191
56	0xbe093a66	-0.13401183
57	0xbd166911	-0.036721293
58	0xbe3ebd16	-0.18626818
59	0xbdf94e7b	-0.12173172
60	0xbe9ab69f	-0.30217454
61	0xbd3135ad	-0.04326408
62	0xbe84ed6f	-0.25962397
63	0xbc54cd29	-0.012988367
64	0x3f324722	0.6963979
65	0x3eb4bb6a	0.35299236
66	0x3db04907	0.08607679
67	0xbf4fa97a	-0.81117976
68	0x3a8797b0	0.0010344889
69	0x3fa28e64	1.2699704
70	0x3dc645df	0.096812956
71	0x3d9df3e0	0.07712531
72	0xbdbf64f6	-0.09345429
73	0xbe3a2d78	-0.18181407
74	0xbcb8a46f	-0.022539346
75	0xbddf2215	-0.108951725
76	0xbda67fd1	-0.08129848
77	0xbed3b4e2	-0.4134894
78	0xbe738e21	-0.23784687
79	0xbc982ffa	-0.018577565
80	0x3f35f9f2	0.7108451
81	0xbc228306	-0.009918934
82	0x3cd3ac06	0.025838863
83	0x3e25772a	0.16158739
84	0xbcad6b8a	-0.021169443
85	0x3c9df02f	0.019279568
86	0x3ca86e0e	0.02056029
87	0xbc4fd544	-0.012685124
88	0x3d8810fc	0.066438645
89	0x3bc026d8	0.0058640055
90	0x3ec1a73d	0.37822905
91	0xbc5d9339	-0.01352387
92	0x3dff95ec	0.12479767
93	0xbd961388	-0.07327944
94	0x3d6a56cb	0.05721168
95	0xbd8416e1	-0.06449676
96	0xbc4109d0	-0.011782125
97	0xbcf339f1	-0.029690715
98	0x3c726848	0.01479537
99	0x3d3b8289	0.045778785
100	0xbe2506a6	-0.16115817
101	0x3c9eb9f0	0.019375771
102	0xbcbc8351	-0.023011835
103	0x3ce381ee	0.027771916
104	0xbe947e0d	-0.2900242
105	0x3e8bde1b	0.2731789
106	0xc0566332	-3.3498044
107	0xbcc3effb	-0.023918143
108	0x3c08b0c0	0.008342922
109	0x3de136ee	0.10996805
110	0x3cacbea6	0.021087002
111	0xbcb44f6f	-0.022010533
112	0x3d4d3c37	0.050106253
113	0xbe9491d0	-0.29017496
114	0xbe822029	-0.2541516
115	0x3dc9a4dd	0.09845898
116	0x3e4344d3	0.19069223
117	0x3e870b4f	0.26375815
118	0xbdc5611e	-0.09637664
119	0x3e56eea1	0.20989467
120	0x3a57f225	0.00082376815
121	0x3d3396f4	0.043845132
122	0x3dbe2abd	0.092854954
123	0xbd97f651	-0.07420028
124	0x3e1dd955	0.15414937
125	0xbe09038c	-0.1338026
126	0x3f0afccd	0.54291993
127	0x3eb26c95	0.34848467
128	0x3eb38d74	0.35068858
129	0xbc1c84bf	-0.0095531335
130	0x3c83ea29	0.016102867
131	0xbd015b19	-0.031581018
132	0xbe54febe	-0.20800301
133	0xbd37f36f	-0.04490989
134	0x3df52d38	0.119715154
135	0xbe037ae3	-0.12839846
136	0x3d4a92dc	0.049456462
137	0xbe2e210a	-0.17004791
138	0x3f9195df	1.1373862
139	0xbe5b4d74	-0.21416265
140	0xbd46f909	-0.048577342
141	0xbf87edd9	-1.061946
142	0xbdfd3039	-0.12362713
143	0x3e607672	0.21920183
144	0x3e6254cc	0.2210266
145	0xbddfbff1	-0.10925282
146	0x3f07605d	0.52881414
147	0xbf261ae4	-0.6488478
148	0xbda7f390	-0.08200753
149	0x3dac3f5c	0.08410522
150	0xbc6b6ac7	-0.014368719
151	0x3a9bf73c	0.0011899243
152	0xbe8e8b93	-0.27840862
153	0xbf2f4f9e	-0.6848086
154	0x3dc3f3af	0.09567963
155	0xbc24a457	-0.010048947
156	0xbdfd24e8	-0.12360555
157	0x3de6309c	0.1123974
158	0xbcc9b76c	-0.024623595
159	0x3bc61c08	0.006045822
160	0xbd0ca5b3	-0.03433771
161	0xbd740658	-0.059576362
162	0xbd0078d1	-0.03136522
163	0xbcb7c113	-0.022430932
164	0x3d4e1d0a	0.050320663
165	0x3d940cdc	0.07229015
166	0xbd259f20	-0.040434957
167	0xbd69e353	-0.05710156
168	0xbd806ca0	-0.062707186
169	0x3c7a70da	0.015285695
170	0xbd846b22	-0.064657465
171	0xbd81a3bd	-0.06330059
172	0x3cca5524	0.024698801
173	0x3ceb6474	0.028734423
174	0xbd84bfae	-0.064818725
175	0xbdbe591a	-0.092943385
176	0x3d5ab7ca	0.05339793
177	0xbd6d83f0	-0.057987154
178	0xbd125a29	-0.035730515
179	0x3d5f48ad	0.05451267
180	0x402c9502	2.6965947
181	0xbd58e81d	-0.052955735
182	0xbd9e04fe	-0.07715796
183	0x3c245824	0.01003078
184	0xbd0b6c9a	-0.034039117
185	0xbf3447dd	-0.70422155
186	0x3f125fa7	0.57177204
187	0x3ee6a036	0.45044106
188	0xbe29ffaa	-0.16601434
189	0xbedb3258	-0.42811847
190	0xbe4d2bb5	-0.20036204
191	0x3ec698d4	0.38788474
192	0xbc2cb60c	-0.01054145
193	0xbeadbcce	-0.3393311
194	0x3e192532	0.14955595
195	0xbdb61769	-0.08891184
196	0x3bfb25d5	0.007664422
197	0x3cc5a78f	0.02412775
198	0x3e8773bc	0.26455486
199	0xbd97bb29	-0.07408745
200	0xbe7b8f1a	-0.24566308
201	0xbeceb169	-0.40369728
202	0xbe0349a3	-0.12821059
203	0x3dc239ac	0.09483656
204	0xbdb454df	-0.088052504
205	0x3c6bc9de	0.014391391
206	0x3ca163cd	0.019700909
207	0xbdfb8902	-0.122819915
208	0xbd0e93d4	-0.03480895
209	0xbd78bb70	-0.06072563
210	0xbd71d3e1	-0.059039954
211	0xbc8b6ab4	-0.017018653
212	0x3ef90126	0.4863369
213	0xbe0582ac	-0.13038129
214	0x3e87bf22	0.2651301
215	0xbe0677c1	-0.1313162
216	0x3d99331b	0.07480451
217	0xbef89519	-0.48551252
218	0x3cba06e5	0.022708366
219	0xbd2a2030	-0.041534603
220	0xbdb2912e	-0.08719097
221	0xbdd3ecc5	-0.103478946
222	0x3efba71a	0.49150926
223	0xbd8d33a4	-0.06894615
224	0xbe8e8078	-0.2783239
225	0x3b65659b	0.0035003189
226	0xbe8537bf	-0.26019093
227	0x3e3885c9	0.18019785
228	0x3d5cca36	0.05390378
229	0xbd91726a	-0.07101901
230	0x3d43b9eb	0.047784727
231	0xbd7e3e00	-0.062070847
232	0x3c933f3b	0.017974487
233	0xbc9fb17a	-0.019493807
234	0xbcbfa683	-0.023394829
235	0xbf2650b4	-0.64966893
236	0x3de3ad05	0.11116985
237	0x3e9e6be0	0.30941677
238	0x3d85d2b2	0.065343276
239	0x3e45a0ef	0.19299673
240	0xbe78e27a	-0.24305144
241	0xbdbf8f92	-0.09353556
242	0x3cb6dd32	0.022322271
243	0x3c61e652	0.013787823
244	0x3c8ba8eb	0.01704832
245	0xbdb4af71	-0.08822525
246	0x3d403def	0.046934064
247	0x3d785906	0.060631774
248	0x3f02fa44	0.51163125
249	0x3f204500	0.62605286
250	0xbd92669f	-0.0714848
251	0x3dc0c2d1	0.09412158
252	0xbf1ab3c4	-0.6043055
253	0x3ddf6a7b	0.109089814
254	0x3f84f821	1.0388223
255	0xbad49c55	-0.0016220907

v.0.bias f4 [128]
0	0xbf727eeb	-0.9472491
1	0xbf37b0a7	-0.71753925
2	0xbedd43cc	-0.43215787
3	0xbf897b00	-1.0740662
4	0x3bf524b5	0.0074811825
5	0xbe95deff	-0.29271695
6	0xbef1b9cb	-0.4721206
7	0xbf1a346f	-0.6023626
8	0xbd6c991f	-0.057763215
9	0x3db23bcf	0.08702814
10	0xbf9aa75d	-1.2082325
11	0xbfb4cb09	-1.4124461
12	0xbf8a5ec1	-1.0810167
13	0xbf9daefc	-1.2319026
14	0xbf0e3d29	-0.55562073
15	0xbf9b77f6	-1.2145984
16	0xbf1c7a75	-0.61124355
17	0xbf615bec	-0.88030887
18	0xbf35f1f2	-0.71072304
19	0xbf50fd6b	-0.81636685
20	0xbf9db29c	-1.2320132
21	0xbf0861fc	-0.5327451
22	0xbec5773e	-0.38567537
23	0xbf83a4db	-1.0284685
24	0xbf98d6cc	-1.1940551
25	0x3e834516	0.25638646
26	0xbf2538fe	-0.6454009
27	0x3d66c3f5	0.056339223
28	0xbf97bb28	-1.185399
29	0xbfae3a21	-1.361149
30	0xbfb0268a	-1.3761761
31	0xbf1e0b8d	-0.61736375
32	0xbf8adb55	-1.0848185
33	0x3ead00fe	0.3378982
34	0xbef471df	-0.47743127
35	0xbf211409	-0.62921196
36	0xbf71e959	-0.94496685
37	0xbec282e3	-0.37990484
38	0xbf19b214	-0.6003735
39	0xbdc09255	-0.094029106
40	0xbf230e6b	-0.63693875
41	0xbe746f02	-0.23870471
42	0xbe91b10a	-0.28455383
43	0xbf916554	-1.1359048
44	0xbed50e48	-0.41612458
45	0x3ecbb2af	0.39784762
46	0xbf629062	-0.8850156
47	0xbf81e1cd	-1.0147034
48	0xbfacf39d	-1.3511845
49	0xbd16d7f1	-0.03682703
50	0x3e3d5611	0.18489863
51	0xbe3cf054	-0.18451053
52	0xbf88fe01	-1.0702516
53	0xbf3db835	-0.741092
54	0xbf8d3138	-1.1030645
55	0xbf827cd6	-1.0194347
56	0xbf65ed14	-0.8981488
57	0xbf66afad	-0.9011181
58	0xbf9318a4	-1.1491895
59	0xbf380245	-0.71878463
60	0xbf55d121	-0.8352223
61	0x3dae0b8f	0.084982984
62	0xbf548520	-0.8301563
63	0xbf94fcff	-1.1639708
64	0xbe90bb4a	-0.2826789
65	0x3f46ff19	0.77733
66	0xbe98ce7f	-0.29845044
67	0xbf2cb1fc	-0.6745908
68	0xbeedb753	-0.46428928
69	0xbedc8cfd	-0.43076316
70	0xbd8b11bd	-0.06790493
71	0xbf3697bc	-0.7132528
72	0x3f12d571	0.57356936
73	0xbfac05f8	-1.3439322
74	0xbe86d285	-0.2633249
75	0xbf333067	-0.6999573
76	0xbf879e58	-1.0595198
77	0xbf666492	-0.8999721
78	0xbe3fb247	-0.18720351
79	0x3e64e76d	0.22353907
80	0xbc026253	-0.007958013
81	0xbf15ad39	-0.5846744
82	0xbf801e70	-1.0009289
83	0xbf9af1b7	-1.2105016
84	0xbfa84809	-1.3146983
85	0xbea23a10	-0.31684923
86	0xbe9c1d64	-0.30491173
87	0xbecfa74d	-0.40557328
88	0xbf04c087	-0.51856273
89	0xbf786c0f	-0.97039884
90	0xbf150dbe	-0.58224094
91	0xbeebe72d	-0.4607481
92	0xbe17bf80	-0.14819145
93	0xbf7d83f2	-0.9902946
94	0xbe4bfc26	-0.19920406
95	0xbeb08f20	-0.34484196
96	0x3f6c2ced	0.9225605
97	0xbf341b29	-0.70353943
98	0xbef7496f	-0.48298213
99	0xbea56451	-0.32303098
100	0xbfbe8604	-1.4884648
101	0xbf93088f	-1.1486987
102	0xbf25f0f2	-0.6482078
103	0x3f22e014	0.63623166
104	0xbf19d8c6	-0.60096395
105	0xbf8b578f	-1.0886096
106	0xbf6c66a2	-0.92344105
107	0x3e06d0be	0.13165566
108	0xbed5ce8f	-0.41759154
109	0xbf974ed9	-1.1820937
110	0xbf1c45d5	-0.61044055
111	0xbf4e2e7f	-0.805397
112	0xbfa48bfc	-1.285522
113	0xbf862c41	-1.0482255
114	0xbf37dee4	-0.7182448
115	0xbea50de5	-0.32237163
116	0xbf034ee5	-0.5129226
117	0xbf2c0a0b	-0.67202824
118	0xbf8dd026	-1.1079147
119	0xbf2217c3	-0.6331751
120	0x3ef441df	0.47706506
121	0xbeb38305	-0.35060897
122	0xbf73bb8c	-0.9520805
123	0xbfaf5f01	-1.3700868
124	0xbf20a3c9	-0.62749916
125	0x3eae9ca3	0.3410388
126	0xbf88da52	-1.0691626
127	0xbe844b71	-0.25838807

v.2.weight f4 [128, 128]
0	0xbcc170b5	-0.023613313
1	0x3d3cfb70	0.046138227
2	0xbd3d1160	-0.04615915
3	0x3cffd357	0.031228704
4	0xbe3a6e29	-0.18206085
5	0x3e96cc2c	0.29452646
6	0xbe515b5a	-0.20445004
7	0xbcc443c4	-0.023958094
8	0xbf1b7f4c	-0.60741115
9	0x3ea5bc6d	0.3237032
10	0x3eae3e5f	0.3403196
11	0x3ce46909	0.027882116
12	0x3d034d58	0.032056183
13	0xbd380d17	-0.04493436
14	0xbeaa8b8d	-0.33309594
15	0x3c27d1f4	0.010242928
16	0xbf66c866	-0.90149534
17	0xbf40f240	-0.75369644
18	0xbdcc7324	-0.09982899
19	0xbee04288	-0.4380076
20	0xbcd4796d	-0.025936807
21	0xbe6a4299	-0.22876967
22	0xbea133bf	-0.31484792
23	0xbe6529c2	-0.2237921
24	0xbda2e672	-0.0795411
25	0xbe9b3018	-0.3031013
26	0x3db61427	0.088905625
27	0xbdb17603	-0.08665087
28	0x3d047ad5	0.032343704
29	0xbd3a3e43	-0.045469534
30	0x3defed4e	0.11715184
31	0x3d824930	0.06361616
32	0xbd935a75	-0.07194988
33	0xbd359c61	-0.044338588
34	0xbfbcf4d7	-1.4762219
35	0xbd3f1ee0	-0.046660304
36	0xbf60e744	-0.87852883
37	0xbe965141	-0.29358867
38	0xbccb14d9	-0.024790214
39	0xbe13995b	-0.14413969
40	0xbdf1c667	-0.1180542
41	0xbebf0c45	-0.37314048
42	0xbeb58e0d	-0.3545994
43	0xbf0b1e56	-0.54343164
44	0xbf39a879	-0.72522694
45	0xbe790ec6	-0.24322042
46	0xbd854627	-0.06507521
47	0xbe1d2748	-0.15347016
48	0xbe1e0e9f	-0.15435265
49	0xbe93bae8	-0.28853536
50	0xbec90a27	-0.39265558
51	0xbf58cb0b	-0.8468482
52	0xbef9e5c8	-0.48808122
53	0xbf2bfd61	-0.671835
54	0xbd9551e5	-0.07291011
55	0xbe36de83	-0.17858319
56	0xbea82238	-0.32838607
57	0xbebbde45	-0.36693016
58	0xbe7333aa	-0.23750177
59	0x3dc66950	0.096880555
60	0xbdb42233	-0.087955855
61	0xbecd97a2	-0.4015475
62	0xbe316f70	-0.17327666
63	0xbf21cec8	-0.6320615
64	0xbf240bb7	-0.64080375
65	0xbd8af55e	-0.06785081
66	0xbf558904	-0.83412194
67	0xbd7ad9f8	-0.061243027
68	0xbe2bbeea	-0.16772047
69	0x3db42af1	0.08797253
70	0xbf16684c	-0.58752894
71	0xbe1ce435	-0.15321429
72	0x3d997cfe	0.074945435
73	0xbe29842f	-0.1655433
74	0x3e7e651d	0.24843259
75	0x3ed536af	0.41643283
76	0x3daa2eb7	0.083096914
77	0x3db73734	0.08946076
78	0xbd6a86cf	-0.05725747
79	0xbdcc192e	-0.0996574
80	0xbec6f092	-0.38855416
81	0xbe2b0aca	-0.16703334
82	0xbccb9ea3	-0.024855917
83	0x3f097618	0.5369582
84	0xbb30aa8d	-0.0026957125
85	0xbca6c5bc	-0.020357959
86	0xbeb03e41	-0.34422496
87	0x3d0f57f7	0.034996
88	0x3e4bc13c	0.19897932
89	0x3e192912	0.14957073
90	0xbdf04317	-0.11731546
91	0xbef98b67	-0.48739168
92	0xbd9e95c8	-0.07743412
93	0x3e413bc4	0.18870455
94	0xbe44783d	-0.19186492
95	0xbe611768	-0.21981585
96	0xbdc6b4a6	-0.09702425
97	0xbdbf8329	-0.09351189
98	0xbf067d48	-0.52534914
99	0xbdbfd909	-0.09367568
100	0xbf29a0e8	-0.6626115
101	0xbe7806f9	-0.2422141
102	0x3d747b40	0.059687853
103	0x3da30862	0.07960583
104	0x3e19196c	0.14951104
105	0xbe91f41a	-0.28506547
106	0xbeb8b9a8	-0.36079144
107	0x3e189788	0.14901555
108	0x3dc785cf	0.09742319
109	0x3e312326	0.17298564
110	0x3dfdb9c7	0.1238895
111	0xbf2d4120	-0.676775
112	0xbd1670ac	-0.036728546
113	0x3e3dc01e	0.18530318
114	0x3db37499	0.087624736
115	0xbed07399	-0.40713194
116	0xbd09e473	-0.03366513
117	0xbe694b21	-0.22782566
118	0x3e1bfc06	0.15232858
119	0x3e8c75d6	0.27433652
120	0xbdb8ab40	-0.09017038
121	0xbdea8612	-0.11451353
122	0x3e03306a	0.12811437
123	0x3d37abe5	0.044841666
124	0xbeba6df0	-0.36412
125	0xbe19e486	-0.15028581
126	0xbf1d9aff	-0.6156463
127	0xbc6a30d0	-0.014293864
128	0x3eb63e32	0.35594326
129	0xbe934ba3	-0.28768644
130	0xbd2c9cd1	-0.04214174
131	0xbe76dcd1	-0.24107672
132	0xbe59422c	-0.21216649
133	0x3ea74942	0.3267308
134	0x3e115e90	0.14196229
135	0xbf42c2d8	-0.7607856
136	0xbea4d2c1	-0.32192042
137	0x3d026368	0.031833082
138	0xbded27af	-0.11579835
139	0xbd24679a	-0.040137865
140	0xbeb0616b	-0.34449324
141	0x3e44bcfe	0.1921272
142	0xbf3f2a59	-0.7467399
143	0xbe90fa85	-0.2831613
144	0xbd957a28	-0.0729869
145	0x3d393b4e	0.045222573
146	0xbd70cc5f	-0.058788653
147	0xbe165407	-0.14680491
148	0x3ec945ea	0.39311153
149	0xbe940489	-0.2890971
150	0x3e30b9af	0.17258333
151	0x3d292809	0.041297946
152	0x3b67f391	0.003539298
153	0x3e54a1ba	0.20764819
154	0x3da4ae82	0.08041097
155	0xbdb0fe7a	-0.086422876
156	0xbeafb947	-0.34321043
157	0x3e31ac11	0.17350794
158	0xbe847e82	-0.25877768
159	0xbf7074d4	-0.93928266
160	0xbdaf02b5	-0.08545438
161	0xbd285c1b	-0.041103464
162	0xbed39887	-0.41327307
163	0x3d222a7b	0.039591294
164	0xbd9e0de7	-0.077174954
165	0x3f12b485	0.573067
166	0xbf4a3b97	-0.78997177
167	0xbe52182b	-0.20517032
168	0x3da29945	0.0793939
169	0x3eb73bde	0.35787863
170	0x3ebae94e	0.36506122
171	0x3f30fd74	0.6913674
172	0x3f008c3a	0.5021397
173	0x3ed1158d	0.40836754
174	0x3e70515d	0.23468538
175	0xbe21d926	-0.15805492
176	0x3ea79495	0.32730547
177	0x3c0ceece	0.008601857
178	0xbde00d46	-0.10940032
179	0x3e25bc5a	0.16185132
180	0xbed1a680	-0.40947342
181	0x3f413d01	0.7548371
182	0x3effaadc	0.49935043
183	0xbdb6b1e2	-0.08920647
184	0xbe2fe683	-0.17177777
185	0xbe3b766b	-0.18306892
186	0x3da48f61	0.0803516
187	0xc0195371	-2.3957179
188	0x3dd9691e	0.10615753
189	0xbf3621fe	-0.7114562
190	0x3e9ed52b	0.3102201
191	0x3d1d30f2	0.038376756
192	0xbf98219f	-1.188526
193	0xbf36f6fb	-0.7147061
194	0x3f8265f9	1.018737
195	0x3f4a4893	0.7901699
196	0xbe8813f4	-0.26577723
197	0x3d2f0f77	0.042739358
198	0xbefc601a	-0.4929207
199	0xbeafee47	-0.3436148
200	0xbc9bc8c7	-0.019016637
201	0x3e32311d	0.17401548
202	0xbea0b4ba	-0.31387883
203	0xbe1efdcf	-0.15526508
204	0xbf135c01	-0.5756226
205	0xbf0d086b	-0.5509097
206	0xbe23bbdf	-0.15989636
207	0x3e462282	0.19349101
208	0xbf2daca4	-0.67841554
209	0x3f06d4c7	0.5266842
210	0xbe978f94	-0.2960173
211	0xbe3ce1b2	-0.18445471
212	0xbe98e1e9	-0.29859856
213	0xbf5ff6af	-0.87485784
214	0xbf015c79	-0.5053173
215	0x3ea2bd25	0.3178493
216	0xbe984e7d	-0.29747382
217	0xbd3252ef	-0.043536123
218	0x3e2b7aad	0.16746016
219	0xbda6ca41	-0.081440456
220	0xbec78999	-0.38972166
221	0xbe1aa239	-0.15100946
222	0xbe1e09a3	-0.15433364
223	0xbf5bf9c8	-0.8592801
224	0xbebd38b7	-0.36957332
225	0xbebf52ae	-0.37367767
226	0xbf58c6ec	-0.8467853
227	0xbe9ef459	-0.31045797
228	0xbe8ed62c	-0.27897775
229	0xbd3fe770	-0.046851575
230	0xbf178ffc	-0.5920408
231	0x3e0633ed	0.13105746
232	0xbe8c484f	-0.27398917
233	0xbe57f8cf	-0.21091007
234	0x3b148df4	0.0022667618
235	0xbe5af1cd	-0.21381302
236	0xbe5a8ab2	-0.2134197
237	0xbe8812b2	-0.26576763
238	0xbf3ac0ae	-0.72950256
239	0x3f26d076	0.65161836
240	0xbc22afcc	-0.009929609
241	0xbddf50bd	-0.109040715
242	0x3c6eab2a	0.014567176
243	0x3d538a7b	0.051645737
244	0x3e251165	0.16119917
245	0x3ee42724	0.44561112
246	0xbe84cd82	-0.2593804
247	0xbfb33acc	-1.4002318
248	0x3f0b6de3	0.5446455
249	0xbe59defc	-0.21276468
250	0x3edb11ee	0.42787117
251	0xbe1785c1	-0.14797117
252	0xbf7ffdcb	-0.9999663
253	0xbeb7930c	-0.35854375
254	0xbe20cadc	-0.15702385
255	0x3d988e8b	0.07449063

v.2.bias f4 [128]
0	0xbe81e8f8	-0.25373054
1	0x3db67a6c	0.08910069
2	0xbf0060ee	-0.501479
3	0xbf3310ae	-0.69947326
4	0xbf04064a	-0.51572096
5	0x3f74bba0	0.95598793
6	0x3ef4c8e8	0.4780953
7	0xbedcf153	-0.43152866
8	0xbe24bc1f	-0.16087388
9	0x3f5bfc32	0.85931695
10	0xbe5bddf7	-0.21471392
11	0xbefbfa8c	-0.4921459
12	0xbf30de50	-0.6908922
13	0xbdf58b9b	-0.11989518
14	0xbe059141	-0.13043691
15	0xbe51ada1	-0.2047639
16	0xbd8ffce9	-0.07030661
17	0xbe97d95f	-0.29658028
18	0xbe9014f6	-0.28140992
19	0xbe78deae	-0.24303696
20	0x3f27a5ca	0.6548735
21	0xbe898905	-0.2686235
22	0x3f68c865	0.9093078
23	0x3cbdebe7	0.023183776
24	0xbed5e5af	-0.41776797
25	0xbf2df843	-0.6795694
26	0xbf381b92	-0.7191707
27	0xbf16502b	-0.58716077
28	0x3f841c42	1.0321124
29	0xbf376fad	-0.7165478
30	0xbe65265b	-0.22377913
31	0x3f87560e	1.0573137
32	0xbdfac3c5	-0.12244371
33	0x3f73434a	0.9502455
34	0x3f830cc5	1.0238272
35	0xbf374d21	-0.71602064
36	0x3fa0c264	1.2559323
37	0x3f459422	0.7717916
38	0x3f8552c8	1.0415888
39	0x3f4095b0	0.75228405
40	0x3f195940	0.5990181
41	0xbf0314a3	-0.51203364
42	0x3f86814e	1.0508211
43	0x3ecf5a01	0.40498355
44	0xbf782843	-0.96936435
45	0xbeadaf6d	-0.33922902
46	0x3f35bd35	0.7099183
47	0x3c7eadd3	0.015544373
48	0x3f7a8634	0.9786103
49	0x3f70ff48	0.9413953
50	0xbd2612ad	-0.040545154
51	0x3f11696a	0.56801474
52	0x3f28f3b3	0.65996855
53	0xbe99034e	-0.29885334
54	0xbe13b20a	-0.14423385
55	0x3f103d15	0.56343204
56	0xbe0dd98a	-0.13852516
57	0xbea3ba5d	-0.3197812
58	0xbf0130f5	-0.5046533
59	0x3f31cfe9	0.6945787
60	0x3f3baa94	0.73307157
61	0x3f118686	0.5684589
62	0xbe8f8ff8	-0.28039527
63	0x3f8f44bc	1.1192851
64	0xbdfe027a	-0.12402816
65	0xbde6d1ef	-0.112705104
66	0x3db20662	0.08692624
67	0x3fa538eb	1.2907995
68	0xbe61650e	-0.22011206
69	0xbea818f2	-0.32831532
70	0xbd2749f0	-0.040841997
71	0xbf4ff2bc	-0.8122976
72	0xbf7e46c9	-0.9932676
73	0x3f70cf83	0.9406664
74	0x3d977a48	0.0739637
75	0xbda778dd	-0.0817735
76	0x3f8517c7	1.0397881
77	0x3f8e9379	1.1138755
78	0xbe07b9c6	-0.1325446
79	0x3f465517	0.77473587
80	0xbf85839c	-1.0430789
81	0x3f1d8015	0.6152356
82	0xbee7d859	-0.45282248
83	0xbf53c769	-0.8272615
84	0x3efa8057	0.4892604
85	0xbeb1a81e	-0.34698576
86	0x3f23767e	0.6385268
87	0x3f4a2051	0.7895556
88	0x3ee543ed	0.44778386
89	0xbbd83244	-0.006597789
90	0xbec10ab2	-0.37703472
91	0xbe6848e3	-0.22684054
92	0x3f58a625	0.84628516
93	0xbf04a28a	-0.51810515
94	0xbed73465	-0.4203216
95	0x3f570284	0.83988214
96	0xbef4fe6f	-0.47850367
97	0x3fa38918	1.2776213
98	0xbec0de4b	-0.37669596
99	0xbf106507	-0.56404155
100	0xbe145576	-0.14485726
101	0xbdcba42c	-0.09943423
102	0x3f18f230	0.5974455
103	0xbe94b216	-0.2904212
104	0xbf6ff2d5	-0.9372991
105	0xbf2cb913	-0.674699
106	0x3f1f0c41	0.6212807
107	0xbeee8c51	-0.46591428
108	0xbef197a3	-0.47186002
109	0x3f11726e	0.5681523
110	0xbde43cbd	-0.111443974
111	0x3f8adfad	1.084951
112	0xbf14d8e3	-0.5814344
113	0xbead3738	-0.3383119
114	0x3f051e42	0.51999295
115	0xbe326406	-0.17420968
116	0xbe8c48a6	-0.27399176
117	0xbd9b93c3	-0.07596543
118	0x3f47aebd	0.78001004
119	0x3f689e18	0.9086623
120	0xbf04091f	-0.5157642
121	0x3f6b8085	0.9199298
122	0xbe137e91	-0.1440375
123	0xbf247639	-0.64242893
124	0xbed978ee	-0.42475075
125	0x3d8c8384	0.06861022
126	0x3f485d35	0.7826722
127	0xbf24ae79	-0.64328724

v.4.weight f4 [1, 128]
0	0xbc9ce815	-0.019153634
1	0x3d099826	0.033592366
2	0x3c1a2941	0.00940925
3	0xbd63effc	-0.05564879
4	0xbcc408e7	-0.023930026
5	0x3d37ccca	0.044873036
6	0x3d072ad0	0.032999814
7	0xbd9e8c17	-0.07741564
8	0x3c1af95a	0.009458864
9	0x3cee5415	0.029092828
10	0x3c6226d6	0.0138032045
11	0xbcc3c600	-0.023898125
12	0xbd06e394	-0.03293188
13	0x3b8dd221	0.004328028
14	0xbd612db1	-0.054975215
15	0xbd95eda3	-0.07320716
16	0x3c8973b2	0.0167788
17	0x3cfc4e89	0.030799167
18	0xbbecdf33	-0.007228756
19	0x3da7f24f	0.082005136
20	0x3d850f88	0.06497103
21	0xbc6c47ac	-0.014421385
22	0x3dd69a49	0.10478646
23	0xbc62d8bd	-0.01384562
24	0xbd3284c2	-0.04358364
25	0xbcdaa398	-0.026689336
26	0xbcf0a165	-0.029373834
27	0xbd81996e	-0.063280925
28	0x3db907b7	0.090346746
29	0xbd4aea18	-0.049539655
30	0x3c1367eb	0.008996944
31	0x3deeae15	0.11654297
32	0x3cec8a9d	0.02887469
33	0x3d0077df	0.031364318
34	0x3d947644	0.0724912
35	0x39035909	0.00012526302
36	0x3e1c7829	0.15280212
37	0x3d621b22	0.055201657
38	0x3d0f2519	0.03494749
39	0x3d356c33	0.04429264
40	0x3cdfeac9	0.027333634
41	0xbc7349b9	-0.01484912
42	0x3da97a2e	0.08275257
43	0x3ca79b1b	0.020459702
44	0xbd756143	-0.05990721
45	0xbdb19ca4	-0.08672455
46	0x3d5d910c	0.054093406
47	0xba03bb16	-0.00050251314
48	0x3cd1c554	0.025606789
49	0x3d8276ba	0.063703015
50	0xbc204ca1	-0.009783895
51	0x3d1f5242	0.038896807
52	0xbbd8d19c	-0.0066167843
53	0xbb0981ce	-0.002098191
54	0xbd674c9e	-0.056469552
55	0x3c8dbc84	0.017301805
56	0xbd539b77	-0.051661935
57	0xbca39a2c	-0.019970976
58	0x3ca6c2a0	0.020356476
59	0x3cf7aa46	0.03023256
60	0x3d8815bc	0.066447705
61	0x3d084356	0.03326734
62	0xbd06da6d	-0.03292315
63	0x3d9b3b05	0.075796165
64	0xbdb37b47	-0.08763748
65	0xbc211d50	-0.009833649
66	0x3b79f77b	0.0038141895
67	0x3e5fa9cc	0.21842116
68	0xbccafe6e	-0.024779525
69	0xbe0db60a	-0.13838974
70	0xbd869517	-0.065714054
71	0xbe20e699	-0.15712966
72	0xbe4bbaff	-0.19895552
73	0x3d1da0d0	0.03848344
74	0x3cb8040e	0.02246287
75	0x3c93f6f9	0.018062102
76	0x3da85920	0.08220124
77	0x3d9a85c1	0.07545043
78	0xbc42c556	-0.011887869
79	0x3d0e1c15	0.03469475
80	0xbde3c2ff	-0.11121177
81	0x3c12acf1	0.008952365
82	0xbd36e717	-0.04465398
83	0xbd655d12	-0.055996962
84	0x3c5b9730	0.013402745
85	0x3cdfe891	0.027332576
86	0x3c4c668c	0.012475621
87	0x3cabd881	0.02097726
88	0x3b2bb0db	0.0026197943
89	0xbe865ea4	-0.2624408
90	0x3d2767d2	0.040870495
91	0xbb278b92	-0.0025565368
92	0x3d3f1489	0.046650443
93	0xbd518f13	-0.051161837
94	0xbceb906e	-0.028755393
95	0x3c8303df	0.015993057
96	0xbc75ea46	-0.015009468
97	0x3e41c3d1	0.18922354
98	0x3d279a48	0.04091862
99	0xbb682c6f	-0.0035426875
100	0xbdb1f341	-0.08688975
101	0xbd15790c	-0.036492392
102	0x3c9f116a	0.019417483
103	0x3aa0d15f	0.0012269429
104	0xbd9cb66e	-0.07651983
105	0xbd5bea18	-0.053690046
106	0x3d87ef7a	0.066374734
107	0xbd5116d2	-0.051047154
108	0xbd617c23	-0.055050027
109	0x3d57d956	0.052697502
110	0xbc53ade9	-0.012919881
111	0x3dcc81dd	0.09985707
112	0xbd5edf7b	-0.054412346
113	0xb9a80d01	-0.00032053146
114	0xbcaa2357	-0.020768804
115	0xbdbe466f	-0.09290778
116	0x3cc4223a	0.023942102
117	0x39e091a9	0.00042833135
118	0x3d742ff6	0.05961605
119	0x3cdd69d3	0.027028
120	0xbd45d584	-0.048299327
121	0x3d6c64cd	0.05771332
122	0x3bd79eed	0.0065802247
123	0xbd258958	-0.040414184
124	0xbe7cb21b	-0.24677317
125	0x3b61064c	0.0034336029
126	0x3d1bf806	0.03807833
127	0xbd03d095	-0.03218134
