ddpg_critic_model_weights.pth (torch, 92547 bytes, 9 tensors)

v1.0.weight f4 [128, 33]
00000000: a218 ef3d 1d2e 723c f79b 773c 3266 a7bc
00000010: f1f2 efbc 8f03 8abd d582 f33c 2572 143c
00000020: 350a 84bc 04db 3ebb 8a22 6c3c 23a7 053c
00000030: 2d31 443b d4f4 83be fce6 5abc 656a 6dbd
00000040: a3d9 413d 14dc 1e3c 8c12 143d 1e10 e0ba
00000050: 08af e7bb 81f6 a8bc 7d22 1bbc 00e9 5dbd
00000060: 46eb 37ba 1825 33ba 3ad1 1d3e 3c36 0a3d
00000070: b368 8d3d 9117 eebc 1190 513d 91e0 5e3d
00000080: 41ff a3bd 3752 82be 4983 dabd fb4d 343d
00000090: 0083 7dbb 2b54 a6bd 731f 3fbc 7585 22bc
000000a0: afbb 8bbd d98c 133e fcf8 133e 6cf9 88bd
000000b0: 1b4e 183d 9448 a83c d8a6 683d 3c94 4d3e
000000c0: fe59 693d 7ea3 3cbc ab0b e4bb 04d6 833c
000000d0: 9502 14bc 4b24 65bb 443b 473c 54a4 96bc
000000e0: e7ef ab3b 6fef cc3c cdd7 c13c e1a6 c93d
000000f0: 8109 b1bd 4d42 96bd 32ca 98bd f7d5 7abd
00000100: 5264 5bbd 95f9 023b 0334 2bbe 9609 2e3a
00000110: a79b 5ebd 49f7 67bd 5188 a53d 7177 b0bd
00000120: 8622 00bc a614 d83d 910d f1bd 0a04 7b3d
00000130: c759 c23c 36c8 24be f6aa 053e 4d00 ae3d
00000140: 48cb dabc adf9 d33d f8a6 b2bd 6cef e33c
00000150: b905 d93d 1f98 953b dd25 db3c 420f 743b
00000160: 8175 a2bd e10b a13d 0a37 21bc ac91 e43d
00000170: 56bc 9c3d 4fac 8ebd 9561 b53d dd73 29bd
00000180: 4ec9 4cbd 2563 a73d 6c28 81be 61f3 5ebd
00000190: 5e2f 263e 0883 1c3d 54f1 f53b c09c d9bd
000001a0: 5eea e8bc 0071 b5bb 86ab 0b3c fee6 27bd
000001b0: 3034 30bc f054 683c eb2b 833b ae48 88bc
000001c0: e41f 173e 1e43 8cbe aad4 b0bd 3cf3 4ebd
000001d0: cd43 5abc c261 163d ec8a b4bc abe1 60bb
000001e0: 6d9a 8aba deca 84bc 333d a43b e9ea aebd
000001f0: 5c21 e13a c785 dcbd b7fd 9abd ab90 973d
00000200: 4ac5 793d 8c52 423a 3c6e 843b 1b61 2a3e
00000210: fde1 7ebe db96 6a3c 0c6c 86bd 5946 36bc
00000220: 469c f1bd 3ce9 1c3e 3e55 0e3e a038 d43d
00000230: 589a 053d e8dd 8b3d 973e 4a3b 9b49 cebc
00000240: 3949 df3c ff9d 78bb e3c2 593d b420 ac3c
00000250: 03c2 513c 29b1 55bd 1306 9cbd 0074 76bd
00000260: ca03 ff3c 698e 23bb f00c 36bd 4b68 7fbd
00000270: 9f0d 30bc 90d7 13bd a0b5 f03d e979 85bd
00000280: b214 bc3d a2a6 b53c fa2a 1f3c 8df0 d23c
00000290: 0035 e6be 5d74 37be c9f4 a53d 4d44 243e
000002a0: e970 9abd 700b f3bd 93d4 b1bd 1909 d83d
000002b0: dc93 86bc a866 8fbc ac16 d6bc a7af 9fbc
000002c0: 7988 efbc ece3 243d a492 053a 9c58 8d3d
000002d0: fe95 133d bff3 de3d a875 89bd 3b19 06be
000002e0: eaba 8f3b 9b57 71bd d117 2bbe 2e3c 74bd
000002f0: 5476 9d3c bae5 50bd a0ab 33bd 90b7 1dbe
00000300: 7c30 553d bbf3 cabd 93b0 66bd bae6 053d
00000310: 1715 573d 3c7b 8a3e b45a 0d3d cfc3 65be
00000320: fd69 573d b239 933c 1be8 4fbd 30db 523d
00000330: 005e a03c 5e1f 39bc c173 ed3d 2326 e53d
00000340: 6ba2 36bc 7d71 353c 6b11 b8bc 794e 503c
00000350: 49ca 8c3e 400c 92bd f298 d83b 6fb2 febc
00000360: 7198 4f3d 0cd9 99bb c7e3 eb3c 4de3 1d3d
00000370: a53d b5bc a3a6 d1bd 17a5 cc3d b00e 823d
00000380: b4db cabd 2c61 20bd c6a4 a93d d9a1 9f3d
00000390: f4f5 e2bc bea8 81bd 7270 aa3e efb9 05bd
000003a0: 1cd0 4d3d 3773 68bd 925f 88bd d402 62bb
000003b0: 3025 6d3d 9726 5dbd dc03 993b 8374 073d
000003c0: e345 8cbb 9959 a03c dc8c b9bc 88af dcba
000003d0: 985f c1bd 9176 cbbc 9d6c d5bb 6fe4 3f3c
000003e0: cc0e 183c d2b5 59bb c219 533c 88e0 a63b
000003f0: 6e50 fe3b 5584 e9bc 9bda 3bbb ed73 04bc
0.1167462 0.014781502 0.0151128685 -0.020434473 -0.029290648 -0.0673896 0.029725472 0.009060417
-0.016118148 -0.0029122243 0.014412532 0.008157524 0.0029936538 -0.25772727 -0.013360735 -0.057962794
0.047326695 0.009696025 0.0361505 -0.0017094647 -0.007070426 -0.020625355 -0.009468672 -0.054177284
-0.00070159545 -0.00068338355 0.15411845 0.03374313 0.069047354 -0.029063972 0.051162783 0.054413382
-0.0800767 -0.2545335 -0.10669572 0.04401968 -0.0038682818 -0.081215225 -0.011665213 -0.009919514
-0.06822907 0.14409198 0.14450449 -0.066881984 0.037183862 0.02054242 0.05679974 0.20076078
0.05697059 -0.011513589 -0.0069593987 0.016093262 -0.009033819 -0.003496426 0.012160126 -0.018388905
0.0052471044 0.025016515 0.023662472 0.09846283 -0.08644391 -0.073368646 -0.07460441 -0.06123921
-0.05356247 0.0019985188 -0.1671906 0.00066390017 -0.05434766 -0.056632314 0.08082641 -0.08616532
-0.007820731 0.105508134 -0.11770166 0.06128315 0.02372445 -0.16092 0.13053498 0.08496151
-0.02670826 0.10350356 -0.08723253 0.027824126 0.10596795 0.0045652534 0.026751453 0.003724054
-0.07932568 0.07863594 -0.0098397825 0.11160597 0.0765311 -0.06966459 0.08856503 -0.04137026
-0.049996667 0.08173207 -0.25226152 -0.054431323 0.16229007 0.0382109 0.007505575 -0.10625601
-0.028432067 -0.0055371523 0.008524781 -0.040991776 -0.01075463 0.014180407 0.004003038 -0.016636219
0.14758259 -0.27394956 -0.086343125 -0.050524935 -0.013321829 0.036714323 -0.0220389 -0.0034314196
-0.0010574587 -0.016210016 0.0050121783 -0.08540899 0.001717608 -0.107677035 -0.075679235 0.0740064
0.060979165 0.0007412813 0.0040414613 0.16638605 -0.24890895 0.014318193 -0.06563577 -0.011125171
-0.11797385 0.15323347 0.13899705 0.10362363 0.032617897 0.06829435 0.003086006 -0.025181582
0.027256595 -0.003793597 0.053164374 0.021011688 0.012802604 -0.052170906 -0.07618346 -0.06016922
0.031129736 -0.002495671 -0.044445932 -0.06235532 -0.010745435 -0.03609425 0.11753392 -0.06517393
0.09183635 0.022174183 0.009714836 0.02574947 -0.4496231 -0.17915483 0.0810333 0.1604168
-0.07541067 -0.11867416 -0.086831234 0.1054861 -0.016427927 -0.017505005 -0.026133858 -0.019492937
-0.02923988 0.040256426 0.00050953985 0.069016665 0.036031716 0.10886335 -0.06711894 -0.13095562
0.0043862956 -0.058921438 -0.16708304 -0.059627704 0.019221462 -0.051000334 -0.043864846 -0.15402055
0.05204819 -0.09909769 -0.056320738 0.03269074 0.052510347 0.27047145 0.03451033 -0.22437976
0.052591313 0.017971847 -0.050758462 0.051478565 0.019576073 -0.011298982 0.11594344 0.111889146
-0.011147122 0.011074421 -0.022469243 0.012714022 0.2749808 -0.07131243 0.0066100294 -0.031090943
0.05068249 -0.0046950635 0.028795136 0.03854685 -0.022124121 -0.102368616 0.09992426 0.06350458
-0.09905186 -0.03915517 0.08283381 0.07794542 -0.02770517 -0.06331013 0.33288914 -0.032648023
0.050247297 -0.056750502 -0.066588536 -0.003448655 0.057896793 -0.05399188 0.0046696495 0.0330701
-0.004280792 0.019573973 -0.022650175 -0.001683698 -0.09442061 -0.02483681 -0.006513192 0.011712178
0.009280872 -0.0033219946 0.012884559 0.005092684 0.007761053 -0.028505484 -0.0028664235 -0.0080842795

v1.0.bias f4 [128]
00000000: 29ed 9d3d baf4 0d3e 3b23 2a3e 1e8d 193e
00000010: 3c2e c4bd 4759 233d cb9a dfbd 8105 7f3b
00000020: 16fc 133e c76c af3d 2998 24be db0e 99bd
00000030: 2367 16be a6d8 a73d 6da7 b4bc 991f 02be
00000040: dcbf 65bd c6a6 693d 041e 833c 984c 273e
00000050: ef3f 08bb e74f 603d 2718 58bd 4742 ab3c
00000060: edf4 d13b fd1f 193e b35c 953d f72e cbbd
00000070: d467 1ebe 8492 29be df41 81bd bb28 b83c
00000080: 56b9 273e be98 8bbc 8959 8b3d 65a9 b53d
00000090: 59a7 08be de71 13be 851e 873d 0d66 a63d
000000a0: 5ae2 a5bd 2f47 df3c 93f9 2ebe 590f 0e3b
000000b0: f172 2f3d 7948 d83a f984 e2bc fa73 943d
000000c0: 0023 44bd 4ab4 043e 0a5c 19be 52d7 cbbd
000000d0: 7ac2 14be ac69 21be 7b30 043e cbc7 30bd
000000e0: a223 0cbe 4626 143d f60d 07be 65e8 133c
000000f0: cd17 aa3d 32ab 16bd 6c03 b73d 2085 123d
00000100: 4005 0fbe 151a 0e3d b2eb e53d 4eb0 24bd
00000110: fea8 863c 1692 b53c adfd 753c 1b7d 383d
00000120: 42bd 2abe e45d 073e 3274 9b3d e0d8 b03c
00000130: c89f 013d 2cb9 0fbe 2997 4bbd 010e f6bb
00000140: 4670 293d cea2 c3bd 0fee 973c 5b51 5dbd
00000150: a5c6 013e b1ec 18be 0c72 953c e775 f13d
00000160: 5690 09be fe1b a3bb 0bb6 a43d d5e9 8f3d
00000170: d05b a73c 1a49 903d 6ee3 f7bd 476d 143e
00000180: 69e5 7b3b 5ba7 e63d 9acc 1d3d cbdf 9ebc
00000190: d0c0 983d 3535 293e aa50 303e b5fd 15be
000001a0: 83b4 2e3c 7d15 00be ac92 cf3d 6a03 003e
000001b0: 9c6e fabd 7250 25bc bbbb f63d 88e8 eb3d
000001c0: 4efa 05be b4a7 ef3d c5ca fcbc 4d9f 17be
000001d0: f88e 0e3d 2115 a63d 57b8 d53d 33e6 f1bd
000001e0: a218 01be f34a eebd ec0a ca3d 67be 1bbe
000001f0: 9bcc c3ba 3f8f 51bd 3b96 9b3d 5304 0c3d
0.0771125 0.13862887 0.16615002 0.14995238 -0.09579131 0.039880063 -0.10918196 0.0038913193
0.14451632 0.085656695 -0.1607367 -0.074735366 -0.14687781 0.08195619 -0.022052491 -0.12707366
-0.056091174 0.057043813 0.016005524 0.16337812 -0.002079006 0.0547637 -0.05275741 0.020905627
0.0064073713 0.14953609 0.072930716 -0.09921067 -0.15469295 -0.16559798 -0.06311392 0.02248036
0.16379294 -0.017040607 0.06804187 0.088702 -0.13345088 -0.14398906 0.06597618 0.081249334
-0.08099814 0.027255623 -0.17087393 0.0021676628 0.042834226 0.0016501091 -0.027651297 0.07248683
-0.04788494 0.129594 -0.14976516 -0.099531785 -0.14527312 -0.15762967 0.12909119 -0.043159287
-0.13685468 0.036169313 -0.1318892 0.009027575 0.08305321 -0.03678436 0.089361995 0.03577149
-0.13966846 0.034692843 0.11226596 -0.0402072 0.016438004 0.022164386 0.015014094 0.045041185
-0.16673759 0.1321941 0.07590522 0.021587789 0.03164652 -0.14035481 -0.049704704 -0.0075089936
0.041366838 -0.09552537 0.018546132 -0.054032665 0.12673433 -0.1493404 0.018242858 0.11790066
-0.13433966 -0.004977702 0.080425344 0.07027022 0.020429522 0.07045193 -0.12103926 0.14494811
0.00384363 0.11262389 0.0385252 -0.019393822 0.07458651 0.16524203 0.17218271 -0.14647563
0.010663155 -0.12508197 0.10135397 0.12501302 -0.12228128 -0.01008998 0.120475255 0.11518961
-0.13083765 0.11701909 -0.030858407 -0.14806862 0.034804314 0.08109499 0.10435551 -0.11811485
-0.12607053 -0.11635389 0.098653644 -0.15209351 -0.0014938297 -0.051162 0.075970136 0.03418381

v1.1.weight f4 [128]
00000000: 10c2 803f 0433 783f a308 7c3f 3355 803f
00000010: a01f 6b3f f59d 453f eb59 693f 5aba 943f
00000020: 702d 843f eecc 3f3f d2d0 463f 6ae4 823f
00000030: 7751 4f3f 8d94 623f d9de 673f 1b2e 7f3f
00000040: fe74 703f 8bc2 723f 97fa 3f3f d8ed 4f3f
00000050: ae9c 873f cea9 643f 07a3 5e3f b784 853f
00000060: c90f a93f fd1c 5a3f 40c2 743f 9caf 3f3f
00000070: b225 6f3f 77d5 7a3f f0f6 713f 83f2 533f
00000080: 114d 643f fa97 743f eec0 5f3f c612 803f
00000090: b3c7 6a3f a965 823f 4aeb 823f 87fc 783f
000000a0: fb2a 793f 7336 563f a098 8d3f 8fc5 803f
000000b0: 89d4 ae3f b007 873f 222f 843f a7df 6b3f
000000c0: 4f9a 6f3f 7f3e 563f 6b70 8e3f 2a2d 623f
000000d0: 1743 713f e970 873f 3c40 7b3f 64cb 793f
000000e0: 17c4 763f 9951 6d3f 3046 783f 6a08 803f
000000f0: f2d8 483f 840d 813f 3f71 503f 39e3 a03f
00000100: fa73 583f 6098 a43f f737 713f c552 5f3f
00000110: 8541 573f 7eeb 733f aa46 953f 5245 5f3f
00000120: f495 613f 208e 823f 8b30 7b3f 7ee6 8e3f
00000130: 027d 693f 5cde 703f 4d06 603f 171b 773f
00000140: 3212 763f 1fdd 653f fc86 273f 6fd6 833f
00000150: 5d22 553f ead1 463f 823f 7f3f ea93 6a3f
00000160: 8e3c 8b3f 65e6 5b3f e070 3f3f 6fe2 5f3f
00000170: 5844 683f 242f 6d3f ca3a 9c3f e63a 483f
00000180: 5fce 5f3f 9124 673f 7b7a 5e3f da35 6a3f
00000190: 2834 5b3f b6f7 403f 187a a33f 7b2e 593f
000001a0: fef2 783f 363b 4f3f c470 683f e961 7a3f
000001b0: acff 863f dd3b 5e3f 4ccb 503f 899c 223f
000001c0: 12c7 573f e9f5 6c3f 961b 763f c4e5 723f
000001d0: ef79 7c3f 4f06 5c3f 8596 883f 1365 553f
000001e0: aaa0 883f b2b7 913f ed8c 6e3f ef76 5b3f
000001f0: c12c 633f 2984 7b3f 088c 7d3f 0685 4e3f
1.0059223 0.96952844 0.9845068 1.0026001 0.9184513 0.7719415 0.9115283 1.161937
1.0326366 0.7492207 0.77662385 1.0225956 0.8098368 0.8850792 0.90574414 0.99679726
0.93928516 0.948281 0.74991745 0.81222296 1.059469 0.893216 0.8696751 1.0431126
1.3207942 0.8520048 0.956089 0.74877334 0.93416893 0.9798197 0.9451742 0.8279192
0.89180094 0.955444 0.8740376 1.0005729 0.91710967 1.0187274 1.0228055 0.97260326
0.9733121 0.8367683 1.1062202 1.006029 1.365861 1.0549221 1.0326884 0.9213814
0.9359483 0.8368911 1.1128057 0.88350165 0.94242996 1.0581332 0.9814489 0.97575974
0.9639296 0.92702633 0.969821 1.0002568 0.7845603 1.008225 0.814228 1.2569343
0.84551966 1.2859001 0.9422602 0.8723567 0.8408435 0.9528121 1.166219 0.8721515
0.88119435 1.0199623 0.98120946 1.1164091 0.9120637 0.94089293 0.87509614 0.9652571
0.96121514 0.8979053 0.65440345 1.0299815 0.8325556 0.77664053 0.9970628 0.9163195
1.0877855 0.8589843 0.7478161 0.87454885 0.90729284 0.92650056 1.2205441 0.7821487
0.8742427 0.9029017 0.8690564 0.9148842 0.8562646 0.75377977 1.2771635 0.8483655
0.97245777 0.80949724 0.90797067 0.9780565 1.0546775 0.86810094 0.81560206 0.63520104
0.8428813 0.9256273 0.9613584 0.94881845 0.98623556 0.85947126 1.0670935 0.8335735
1.0674031 1.1384184 0.93183786 0.85728353 0.88740164 0.98248535 0.99041796 0.8067173

v1.1.bias f4 [128]
00000000: 886a a6be 4a9c 2e3e 363d 2a3e d6f2 3dbe
00000010: e6bd 0fbe fd07 b4be 4475 a1be 87a6 ce3d
00000020: 0091 88be 95ab 54be 0298 59be 59e0 7abe
00000030: c83a 92be c5ca 90be c1c9 aabe 1829 303e
00000040: 4be6 e9be a032 683d f2d6 8bbe 3d83 dbbd
00000050: 17eb 16be 06db 5f3d ffdd 69be 7daa 5b3e
00000060: c806 42be 171e 7fbe cccf c63d 2b4b c9be
00000070: 2ac9 0e3e 9112 c53b ed90 8e3e d3d6 8ebe
00000080: e943 e4bd 5b98 b8be 6c20 7abe 00b5 4b3e
00000090: 6ebc db3d e7f4 83be 7808 0f3e b935 523d
000000a0: 7860 4c3e 1184 78be 8b56 59be df31 6f3e
000000b0: 6466 37bd 95f4 5e3e bb40 3fbe 607b 21bd
000000c0: 7521 58be cb27 d5bd c738 93be de62 e53d
000000d0: 6aeb efbc 8709 2fbe e700 0c3e 8f42 653e
000000e0: ae45 e43d f055 74bd cb27 363e 4a8c 3d3e
000000f0: f15d eabe 9c05 fd3c ec3d 10bf cdfb babd
00000100: ef6f d0be 772b c7bd a472 533e 4cf8 f0bd
00000110: 2fe6 863d 7428 1cbd 7d8f aabd 1359 05bf
00000120: 6c31 15bc 01fa 80be 817a 92be 2f52 93be
00000130: ab61 dcbd f511 fd3d 12b5 91bc 67eb adbe
00000140: 64aa 0fbe ebbe 393e 0a1a dabe 000f 723e
00000150: 0d26 97be d427 b2be 0b31 893d f8ee 993b
00000160: e8b1 90be d9c0 d7bd 8d33 8ebe 641c b4bd
00000170: aa66 95be 9fcb 5d3e f844 1ebe 6e08 29be
00000180: 7d07 0b3e 7b9b 7a3a ea5d 913d 2c3f 89bc
00000190: 3fc5 a5be 1d5c 9dbe 6ddc b7bd 58cc 39be
000001a0: e036 2f3e 8e8e 39be 1fe6 01be 71b8 bf3d
000001b0: 91a0 66be 4aae 96be 82e5 d9bd 24e6 f6be
000001c0: 918c d3be 8b21 debd add0 143e aaf8 89be
000001d0: d701 803e 9048 ce3c a6d2 bbbd c8f3 89be
000001e0: 0371 e8bd 0657 8abe 8e47 943d 5981 c9be
000001f0: b050 2ebe 5b8c 6d3e 4a44 e33d 9b9a 05be
-0.32503152 0.17051807 0.16624913 -0.18549666 -0.14037284 -0.35162345 -0.3153478 0.10090356
-0.26673126 -0.20768578 -0.21249393 -0.24499644 -0.28560472 -0.282797 -0.3335705 0.17203176
-0.45683512 0.056688905 -0.27312428 -0.10718391 -0.14738117 0.054652236 -0.22838591 0.21451755
-0.189479 -0.24913822 0.09707603 -0.3931516 0.13943925 0.006014176 0.27844945 -0.27898273
-0.11145765 -0.36053738 -0.2442643 0.19893265 0.107292995 -0.25772783 0.13968074 0.051320765
0.19958675 -0.2426913 -0.2122442 0.23358868 -0.04477538 0.21772988 -0.18677036 -0.0394243
-0.21106513 -0.104079805 -0.28754255 0.11200498 -0.029287059 -0.17093478 0.13672219 0.22388671
0.11146103 -0.05965227 0.17788617 0.18510547 -0.45774797 0.030886464 -0.56344485 -0.091300584
-0.407104 -0.09725087 0.206492 -0.11766109 0.06586873 -0.038124517 -0.083281495 -0.5208904
-0.009106021 -0.25190738 -0.28609088 -0.2877364 -0.10760816 0.12356941 -0.017786536 -0.3396866
-0.14029843 0.18139236 -0.4259799 0.23638535 -0.29521218 -0.3479601 0.06698807 0.0046976767
-0.28260732 -0.1053483 -0.27773705 -0.087944776 -0.2917989 0.21659707 -0.15455997 -0.16507122
0.13577075 0.00095599116 0.07097991 -0.016753756 -0.3237705 -0.3073434 -0.0897759 -0.18144357
0.17110777 -0.18120787 -0.1268544 0.09361351 -0.22522189 -0.29429847 -0.10639478 -0.48222458
-0.4131818 -0.108462416 0.14532728 -0.26947528 0.25001404 0.025181085 -0.091710374 -0.26943803
-0.1134968 -0.2701952 0.072402105 -0.39356497 -0.17022967 0.23198073 0.110970095 -0.13047259

v1.1.running_mean f4 [128]
00000000: b29c 253e 517d 86bd 3060 443e 1c96 053f
00000010: 1b42 17be 592e c2be b019 56be f0ca 6abd
00000020: b89c 863e abae d9bd 4218 1c3f f712 9fbd
00000030: 3a61 4fbe 82db 80bc d604 14be 3128 40be
00000040: 3221 8e3c ecb9 173f 2e4b 293e 9158 893e
00000050: 1568 6ebe 1654 003f 3f7d 013e f121 f13e
00000060: a463 963d ea60 71bd 6a8a fbbb 7025 483f
00000070: 26f2 b5bd ae2a 00bf 3eaa ee3e 9a5b b7be
00000080: dff8 d6ba 8193 15bc 65cd 93be 4a28 ad3e
00000090: b7bf fb3e a9f2 93be f84f f83d 9056 70bd
000000a0: bcfe 0cbe 3185 f63e 03bc d8be 7ae0 db3e
000000b0: 88f4 da3d 46a8 243f c4e3 1cbe dc88 8cbe
000000c0: 05e5 fbbe 3832 113c 3582 583d 1139 7c3e
000000d0: 93d8 23bd b1f2 83be 1c4f b2be c407 15bf
000000e0: 2d93 7bbf de51 1cbe 0baa c63d 3638 e7bd
000000f0: 548d 82bf 0e60 20bf 8575 763b df9f 59bd
00000100: 5749 5dbd 31f4 15be d369 64bd 822e 6bbe
00000110: 4462 e83e 1604 2a3f e8b6 943e 943d e23c
00000120: c640 18bf 5b3a 7e3e 38ce 033f b02b 8f3d
00000130: b8fb dc3d e690 c53e 89a2 5d3d 41c7 98be
00000140: 076f 88be b8a7 9fbe db03 06bf 3ba9 2bbb
00000150: fc2e fbbe a7b7 3abf b4e5 373f 64bc 143f
00000160: a057 96be 196e c83e d0e5 47be ba21 1b3e
00000170: d930 19be 4fc4 3f3f e6af 8cbd 0465 1f3d
00000180: 5671 00be 9b79 e7bd ac29 ad3d 410e f93e
00000190: 4ca7 993b a57e 4a3e 4f24 39be 3f89 183e
000001a0: b9b6 333e 254a 02bf 15d3 403f 2ecb a43e
000001b0: 4ab9 ecbe dfce 403e e536 0abe 6a96 b5be
000001c0: 2a60 a93d 2093 bb3e e784 a8bd e790 2ebe
000001d0: 9ca4 c53e ad09 a4bd 83ac 2fbe 5ad0 87bd
000001e0: 3e56 673e 1895 7bbe 1e7a 4cbe 6a59 353c
000001f0: fec8 1cbe fab4 723e 074f b33e cf22 80bc
0.16173056 -0.06566871 0.19177318 0.52182174 -0.14771311 -0.37925985 -0.20908237 -0.057322443
0.26291442 -0.106290184 0.60974514 -0.07767289 -0.20251933 -0.01572967 -0.1445497 -0.18765332
0.017349813 0.5926807 0.16532585 0.26825383 -0.23281892 0.50128305 0.12645434 0.47096208
0.07343224 -0.058930315 -0.0076764124 0.78182125 -0.08884077 -0.50065124 0.4661426 -0.35812074
-0.0016401074 -0.009129406 -0.2886764 0.338198 0.49169704 -0.28896073 0.12124628 -0.058676302
-0.13769048 0.48148492 -0.42330942 0.429447 0.10691172 0.64319265 -0.1532126 -0.27448165
-0.49198166 0.008862071 0.05285855 0.24631144 -0.040001463 -0.25771096 -0.3482598 -0.58214974
-0.9827145 -0.15265605 0.09700402 -0.11290018 -1.019938 -0.6264657 0.0037606668 -0.05313098
-0.05402502 -0.14643933 -0.055764984 -0.2296696 0.4538747 0.66412485 0.29045796 0.027617253
-0.59473836 0.24826948 0.5148654 0.069907546 0.10790199 0.3858711 0.054110084 -0.2983952
-0.26647207 -0.31182647 -0.5234963 -0.0026193399 -0.49059284 -0.7293648 0.71834874 0.5809996
-0.29363728 0.39146498 -0.1952126 0.15149584 -0.1496004 0.7490892 -0.068694875 0.038914695
-0.12543234 -0.11302491 0.08455214 0.48643687 0.004689133 0.19774874 -0.18080257 0.14896105
0.17550172 -0.50894386 0.75322086 0.32186264 -0.46235114 0.18828915 -0.13497503 -0.3546632
0.08270295 0.36635685 -0.08228474 -0.17047463 0.3860215 -0.08009658 -0.17155652 -0.06631537
0.22591493 -0.24568594 -0.19968459 0.011068681 -0.15311047 0.2370185 0.3502123 -0.015641598

v1.1.running_var f4 [128]
00000000: f7d1 ba3d e84b 9d3e 0efd b93f 83e4 423e
00000010: 0419 d23e 421f b53f dc9d 0b3f cd47 c13e
00000020: ea39 153e 33a2 193f 278a 7a3f e92f 513e
00000030: 0331 3e3f 1dd9 6b3f 0e66 0c3f f81c aa3f
00000040: 0ce6 263e 151b f63e 4f8c 963e 2323 043f
00000050: 098d 1f3e f163 e73e e3c7 7e3f 0d4b 4a3f
00000060: 6d62 f93e fa73 a03f 6172 203f a7ad 333f
00000070: cc00 183f c826 463f 50a3 803f 4f34 883f
00000080: 5577 fa3e 9485 a73e b162 fc3e 926c 5640
00000090: 1ff0 0a3f 7e93 8d3e d1d9 7e40 7908 363f
000000a0: 03f4 8440 be1c 1a3f 1c36 273e 92ff 2240
000000b0: bcca f83e 4120 b93f e3d4 8e3e e74b d23e
000000c0: d6b4 de3e 45ff 913e aae5 e73e 927d 163f
000000d0: dafc 063f a03f 913e c919 3a3f fa6c 3b40
000000e0: f1f7 253f 9859 8a3e bed2 f93f 7270 0f40
000000f0: d653 9e3e e21b 4540 95b7 f33d bfba a43e
00000100: c7aa 213f 8b3f e43e 91e6 6b3f b18a 843e
00000110: 0e9f 753f 6752 603e 3d5e c83e 6a81 813e
00000120: 563e ae3e ebaf 103f e5af a93e 222f d93e
00000130: d690 653f ac40 6c3f 0f3a a33f 05e4 9e3d
00000140: 8e0e f63e 7fe9 ac3f 330e 153f 2676 c13f
00000150: bb15 ec3e 8e0c 5d3f 1e4c 733f fb40 973f
00000160: 93aa 3d3e 9d4a c73e c1fd c33e f1dd 833f
00000170: 1b85 573e 2c67 5740 e647 ad3e 995d 0a3f
00000180: e72c 863f 4508 8d3f 8ba1 583e 17b2 523f
00000190: 8e35 2b3f 36c2 2b3f 49f6 883e 0967 4a3f
000001a0: acdd ee3f 765e d63e a0e1 553f 1679 933f
000001b0: 43ba b63e 50be f83e 93dc 6e3f f1e8 a73e
000001c0: f62c 853e 6136 e33e c01f 8b40 29fc 8e3e
000001d0: 65fc 903f bcb8 063f 698d 4a3e 58a8 053e
000001e0: 1de8 fc3e 2424 343e 3df7 3e3f 8045 903e
000001f0: f430 383e ee34 c540 846b 873f 640b 983e
0.09122079 0.30721974 1.4530351 0.19032483 0.4103471 1.4150164 0.5453775 0.37750092
0.14572874 0.6001312 0.97867054 0.20428433 0.74293536 0.92128164 0.54843223 1.329009
0.16298693 0.48067537 0.29403922 0.51616114 0.15581144 0.45193437 0.9952375 0.7902077
0.48707905 1.2535393 0.6267453 0.7018685 0.59376216 0.77402925 1.0049839 1.0640963
0.48919168 0.327191 0.49294046 3.3503766 0.54272646 0.2765159 3.9820445 0.7110668
4.1547866 0.6020011 0.16329235 2.5468488 0.48592174 1.4462968 0.27896795 0.41073534
0.43497342 0.28515068 0.45292407 0.58785355 0.5272957 0.28368855 0.72695595 2.9285264
0.64831454 0.2702148 1.9517438 2.241238 0.30923337 3.0798268 0.1190025 0.32173726
0.6315121 0.4457973 0.9214869 0.25887063 0.95945823 0.21906434 0.39134398 0.25294048
0.34031934 0.5651843 0.3314201 0.42418772 0.8967413 0.9228618 1.2752093 0.07758335
0.4805798 1.3508757 0.5822479 1.5114181 0.4611033 0.8634728 0.9503802 1.1816705
0.185221 0.38924113 0.38279536 1.0302106 0.2104687 3.365672 0.33843917 0.5404907
1.0482453 1.1018149 0.21155374 0.82302994 0.6687859 0.6709322 0.267504 0.7906347
1.8661399 0.41868943 0.835474 1.1521327 0.3568898 0.48582697 0.9330532 0.32794908
0.26010865 0.44377425 4.3476257 0.27926758 1.1327025 0.5262563 0.19780506 0.130525
0.49395838 0.17591912 0.74596006 0.28178024 0.17987424 6.162711 1.0579686 0.2969619

v2.0.weight f4 [128, 132]
00000000: df84 ff3d 21b9 4e3c 1771 79bc 115e 083d
00000010: 40e5 c43b 73cd b7bb 9e90 b4be 3a6c aabe
00000020: 5966 febc c475 e33c 49d8 2d3d 4394 373e
00000030: 9601 2bbd 5222 c8bc 190f d0bd fa55 5ebd
00000040: 5d65 f8bc 4287 2b3e 606e 6bbe cde1 dabd
00000050: b9a5 6fbd 695b 703d e14f 27be 36d5 863b
00000060: 6467 6bbd 3f51 5f3d b8f1 213e 4b54 adbd
00000070: 4c0c 1abc 094e 48be caae 18be 0897 d53c
00000080: 5c74 e93c 223d 1ebc a1fc 30bd 28dc 903c
00000090: dade 5cbe f76c 0e3e b818 5abd ebfe d0bd
000000a0: d960 dbbd 327e 47bb d0cb 803b d25e c0bd
000000b0: 3054 b03d 6015 d93d 219e b93d be5a 41bc
000000c0: 5198 0b3d 5b4e 99bd 9d71 873d 51ea 2ebe
000000d0: 223d 9ebd 321b e03d 5315 f7bd 3ade 2bbe
000000e0: ac1e 44be d517 983d d710 1ebe 3e8b adbd
000000f0: 7b6e f3bb 3dee 823d ad8e 203d 39b7 6b3d
00000100: 7ea1 623d b5e1 b23d 680d 003c c4fb 1abe
00000110: 7570 1cbd 69f6 413c b3de cebd 04b5 12be
00000120: 51bd 39be 8719 003e d040 a8bd 5367 053d
00000130: 4f88 fdbd 83e4 a7bd 7ec6 c33d d7d2 fc3c
00000140: 10a7 31be 66db a93d 6a58 8539 e544 90bd
00000150: f2e6 d5bd 52d9 0e3d bea4 d1ba a72e 88bd
00000160: c0f3 2d3d 5a8c 8ebd 90c1 9dbc a1fc ea3d
00000170: 65cc 48bd 03f9 053e 710c d03d bcf6 4abd
00000180: e4d6 cbbd bcae d63c e197 2a3d 1918 83bd
00000190: 3353 a3bb c6ec cf3d b660 5a3d 6963 e5bd
000001a0: b0aa ed3d 955f 0bbe c3af 17be 094a b4bd
000001b0: cf70 b63d f941 0dbc 5986 633c 091b 0bbe
000001c0: 519c ae3d 17f7 d9bd 402a 48bc 8070 6fbc
000001d0: cd00 9fbd 1d27 bebc 9474 0dbe 1c6c 9bbd
000001e0: ad61 0d3c 9c00 42be 1c6d 32be aaf1 8c3d
000001f0: 64de eebd 231d d6bd bd33 d8be c08b aa3d
00000200: 87a7 243d 45db 933d 1e5a 913e 32a2 4f3e
00000210: 9ef9 e4bd 6b34 19be 35b6 953d e2fe 383d
00000220: 6ffd 07bc d690 7f3d 5a9b 19be 6fc6 5f3b
00000230: 02aa b4bb 5b75 b8bc 568a 8b3d 8f42 9ebe
00000240: 5017 f33d 5928 963b 6857 d73b 1f02 70bd
00000250: 4d5a 06be 02a8 a83d 8a67 0a3d 6c8e 313e
00000260: 66a9 5f33 578f e63d 242c f3bd 5ef3 dbbd
00000270: c3f7 d6bd 1801 71b9 dd2d f53d 47de 4c3c
00000280: f3a4 943d 5bfe 963d 23b9 1d3c 11e7 53be
00000290: 031a 14be 184a 79bd e854 46bc 901d 9b3d
000002a0: b195 f43c d6d9 2fbd 4ee2 d0bd c9c7 bebc
000002b0: dcad 22bd 1bf5 8c3c 2a72 2d3d e853 f5bc
000002c0: afc9 a43d 3571 53be 8434 9bbd d868 5ebc
000002d0: 56fc 00be 00f6 1f3d bffb 1c3e 4d95 97bc
000002e0: 2872 82bd 7565 433e 22db 553d e573 7cbd
000002f0: 8b57 643d 0f6b 04be 3b6f aa3d 2d23 713d
00000300: 186f 0dbe 0ef9 8ebd d7a1 893b f063 ae3d
00000310: 29fd c6bc c1b8 803c 9cc6 8ebc 9166 cdbd
00000320: 2da6 b53c 081b 14be 4ccd 16be ca40 a8bd
00000330: f006 a8be bd95 2a3e 114d 33be 4a3f c1bc
00000340: 9dae 2d3e 4522 9a3d b0bb 80bc 363c 37be
00000350: 9cf7 103e 24a9 913d 0953 10bd 0ba4 bd3c
00000360: cf6c 26bd 704e 6c3d 4a16 843c eb03 21be
00000370: 914d 0ebe 5761 653d 5b14 a7bd 79a1 b1ba
00000380: 3bc4 8bbe 4c1f 093d abf4 893c fa0a 8e3c
00000390: 590f 81bd a138 02bd 8b11 b33c 0b88 063e
000003a0: dd7a 0ebe 87dc 883d fac1 d2bd 00d5 99bd
000003b0: 9ee9 f13c 6fa6 943d ebde 9ebd 523f 30be
000003c0: 8061 8abd fb19 60bd 3cb3 5a3d 796d 9fbd
000003d0: 91f4 a3bb c130 b7bb bcb1 7e3d c7d1 44be
000003e0: 1126 36be 9090 b1bd 6c3b 613d 3adc 4cbc
000003f0: 3c34 3f3d a5a0 3abd d272 53bc e266 72be
0.12476515 0.01261738 -0.015224717 0.033292834 0.006008774 -0.0056092083 -0.35266584 -0.33285695
-0.031054663 0.027766116 0.042442594 0.17927651 -0.04174956 -0.024430428 -0.1015913 -0.054281212
-0.030321771 0.16750816 -0.22991323 -0.10687599 -0.058507655 0.058680926 -0.16339065 0.004114772
-0.057471648 0.05452084 0.15814865 -0.08463343 -0.009402346 -0.19561018 -0.14910427 0.026072994
0.028497867 -0.00965813 -0.043209676 0.017683104 -0.21569386 0.13908754 -0.05324623 -0.10204872
-0.107118316 -0.0030440209 0.0039305463 -0.093930855 0.086098075 0.1059978 0.09063364 -0.01180142
0.034080807 -0.07485648 0.06613467 -0.17081572 -0.07726504 0.10942687 -0.12064614 -0.16783991
-0.19152325 0.074264206 -0.15436111 -0.08473824 -0.007428942 0.063930966 0.039198566 0.05754778
0.055329792 0.087344564 0.007815696 -0.15135103 -0.038193185 0.011838534 -0.1010107 -0.14326864
-0.18138625 0.12509738 -0.08215487 0.03256924 -0.123795144 -0.08197882 0.09559344 0.030862255
-0.17348886 0.082938 0.0002543361 -0.070443906 -0.1044444 0.03487522 -0.0015994532 -0.06649523
0.042468786 -0.06960364 -0.019257337 0.114739664 -0.04902305 0.13083272 0.10158623 -0.04955171
-0.099530965 0.026206367 0.04164875 -0.06401081 -0.0049842834 0.10152583 0.053314887 -0.112006016
0.11604822 -0.1361068 -0.14813142 -0.088031836 0.08908235 -0.008621686 0.013887011 -0.13584532
0.08525909 -0.10642832 -0.012217104 -0.014614224 -0.077638246 -0.02321201 -0.13814002 -0.075889796
0.008629245 -0.18945545 -0.17424434 0.06882031 -0.116635114 -0.10454776 -0.42226973 0.083274364
0.04019883 0.07219557 0.28389066 0.20276716 -0.11180423 -0.14961402 0.07310144 0.04516495
-0.008300169 0.062393986 -0.15000668 0.0034145375 -0.0055134306 -0.022516897 0.06813495 -0.30910155
0.11869681 0.0045824465 0.006571699 -0.058595773 -0.13120385 0.0823517 0.03379015 0.17339486
5.20753e-08 0.11257809 -0.118736535 -0.10739778 -0.104964755 -0.00022983958 0.11971638 0.012504167
0.07258024 0.07372733 0.00962666 -0.20693614 -0.14463048 -0.060861677 -0.012105204 0.07573998
0.029856535 -0.042932354 -0.10199414 -0.023288624 -0.039716586 0.01720672 0.042345203 -0.029947236
0.080462806 -0.20648654 -0.07578376 -0.013574801 -0.12596259 0.039052963 0.15330409 -0.01850381
-0.0636943 0.19081672 0.052210934 -0.061633963 0.05574755 -0.12931465 0.08321997 0.058871437
-0.1381191 -0.06981097 0.004200201 0.08515155 -0.024290638 0.015713098 -0.017428689 -0.100293286
0.022173965 -0.14463437 -0.14726752 -0.082154825 -0.32817793 0.16658683 -0.17509867 -0.023589749
0.16961141 0.07526068 -0.015714496 -0.17894062 0.14156955 0.07112339 -0.03523544 0.02314951
-0.04063111 0.05769199 0.01612391 -0.15724151 -0.13896777 0.056001034 -0.081581794 -0.0013552151
-0.2729815 0.033477113 0.0168403 0.017339218 -0.063017555 -0.031792287 0.021858951 0.13137834
-0.13914056 0.06682687 -0.10290904 -0.0751133 0.029530343 0.07258307 -0.07757362 -0.17211655
-0.06756878 -0.054712277 0.053393587 -0.07784552 -0.00500352 -0.0055905287 0.06218122 -0.19220649
-0.17787959 -0.08670151 0.05498831 -0.012503678 0.046680674 -0.04556336 -0.012905793 -0.23672059

v2.0.bias f4 [128]
00000000: cff4 083d 2292 19be a3ee 143e d87b 7cbd
00000010: fcb3 63be cc1f 8e3e 24f6 3b3e cfb4 02be
00000020: 49ad 36be 3c25 c0bd d382 a13e 1c5e 333e
00000030: 9b96 60be 8e3b 963e b28b 963e 52b2 513e
00000040: 73a1 38be 65e3 ed3d e785 34be 5b77 4bbe
00000050: 3407 3d3b 5435 293d 9be7 24be d012 98bd
00000060: c591 123e 329d e43d aa67 29be 51b6 303e
00000070: 4801 d9bd f425 6e3e ce8a 2abe 6263 f0bc
00000080: 5922 b9bd dd37 0c3e 5908 843d fef2 2abe
00000090: d1e2 0bbe e8a2 fc3c 44e6 2f3e 0ee6 c1bd
000000a0: 835e a53d 9c69 ed3d 9944 b9bd da13 ce3d
000000b0: a469 423e 225c cf3e b68a b9bd 67a2 c33e
000000c0: 945c 85bd 03d3 46be 7e0d 1abd a25d 373e
000000d0: 0cf7 a83d f618 0ebe 465b a1bd 8b1e 56bd
000000e0: d777 fe3d 215c bc3e 4ab4 a43e 1bdf a9bd
000000f0: 7292 39bd 70d1 2fbe af38 dbbd af1a 6ebe
00000100: 4d2b 313e 310f bdbd 561c 823d ebf9 2c3e
00000110: 32b3 453d a73d 733e 6d79 d7bd 6901 683e
00000120: 665d ad3d 869d 16be 9326 02be 2b50 c83e
00000130: f00f 6fbd 0eaf 633e 8789 38be dafd 66bd
00000140: 0ed8 fd3d ab70 803e 15bc f4bc cebb 56bd
00000150: 5f35 1dbc 2026 113d cf02 58be 9e14 ab3d
00000160: c6b0 813d 527d 3fbd a8c5 013e 439e a53e
00000170: d8b6 55be 942d 943e 3764 0abe fc2e 47be
00000180: d773 e13e fcb7 0f3e 190f c8bd 1d84 593e
00000190: 4b44 383e 6b54 58bd 019d 2bbe 71c1 253e
000001a0: 65aa 373e bc9d b93e 7b41 163e e8a7 753e
000001b0: 4676 4ebe 69d3 073d e165 afbd 79c4 f1bd
000001c0: 33b4 3abe 5ec3 4b3e e5b2 babd e358 ac3e
000001d0: 6870 493e 1781 623e e7c9 c8bd 2531 833e
000001e0: 73af 633e 92f4 59bd 8ec3 89bd ed99 803e
000001f0: 5d77 923d d006 50be 5545 f5bc 4bb0 6a3e
0.033436593 -0.14997151 0.14544158 -0.061641544 -0.22236627 0.27758634 0.18355614 -0.12764286
-0.1783954 -0.09382102 0.31545123 0.17516369 -0.21932451 0.29342312 0.29403454 0.2047818
-0.18030338 0.11615638 -0.17629205 -0.19869749 0.0028843405 0.041310623 -0.16103975 -0.07425463
0.14313419 0.11162795 -0.16543451 0.17257048 -0.105959475 0.23256665 -0.16654512 -0.029344264
-0.090397544 0.13693185 0.06446905 -0.16694257 -0.13660742 0.030839399 0.17177683 -0.094677076
0.08074667 0.11592409 -0.09046287 0.1006238 0.18985611 0.4049998 -0.0905966 0.3820984
-0.065117985 -0.19416432 -0.037610523 0.17906812 0.082502455 -0.1387671 -0.07878737 -0.05227522
0.124252014 0.3678904 0.321688 -0.08294507 -0.045305677 -0.17169738 -0.10704171 -0.23252366
0.17301674 -0.09231413 0.06353061 0.16892211 0.048266597 0.23753987 -0.10521207 0.22656788
0.0846508 -0.14708528 -0.12710027 0.39123663 -0.05836481 0.22234747 -0.18021213 -0.056394435
0.12394725 0.2508596 -0.02987484 -0.0524252 -0.009595244 0.03543675 -0.21094821 0.08353542
0.06332545 -0.046750374 0.12673056 0.32347307 -0.2087053 0.28941023 -0.13514791 -0.19451517
0.4403369 0.14035028 -0.09768505 0.21241803 0.17994802 -0.052814882 -0.16759111 0.16187073
0.17936094 0.36253154 0.14673416 0.23989832 -0.20162305 0.0331606 -0.08564354 -0.11805052
-0.18232803 0.19898745 -0.09116153 0.33661565 0.19671786 0.22119556 -0.09804135 0.25623432
0.22234897 -0.053211756 -0.06726752 0.25117436 0.07151673 -0.20315099 -0.029940287 0.22918813

v2.2.weight f4 [1, 128]
00000000: ad45 6bbe 4e59 7cbd ce04 913d a956 00bd
00000010: 6864 0ebe b8dd 8d3d e209 133d e2d2 29bd
00000020: 39c3 56bd 4729 59bd 7c9c c53d 57e4 1d3d
00000030: 5b36 61bd 3305 8f3d d579 b13d 013c 9d3d
00000040: cc07 1dbd e7fb 823d 73ee 0dbe 558c 9fbd
00000050: a184 3a3d 6fae a33c 796b 67bd 97cc 51bd
00000060: e260 5f3d 8b0f 0f3d 731b 84bd 671f 3f3d
00000070: 6ccb afbd 294e 873d 2f17 b2bd c4d2 3abe
00000080: bd4c 9fbd 185c 4c3d 51df 993d bcc3 31bd
00000090: 4e7c 8cbd 8e4b 923d 7276 1c3d 43d2 e0bd
000000a0: 281d d43c 1e0a 5d3d 4f3a 55bd ef9f 193d
000000b0: 5fd3 a23d 764f 013e 7dab 34be 5746 cd3d
000000c0: d578 a7bd ebac 15be a125 36bd 0247 9b3d
000000d0: cad5 403d 9e93 9cbd 18da 23bd fde1 21be
000000e0: 58bd 163d 3792 e03d c8c1 8f3d 1489 61bd
000000f0: 509d 6abb 34d0 eabd d1c7 acbd 90fb 66bd
00000100: 8d62 5d3d 3ea9 67bd d2e8 a83d ad01 5d3d
00000110: 530e 7e3d 4cea 173d b534 35bd 96c8 ae3d
00000120: cd82 983c c6b3 99bd 9c26 42bd aa8e bf3d
00000130: 6c19 55bd 6c99 a03d 80a6 afbd b5d2 4f3d
00000140: 74c3 b63d 1ab6 973d e08c 67bd f5d5 1a3d
00000150: 851d bc3d 09b7 7d3d 6047 8ebd 0a4c 333d
00000160: 3bbd 7c3d 7040 48bd e43b 383d 512b be3d
00000170: b7a8 81be 7765 c73d 7cb3 40bd 5f11 96bd
00000180: a95b 283e 79e2 063d df96 82be 8465 993d
00000190: dad9 643d 13e0 1ebd f6a9 1dbd 7197 743d
000001a0: 30b0 c73c 160b dc3d a666 1a3d a86d b93d
000001b0: 1be4 91bd d4ba 0f3d 7310 dabd b2dd d0bd
000001c0: 24d3 8bbd 1b89 c23c 5644 1bbe fe91 9d3d
000001d0: e473 543d c376 8c3d 728b 4bbd 7de8 143d
000001e0: 52d7 9f3d cc8c 9cbc e9b9 52bd b7cf 463d
000001f0: 0ceb 4e3d 8161 00be d760 37bd 9259 8a3d
-0.22975798 -0.061608605 0.070809945 -0.031332646 -0.1390549 0.06927055 0.035898097 -0.04146088
-0.052432273 -0.05301788 0.09648988 0.03854784 -0.054983478 0.069834135 0.08665816 0.076774605
-0.038337514 0.06395703 -0.13860492 -0.07790438 0.04553664 0.019980637 -0.05649898 -0.051220503
0.054535754 0.034926932 -0.06450548 0.046660807 -0.085837215 0.06606705 -0.08695828 -0.18244463
-0.077783085 0.049892515 0.07513297 -0.043399557 -0.06859647 0.07143317 0.038198896 -0.10977604
0.025892809 0.053964727 -0.05205756 0.03750604 0.07950472 0.12627968 -0.17643543 0.10023182
-0.08177344 -0.14616744 -0.04446948 0.07581903 0.047078885 -0.07645343 -0.040002912 -0.15808864
0.036801666 0.10965388 0.07019383 -0.05506237 -0.0035799332 -0.11465493 -0.084365495 -0.056392252
0.054049063 -0.056557886 0.08247532 0.053956676 0.06202538 0.037088677 -0.04423972 0.085343525
0.018617058 -0.07504992 -0.047400102 0.09353383 -0.052026197 0.07841763 -0.08576679 0.050738055
0.089239985 0.0740778 -0.056530833 0.0378017 0.09185318 0.061942134 -0.069472075 0.04377369
0.0617039 -0.048889577 0.04497899 0.09285606 -0.25324032 0.0973615 -0.04704617 -0.07327532
0.16441216 0.032930825 -0.2550573 0.07490066 0.055871822 -0.038787913 -0.038492166 0.05971474
0.024376005 0.10744302 0.03769555 0.090541184 -0.07123586 0.035090283 -0.10647669 -0.10198535
-0.06827381 0.023747018 -0.15162787 0.076938614 0.051868334 0.068585895 -0.049693532 0.03635453
0.07804741 -0.019110106 -0.05144683 0.048537936 0.050517127 -0.12537195 -0.044770088 0.067553654
