ppo_actor_model_weights.pth (torch, 88820 bytes, 7 tensors)

cov_mat f4 [4, 4]
000000 28 9c d7 42 07 14 cf be 53 2a cf be b4 82 cf 3e
       107.80499 -0.40444967 -0.40461978 0.40529406
000010 08 14 cf be c9 9c d7 42 9a 6e d0 be 62 91 d0 3e
       -0.4044497 107.80622 -0.40709382 0.40735918
000020 64 2a cf be a0 6e d0 be 18 9c d7 42 70 e0 cd 3e
       -0.4046203 -0.407094 107.80487 0.40210295
000030 b6 82 cf 3e 71 91 d0 3e 69 e0 cd 3e ed 9c d7 42
       0.40529412 0.40735963 0.40210274 107.806496

mu.0.weight f4 [128, 33]
000000 c6 88 a7 be a5 ec e6 3f 7d 73 40 3f e2 76 98 bf
       -0.32721537 1.8040968 0.7517622 -1.191128
000010 a4 ae a3 bf cd ee 42 3e 12 19 9b 3e 45 60 ba bd
       -1.2787671 0.19036408 0.30292565 -0.09100393
000020 db 2d f5 3f 69 ba f7 3f 78 14 b2 3e 3a 9a f9 3e
       1.9154619 1.9353763 0.3478124 0.48750478
000030 23 73 71 3f cc a8 9b bf 59 2e 40 3f 6e 9f 07 3f
       0.9431631 -1.2160888 0.7507072 0.52977645
000040 fb 41 54 bf 07 7f 20 bf 58 6f d0 3e cd f0 a2 bc
       -0.8291318 -0.6269383 0.4070995 -0.019890213
000050 be 39 f2 bf e1 17 88 bf f7 f4 66 3c 1d 2d 78 bf
       -1.8923872 -1.0632287 0.01409649 -0.9694384
000060 03 fd c7 be 6c d2 cc bf 74 6a 05 3f b9 50 47 3f
       -0.3906022 -1.6001716 0.5211556 0.7785755
000070 19 0f 8c 3e 6a 86 ad 3c aa 48 a5 bc ce a8 af be
       0.2735527 0.021182258 -0.02017625 -0.34308475
000080 8e e9 c3 bf e4 d2 20 be 59 f6 6e 3d 59 bd 9f bf
       -1.530565 -0.15705448 0.058340404 -1.2479659
000090 40 cf 19 bf 0a d0 16 40 12 f9 08 bf 97 2a 91 3f
       -0.60081863 2.3564477 -0.5350505 1.1341122
0000a0 f9 c1 ca 3d eb 7a 40 be bf e8 9a 3d 55 a0 eb be
       0.099002786 -0.1879689 0.07563924 -0.4602076
0000b0 c1 be 81 bf 61 3c 8b 3e 35 fa 08 bc 57 9e 05 3e
       -1.0136338 0.27194503 -0.008360435 0.13048683
0000c0 a8 a4 b0 3e f4 c1 a6 3e 7f de da bf 87 32 95 bf
       0.34500623 0.3256985 -1.709915 -1.1656045
0000d0 93 5a a8 3e e0 21 19 3f 68 73 bd bd b5 63 0e bf
       0.32881603 0.59817314 -0.092505276 -0.5562089
0000e0 f6 8f c2 3e 85 2f 55 bf 5d da 97 3f ae 88 f9 3f
       0.38000458 -0.83275634 1.1863514 1.9494836
0000f0 3c 64 e7 bf 48 52 be 3f 4f 07 36 3f 5e 69 04 bf
       -1.8077464 1.486886 0.711049 -0.5172328
000100 d3 8e bd 3f 67 0a 2c bd 61 b2 88 3f dc 56 60 3f
       1.4809211 -0.042002108 1.0679437 0.87632537
000110 96 cc 92 be 7d 65 a7 3f 5d 87 5b 3e 45 d9 a2 bf
       -0.28671712 1.3077847 0.21438356 -1.2722555
000120 39 54 64 3f 1f 6b 81 bd b2 d7 47 3f f8 ea bd 3d
       0.89191014 -0.0631926 0.780635 0.09273332
000130 95 8b 9c bf 9c 1b 1d 3f 87 2a a8 be a8 62 8e be
       -1.2230097 0.61370254 -0.32844946 -0.27809644
000140 4f 03 62 be 37 21 94 3f 76 b7 39 3f 7c d6 88 3f
       -0.22071575 1.1572636 0.72545564 1.0690455
000150 66 89 a3 bf 0a f5 30 bf b7 13 78 bf f8 38 cf be
       -1.2776306 -0.691239 -0.9690508 -0.4047315
000160 33 29 27 c0 7d ea 40 be a7 f7 c1 3f 43 f3 e3 3e
       -2.6118896 -0.1883945 1.5153702 0.4452153
000170 66 e1 0c c0 ea ff 3a 3d 2f f3 f8 be 32 ff 70 3e
       -2.2012572 0.045654215 -0.48623034 0.2353485
000180 bc 57 9e bf 40 4b 7b bf fd fa 7b bf b8 1c 53 3d
       -1.2370524 -0.981617 -0.9842985 0.05154106
000190 0d 01 ad 3f ec c8 40 3f 8b c3 f9 3f 96 e6 b5 be
       1.3515946 0.7530658 1.95128 -0.35527486
0001a0 e2 11 81 bf c3 ac 9e 3e 36 c9 d8 3e 38 b4 5d 3f
       -1.0083582 0.30991182 0.42341012 0.86603117
0001b0 eb a2 81 bf 66 8d 9a 3f 45 54 99 be e0 d0 ce 3f
       -1.0127844 1.2074401 -0.29947105 1.6157494
0001c0 c0 0a 1a bf bf 10 24 3f 00 7b 1f 3f 66 91 75 bd
       -0.60172653 0.6408805 0.6229706 -0.059953116
0001d0 4a 0c d7 3e b1 a7 b1 bf b8 fd 4b bf 8f d7 fc 3f
       0.42001563 -1.38793 -0.7968402 1.9753283
0001e0 c1 c1 e7 be ed 93 68 3f fd 86 26 3f de 74 cf 3e
       -0.4526501 0.90850717 0.65049726 0.4051885
0001f0 bb f3 52 3f 83 f4 a7 bf f5 27 8a 3f fa 2a 0c 40
       0.82403153 -1.3121494 1.0793444 2.190123
000200 b4 f2 a2 bf 8f 22 12 3e e4 5a 55 3f aa 8c c0 3f
       -1.2730317 0.14270996 0.83341813 1.5042927
000210 8e 39 e2 bf 43 74 19 3f 0b 83 90 3f 93 16 85 bd
       -1.7673814 0.59943026 1.1289991 -0.06498446
000220 b3 9c d2 bf 49 ed 6e 3e fc da 99 bd c8 52 2c be
       -1.6454071 0.23332705 -0.07512471 -0.16828454
000230 0c 51 b9 be a4 6e df 3f 9d 45 81 3c 54 70 6d 3e
       -0.36194646 1.745564 0.015780265 0.23187381
000240 b0 60 20 be 33 0b 84 3f 69 9b 99 bf 0a b1 e1 bd
       -0.15661883 1.0315918 -1.2000552 -0.11020096
000250 90 0c 25 3f 59 46 f4 3d 97 e4 5c 3f f1 79 c5 bf
       0.64472294 0.1192748 0.862863 -1.5427839
000260 04 ff b5 be 20 60 77 bf 7a 78 da 3f 2c 06 44 bf
       -0.35546124 -0.9663105 1.7068017 -0.7657192
000270 a4 0f db bf ca 18 7f 3f e1 92 ce 3e ae a2 00 bf
       -1.7114148 0.996472 0.40346435 -0.5024823
000280 2e 23 d5 be 9b 71 cc be 01 20 c7 3d 41 c1 9d bf
       -0.41628402 -0.39930424 0.09722901 -1.2324601
000290 97 b4 07 3e a0 68 a1 3e 29 ab 57 40 3b e8 08 c0
       0.13252483 0.31525135 3.3698218 -2.1391742
0002a0 14 33 b7 3f 45 50 f7 bd ee a2 f8 3e b0 33 e2 bf
       1.4312463 -0.12075857 0.48561805 -1.7672024
0002b0 d9 52 95 bf d3 b0 8d be b9 87 81 bf d6 d5 97 bf
       -1.1665908 -0.2767397 -1.0119544 -1.1862133
0002c0 51 77 98 be ee fc 15 3e f9 57 87 bf 75 cc ad 3f
       -0.2977853 0.14647266 -1.0573722 1.357802
0002d0 65 42 98 3e 7f 46 9f 3e 18 85 dc 3d 1b 5f b6 be
       0.29738155 0.31108472 0.10767573 -0.35619435
0002e0 a9 5c f2 be ef 01 2e 3c 64 b7 74 3f 1d c4 59 3f
       -0.4733632 0.010620578 0.9559233 0.8506487
0002f0 6b da ff 3e a9 6b 98 3f 61 7f d7 be b9 e9 b4 3f
       0.49971327 1.1907855 -0.4208937 1.4133826
000300 71 79 cc be 29 c7 d2 3b 26 e3 91 be 7c d5 c0 bf
       -0.39936402 0.006432433 -0.28493613 -1.506515
000310 99 45 28 3f 99 24 21 3f 56 51 d8 3f 78 bb 09 ba
       0.657312 0.6294647 1.6899822 -0.000525407
000320 de 0b 85 bf e3 42 1e c0 53 b3 25 3e a3 b9 20 bf
       -1.0394247 -2.4728324 0.16181688 -0.6278326
000330 13 9f 59 bf 3b a6 87 3f 3e 0f 82 bf a9 d8 a9 3e
       -0.85008353 1.0597605 -1.0160902 0.3317311
000340 bf 03 87 3f a2 1f 8b bf 37 2e 90 3f 24 b7 98 be
       1.0548018 -1.0869029 1.1264104 -0.29827225
000350 5c 1d f5 be 15 1d 86 3e 36 87 8b 3f 21 24 84 3e
       -0.47873962 0.26194063 1.0900638 0.25808814
000360 a7 12 9a bf 04 25 d4 bf 50 73 6d 3f a8 e8 64 be
       -1.2036942 -1.6573796 0.9275408 -0.22354376
000370 d7 97 5f 40 fa 08 e2 3f d2 07 a8 be 90 14 dd 3f
       3.4936426 1.765899 -0.32818466 1.72719
000380 c1 a4 9a 3c 71 76 4d 3b 2c 7e 4b c0 00 e7 40 3f
       0.018877389 0.0031351114 -3.179576 0.7535248
000390 a1 e8 d2 3e b7 8d a8 bc 56 87 54 3f 9b de 82 bf
       0.41193107 -0.020575387 0.83019006 -1.0224184
0003a0 ef 8c 00 bf 5b 07 60 bf 42 7d dc be 8c 3e 48 3f
       -0.5021505 -0.87511224 -0.43064314 0.7822044
0003b0 c1 18 10 3f da 95 30 bf 5a 16 05 3e 09 cc 80 bf
       0.5628777 -0.68978655 0.12996808 -1.0062267
0003c0 9a 1a fb 3c 38 04 16 bf 57 c3 e9 bd d5 94 c5 3f
       0.030652333 -0.5860019 -0.11414211 1.5436045
0003d0 d7 c3 0d bf bc 67 b5 3e 24 6e 13 bf c1 84 83 bf
       -0.5537695 0.35430706 -0.57589936 -1.0274888
0003e0 66 19 c5 be 35 d1 47 3f 8f 7a 69 3f 7b fb 24 3f
       -0.3849594 0.780536 0.91202635 0.6444623
0003f0 f1 0d 5c bf 8e 77 dc be 4b 65 b4 3d a6 43 41 be
       -0.8595877 -0.43059963 0.088083826 -0.18873462

mu.0.bias f4 [128]
000000 a6 9b 40 bd 3c c3 81 3d ec 66 92 3e 05 d2 e9 bc
       -0.047023438 0.06336066 0.28594148 -0.028542528
000010 56 d3 64 bd 12 d0 68 3d 63 56 4e 3d 32 f9 db bd
       -0.05586561 0.056839056 0.050375354 -0.107408896
000020 22 f1 a0 bd b1 b4 25 bc 41 7f 9c 3d fb a1 fe 3c
       -0.078584924 -0.010113881 0.07641459 0.031083098
000030 ae 74 38 3d 72 20 a3 bd 8e 69 5f 3c b6 60 0d 3d
       0.04503315 -0.07965173 0.013636006 0.03451606
000040 46 6f 53 3e 79 37 e8 3d 6b 56 1b be 8f 98 4b 3e
       0.20647916 0.113387056 -0.15169685 0.19882415
000050 17 a3 07 3e 29 db e1 3e 4f ec 89 be 44 be 57 be
       0.13245808 0.44112518 -0.26938102 -0.21068674
000060 ee ad f1 3d 4f 2f 82 3e 91 d6 67 be 6b 95 e0 3b
       0.118007526 0.2542672 -0.22640444 0.0068537495
000070 e6 34 82 3d 5e e9 2c 3d e3 3a a9 3e 39 cb 31 3e
       0.06357746 0.042214744 0.3305274 0.1736268
000080 da f8 a9 3c 0e ee b1 3d 9b a1 28 3d 12 8c fe bc
       0.020748544 0.086879835 0.041169744 -0.03107265
000090 0b 6b 82 be b3 0b 1e be eb ba 50 3d 7e b7 49 3e
       -0.25472292 -0.1543415 0.05095951 0.19698903
0000a0 c7 24 9f be a7 09 13 be dc 48 e4 bd 2a 39 27 be
       -0.31082746 -0.14359151 -0.11146709 -0.163304
0000b0 84 cf f9 3c ca 3d b6 3e 99 0a bc bd 5b 1d 16 be
       0.030494459 0.35594016 -0.09181709 -0.14659636
0000c0 8c c6 48 be 78 32 cc 3b cb 54 8e be 6f 20 1c be
       -0.1960699 0.0062316023 -0.27799067 -0.15246747
0000d0 a0 61 dc 3c b2 df 57 be 09 33 16 3d 37 5c 0a be
       0.02690202 -0.21081427 0.036669765 -0.1351174
0000e0 d3 8b d1 3d ba ba 65 3e 26 03 96 be 3d e4 00 bd
       0.102317475 0.22434512 -0.29299277 -0.031467665
0000f0 0d 57 03 be 90 a0 22 be 6c 3d 9d be 74 db 89 3c
       -0.12826176 -0.15881562 -0.30710924 0.016828276
000100 ff f4 f6 bc ea 0f 1c 3e d9 db c1 3e 2e 8d a4 3d
       -0.03014612 0.15240446 0.37863043 0.080347404
000110 29 ae d1 3d bb a2 aa 3d 9f ac d9 bd 8e c3 c8 3d
       0.102382965 0.083318196 -0.10628628 0.09802924
000120 e7 42 14 be 3b 95 73 3d db 6f 19 3e 0a fc 0d be
       -0.14478646 0.05946849 0.14984076 -0.13865677
000130 25 1d d6 3d 16 df 07 bd 4f ac 54 3e b4 bb 7d 3d
       0.10454778 -0.033171736 0.20768856 0.061946586
000140 3b 10 ea bd 17 5d 94 3e 53 fd 55 bd a0 71 92 be
       -0.11428877 0.28977272 -0.052243542 -0.28602314
000150 86 d0 9e 3d ea 98 e6 bc 10 49 b6 bd 35 d5 96 3e
       0.077546164 -0.028149087 -0.08900654 0.2945954
000160 31 b8 5b 3e 5f 3b 31 3e e9 9e 3d be 61 22 11 bd
       0.21456982 0.17307805 -0.1851765 -0.035433177
000170 61 20 01 be 1f 4b ec 3d 51 76 84 be 86 a1 8f 3e
       -0.12610008 0.11537766 -0.25871518 0.2805292
000180 ad e6 7d 3d 53 1a 99 3b 79 99 0d 3e 73 bb 29 be
       0.061987568 0.0046723275 0.13828076 -0.16575412
000190 c6 22 c8 3c 6f a0 b1 3d f8 0c d0 3d 7c f4 85 be
       0.024430644 0.086731784 0.101587236 -0.2616309
0001a0 66 4b c4 3d 9e a2 bf bd c9 a0 40 3e f0 c1 ed 3d
       0.095846936 -0.09357189 0.18811335 0.11609256
0001b0 65 4b 81 be 70 86 7f be b3 11 b3 bb 8d c4 00 bd
       -0.25252834 -0.24953628 -0.0054647564 -0.031437445
0001c0 98 08 bb 3d 62 10 c9 bd cd b9 c2 bd d9 1c 1f be
       0.091324985 -0.09817578 -0.09508095 -0.15538348
0001d0 29 1e 8f bd b2 75 58 3e 38 d7 95 be 5d 7f 5a 3d
       -0.069881745 0.21138647 -0.2926576 0.05334412
0001e0 d7 27 f6 be 42 ae 9f 3d 79 d7 bb bd 5e 3d 63 be
       -0.4807727 0.07796909 -0.091719575 -0.22191378
0001f0 50 fa b2 3c 06 7e 7c 3e 5f f7 3d 3e 2c 8b 91 3b
       0.021847874 0.24657449 0.18551396 0.0044416394

mu.2.weight f4 [128, 128]
000000 b5 36 05 3d b3 a8 48 3f cf 28 04 bf 76 c3 e5 3f
       0.032522876 0.78382415 -0.5162477 1.7950275
000010 56 85 04 3f 31 a0 15 40 15 74 fc be b7 f1 73 3f
       0.51765954 2.3379023 -0.49307314 0.952907
000020 d1 44 a2 be dd 99 35 3f 95 b1 78 bd 2f 72 72 be
       -0.31693128 0.709379 -0.06071623 -0.2367637
000030 a4 09 ae bd df 3f 6b 3f e5 17 ae be 60 5d ac bf
       -0.084979326 0.91894335 -0.34002605 -1.3465996
000040 bb 02 40 bf de f3 b8 3e e3 ee 41 bf da 8d d7 bf
       -0.75004166 0.36123556 -0.7575514 -1.6840165
000050 46 b6 2f bf 5b 66 3e 3f 6f 7f 9c 3e 03 79 88 3f
       -0.686375 0.7437493 0.30565974 1.066193
000060 d8 bb a3 3e d6 95 bf bf a4 66 f0 be 03 3e b0 3f
       0.3197925 -1.4967601 -0.4695331 1.3768924
000070 f3 e9 e6 3f e8 03 0c bf fd c8 1f 40 a1 c4 59 3f
       1.8040146 -0.5469346 2.4966424 0.85065657
000080 00 00 35 bf 9a 92 3d 3f e3 96 b7 3e 27 a5 60 3f
       -0.70703125 0.7405182 0.35857305 0.87752
000090 45 56 a0 bf 55 e1 0d be 5e 71 b0 bf 12 9d 25 3f
       -1.2526327 -0.13855489 -1.3784597 0.64692795
0000a0 04 ce e6 3e 6c ea 11 be 9a 82 ba bf dc 2c 78 3f
       0.45079052 -0.14249581 -1.4571106 0.9694345
0000b0 fa 1b 14 3f 67 a1 ea 3e 2b 5f 89 bf e9 26 0f c0
       0.5785519 0.45826265 -1.0732168 -2.23675
0000c0 31 b8 5c be 61 cd 1a 40 0d f4 09 3f 6b 02 cb bc
       -0.21554638 2.4187853 0.53888017 -0.024781426
0000d0 7e b2 0a 3f 83 ce 23 be c2 dd d8 bf 6c 13 94 3f
       0.5417861 -0.15996747 -1.6942675 1.1568427
0000e0 3f 2a 86 be 34 40 9b 3f 5f ad fa 3e d0 60 9e be
       -0.26204106 1.2128968 0.48960397 -0.30933237
0000f0 40 d4 7e 3f 2c 57 c1 3f 24 b0 02 c0 f6 4f 58 3f
       0.9954262 1.5104728 -2.0420008 0.8449701
000100 9e 9b 9d 3e 2f a7 96 3f 9f 7b c4 bf 3b de ca 3f
       0.3078279 1.176977 -1.5350226 1.5849069
000110 43 43 a7 be b0 65 26 be e6 9e 5e bf f1 42 a6 bf
       -0.32668504 -0.16249728 -0.8696121 -1.2989179
000120 ac 14 c6 bf 21 f5 2a 3f 8d 8d b6 bf 07 ce 80 be
       -1.5475059 0.6678029 -1.4261948 -0.25157186
000130 09 48 c8 3e 50 a6 c5 bf d8 fd 0f c0 5e ab 39 bf
       0.39117458 -1.544138 -2.2498684 -0.7252711
000140 30 b1 6c bf 03 73 dd bf e2 26 bd be 32 67 ba 3e
       -0.92457867 -1.7300724 -0.36943728 0.36406857
000150 93 bf 2e bf 80 d4 4c 3e 3b bc 3e bf 42 57 67 be
       -0.6826107 0.20002937 -0.74505967 -0.2259188
000160 61 36 c6 bf ac 69 ac be 6a d3 7f 3e cd 35 93 3f
       -1.5485345 -0.3367437 0.24982992 1.1500794
000170 63 1e b9 bb 9b 7a ed bf ea a5 85 3d ea 51 65 3f
       -0.0056493743 -1.8553041 0.06525786 0.89578116
000180 cb b9 c9 3e c4 f3 44 bf 85 06 fd 3e 2d 34 03 c0
       0.3939956 -0.76934457 0.49419037 -2.0500596
000190 95 92 31 3f b8 fc 6c bf ae 29 87 3f 8c 68 87 3e
       0.6936429 -0.9257312 1.0559595 0.2644695
0001a0 41 cf 4e be cf 33 04 3e 2a 65 20 3f 85 27 8a 3f
       -0.20196249 0.12910388 0.62654364 1.079331
0001b0 43 fd ef be 1f c0 0f 3f d5 fe c7 3d e4 58 1f 3f
       -0.4687291 0.5615253 0.09765402 0.6224501
0001c0 1e 30 81 bf 05 f3 4e 3f 6d dc 67 bf ae 19 bf bf
       -1.0092809 0.8083957 -0.9057072 -1.4929712
0001d0 38 85 bd 3d f2 74 b5 3f 22 57 a6 bf 0f 85 f6 3e
       0.09253925 1.4176314 -1.2995341 0.4814839
0001e0 02 35 4c be a7 23 b2 bf c1 de 36 bf 02 33 f7 3e
       -0.19942096 -1.391713 -0.71433645 0.48281103
0001f0 73 b7 fd be 53 ff 1a bf b6 58 ff 3e f6 3f 8b be
       -0.49554023 -0.60545844 0.4987237 -0.27197236
000200 22 9c 2e 3f f8 12 dc 3f 98 96 a9 3e 85 e6 b6 be
       0.6820699 1.7193289 0.33122706 -0.35722747
000210 9c 5f 20 bf d7 5d 82 3f 0c 5f 7e bf ad ad 14 40
       -0.6264589 1.0184888 -0.9936378 2.3231003
000220 54 8e 16 bf 6c 76 87 bf 86 e9 93 3e df 04 80 3e
       -0.58810925 -1.0583014 0.28889102 0.25003716
000230 05 92 7c 3e f7 ee c2 bf 1e e3 46 3f bf 6b 15 3f
       0.24665077 -1.5229176 0.77690303 0.5836753
000240 dd 6f a7 bf b9 83 49 3f a4 64 86 3d d0 4f f1 be
       -1.3081013 0.7871662 0.065621644 -0.47131205
000250 3d d0 9d bf 1c 7f 85 be 1a 4f 06 3f 93 4c 85 be
       -1.2329174 -0.2607354 0.5246445 -0.26034984
000260 2a f8 93 bf 3e 39 a8 3f 5e c7 14 40 77 14 0e 3f
       -1.1560109 1.3142469 2.3246684 0.55499977
000270 b0 08 88 be 6f 8f d8 3d 60 ed a9 bf d3 bb 38 bf
       -0.26569128 0.10574233 -1.3275566 -0.72161597
000280 89 e1 30 3e a2 3a b5 3f 93 6a 27 c0 e7 33 2d 3f
       0.17273535 1.4158518 -2.6158798 0.6765732
000290 fa f8 c8 3d 8d e4 42 bf d2 53 6a bf 8d 10 31 3e
       0.098131135 -0.7612999 -0.9153415 0.1729147
0002a0 54 41 94 3f 6a 47 ee be 19 1e 0e 3f fd 89 0d bd
       1.1582437 -0.4653886 0.55514675 -0.034555424
0002b0 a4 44 87 bf 92 3b ad 3f 7b fd 52 bf 5b 63 9e be
       -1.0567822 1.3533804 -0.8241803 -0.30935177
0002c0 3c 46 1c bc d2 97 61 be e8 c5 7d bf 8c 73 8b bf
       -0.00953823 -0.22030571 -0.99130106 -1.0894637
0002d0 c4 ec ab be 86 14 12 bf 1f f8 bd 3f 1c cb 11 be
       -0.33579075 -0.57062566 1.4841346 -0.14237636
0002e0 03 c7 b2 3e 0e a7 b7 3f d6 7d 98 be f5 5f e4 be
       0.3491746 1.4347856 -0.29783505 -0.4460446
0002f0 8a 8b 44 3e c2 43 32 be 50 f5 c1 be f5 95 c7 3e
       0.19193855 -0.1740866 -0.3788247 0.38981596
000300 46 a4 41 bf fb c1 07 3f 70 47 41 3f 6f a6 be 3f
       -0.75641286 0.53030366 0.7549963 1.4894542
000310 31 38 30 3f a4 56 09 be 6c 14 7f 3f 30 26 33 3d
       0.6883574 -0.13411957 0.99640536 0.04373759
000320 44 7a 9c 3f d3 e8 a5 be 10 27 54 bf 4a 86 ba 3f
       1.2224813 -0.32404193 -0.82872105 1.4572232
000330 2f 7a 9f bf c3 0a 77 be fe 43 c1 3e 7b cb 91 bf
       -1.2459162 -0.24125199 0.37747186 -1.1390222
000340 aa 0b 17 3e ca 88 14 3f 24 16 82 3f b9 d1 96 bf
       0.14750543 0.58021224 1.0163007 -1.1782752
000350 0c 55 fc be de b6 86 3f a5 69 fd 3f 4e 83 bc bf
       -0.49283636 1.0524557 1.9797865 -1.4727571
000360 a1 fb 3f bf 96 57 ed 3e 5d 2c f1 be de ab 50 3e
       -0.7499333 0.46355885 -0.4710416 0.20378062
000370 91 c1 16 bf 79 83 e5 3c 35 9e 0e c0 e6 ad 26 bf
       -0.5888911 0.028016793 -2.2284062 -0.651091
000380 39 37 5b 3f a1 e6 21 40 30 e7 56 bf 90 a4 f5 be
       0.8563114 2.5297015 -0.83946514 -0.47977114
000390 88 fe 87 3f 0a 1e 5e be 60 cd c5 3e a1 d3 52 be
       1.0624552 -0.21691146 0.3863325 -0.20588543
0003a0 58 cf 4e 3e b1 c5 9d be eb 71 e2 bf c1 c0 9e 3f
       0.20196283 -0.3081489 -1.7691015 1.2402574
0003b0 c5 d2 f6 be 56 ba c7 bf a3 30 10 3e 57 47 68 3f
       -0.4820768 -1.560374 0.14081053 0.90733856
0003c0 fb 48 10 c0 7b d5 51 3e 09 c0 b3 bf 24 80 e2 bc
       -2.2544544 0.20491593 -1.404298 -0.027648993
0003d0 80 f2 eb 3e e0 e8 ad bf 68 25 7d 3f f9 c2 22 3f
       0.4608345 -1.3586693 0.988852 0.63578755
0003e0 09 4f 25 3e 80 f3 2b 3f 4f dd 1a 3f 00 27 ab 3f
       0.16143431 0.67168427 0.6049394 1.3371277
0003f0 ab 56 80 bf 19 a4 08 3f bf cb 4a 3f 35 dc 96 bf
       -1.0026449 0.53375393 0.7921714 -1.1785952

mu.2.bias f4 [128]
000000 73 3e 0a bd 36 f2 29 bd f9 b7 98 bc 5e 0a c2 bd
       -0.033750962 -0.041490756 -0.018642412 -0.09474634
000010 7d 38 78 3d 25 ba ca bd 8a 42 18 3f d9 be dd bd
       0.060600746 -0.098987855 0.5947653 -0.10827417
000020 6f f9 71 bd 26 b6 32 be 12 da 1d be 01 9f 84 3d
       -0.05907577 -0.17452297 -0.15415218 0.0647564
000030 3d 99 13 be 36 bf a2 3c 7e 67 02 3e f6 47 01 bc
       -0.14413925 0.019866567 0.12734792 -0.007890692
000040 35 b8 a8 3e 5c 03 3a be 8b 9b 05 be de d1 4e 3e
       0.3295304 -0.18165344 -0.13047616 0.20197245
000050 84 ce 55 be ed 5e 0f be ab 29 52 be b9 ab d2 bd
       -0.2087956 -0.14001055 -0.20523708 -0.1028666
000060 90 e5 31 3c e4 66 bd 3e a4 1c ad bb 14 cd 38 bd
       0.010857955 0.36992562 -0.0052829552 -0.045117453
000070 8a 30 e2 bc 56 e6 21 3d 8e 94 55 be 72 c1 0e be
       -0.027611036 0.039526306 -0.2085745 -0.13940981
000080 96 30 81 3e 92 8a 65 be 58 21 61 be a6 4f 32 bd
       0.2523238 -0.22416142 -0.21985376 -0.04353299
000090 33 b5 b0 3e 19 df 86 3d d6 5e c9 3d d6 0a 58 3e
       0.34513244 0.06585521 0.09832542 0.21097884
0000a0 db 42 10 bd 59 5b 7e 3d 49 ec 44 bc bb cf 7c be
       -0.03522001 0.062098835 -0.012019225 -0.24688618
0000b0 9a 93 11 be be 6b 84 be 80 e3 95 3d 15 89 74 be
       -0.14216462 -0.2586345 0.07318783 -0.23880418
0000c0 27 28 ed bb ac ed 5f 3e d0 07 3b bd 28 66 6c 3e
       -0.0072374525 0.21868008 -0.045661747 0.23085845
0000d0 ae f8 d8 ba 1a c5 bc bd 96 7e 37 3e f3 c7 27 be
       -0.0016553605 -0.09217282 0.17919382 -0.16384868
0000e0 f3 8f 4d 3e 93 4b 58 3d 05 c3 4a be 1e 4d 6e be
       0.20074444 0.05280645 -0.19800957 -0.23271605
0000f0 b6 3a cf bd 61 40 ac 3d c0 57 57 be 13 fb 82 3d
       -0.1011862 0.08410717 -0.21029568 0.06395545
000100 d1 38 73 be a9 d6 17 be d7 29 54 3d 61 2c ac 3d
       -0.23752142 -0.1482798 0.051797714 0.08406902
000110 d7 b3 9a be b7 04 23 bd 40 ab 0e 3e fe 72 4f be
       -0.30215332 -0.03979942 0.13932514 -0.2025871
000120 a3 01 9b bc 54 77 53 3e fd 51 86 3e fb a3 39 3e
       -0.018921679 0.20650989 0.26234427 0.1812896
000130 ca 3f 57 be 42 79 87 bd e5 0a 60 be fb 41 b6 3e
       -0.21020427 -0.06614925 -0.21879156 0.35597214
000140 d5 62 b2 bd f3 f6 1e be 2d 38 2d 3e 69 0a 83 bd
       -0.08710257 -0.15523891 0.1691596 -0.0639847
000150 20 f3 f3 bd ad 89 bb be e9 c0 f8 3d 77 8c 6f 3d
       -0.11911607 -0.36628476 0.1214617 0.058483567
000160 33 a8 9e 3e 73 60 9e 3d 9e f3 81 3e 35 ca 98 3e
       0.309877 0.0773324 0.25381178 0.29841772
000170 eb 4e a6 3d 57 f7 26 bd b5 5c 24 be 4c ba 0c 3e
       0.08120521 -0.040763225 -0.1605099 0.13742942
000180 dc b9 8c be 4d 95 80 be b5 ae af be 9a 7d 0b be
       -0.2748555 -0.25113907 -0.34312978 -0.13622132
000190 b9 25 56 bd a1 c1 cf bc 49 8b 93 bc 5b e0 4e be
       -0.05228207 -0.025360884 -0.018010752 -0.20202772
0001a0 53 1a 02 3e e5 9a a8 3d 62 1c df 3e 09 5b 53 be
       0.12705354 0.08232669 0.43576342 -0.20640196
0001b0 2a 68 97 3c 63 be c3 3e 1b 04 05 be 05 ac 8b 3e
       0.018482286 0.3823119 -0.12989847 0.27279678
0001c0 47 7a c5 bd cf 3e dd 3e dd 88 32 3d 46 4d 71 3e
       -0.09642463 0.43211982 0.043587554 0.23564634
0001d0 f2 fc 4e be ba b3 b0 bd 13 4b b1 3d 4d 24 4a be
       -0.20213678 -0.0862803 0.086568974 -0.1974041
0001e0 b1 f4 b9 bd 9c d5 de bd 86 7a f6 3d 95 10 df bd
       -0.09079874 -0.108805865 0.12035088 -0.10891835
0001f0 9a de cf bd 4c eb 16 3d 2a c9 59 be 0c 62 81 3e
       -0.1014988 0.03684549 -0.21268144 0.25270116

mu.4.weight f4 [4, 128]
000000 fa 3a 22 3d da 71 80 3f 2f 90 ac bd 92 1b 15 3f
       0.039607026 1.0034745 -0.08425938 0.58245194
000010 4d 17 1d 3f 46 b2 83 bf 6a 8e 99 3f 4f d1 e3 bf
       0.6136368 -1.028878 1.1996586 -1.7798251
000020 65 79 a1 bf 00 1e 16 3f bf 56 b4 3d e5 66 00 3f
       -1.2615172 0.58639526 0.08805608 0.50157005
000030 22 de 1c bf 3b 54 00 40 5f ff 75 3f 61 07 9d 3e
       -0.6127645 2.005141 0.9609279 0.30669692
000040 78 da 72 3b aa 47 8b bf 4e 4e 42 bf 66 f6 07 3f
       0.0037056487 -1.0881245 -0.75900733 0.5311035
000050 f9 d3 05 c0 7b 19 58 bf b5 20 a3 bf 5f 0b 74 3e
       -2.0910628 -0.8441388 -1.2744356 0.23832463
000060 6f 63 c9 bf fc e9 d9 3f ab 50 50 bd 50 97 1c bf
       -1.573347 1.7024531 -0.05085818 -0.61168385
000070 e9 89 0a 3f 24 39 af 3f 95 41 cc bf d6 c9 4d 3f
       0.54116684 1.3689313 -1.5957514 0.803861
000080 9c fd 0e bf d3 79 05 3f 10 d4 01 c0 37 12 d8 bf
       -0.5585573 0.52139014 -2.0285683 -1.6880559
000090 af 8c c9 3e 24 a0 61 3f d0 72 49 3f fd a6 da 3e
       0.39365146 0.8813498 0.78690815 0.42705527
0000a0 0b d9 d9 3f 6b a1 91 be 78 fd 43 bf bb 40 64 bf
       1.7019361 -0.28443465 -0.7655864 -0.8916127
0000b0 0c 31 74 bf 7a 15 9f bf 09 a6 1a 3f 8c 0f 9e 3c
       -0.9538734 -1.2428429 0.604096 0.019294523
0000c0 17 b9 82 3f 79 06 23 bf 5f 42 72 3f 23 87 0e 3f
       1.0212735 -0.6368175 0.94632524 0.5567495
0000d0 e6 10 37 bf 9e a9 cb bf 88 6e 2e 3f c7 24 90 bf
       -0.7151016 -1.5911138 0.6813741 -1.1261224
0000e0 60 9c 51 3f 08 5a 8b 3e df 85 e8 be 16 18 fa be
       0.81879234 0.27217126 -0.45414636 -0.488465
0000f0 46 74 a1 bf 93 ac 65 3c 1e 65 8f bf 64 a5 c4 be
       -1.2613609 0.014018196 -1.1202734 -0.38407433
000100 0f ff 29 bf f3 0d fc 3f 94 cb b5 3e 42 5a 54 3f
       -0.66404814 1.9691757 0.3550688 0.8295022
000110 6a c1 92 bf 3d 90 03 bf 5f be a6 be b8 ce ff be
       -1.1465275 -0.51391965 -0.32567117 -0.499624
000120 3e 36 98 bf f9 1f 17 3f 9a 0e 1c 40 a4 de b9 3e
       -1.1891553 0.5903316 2.4383912 0.36302674
000130 8d 90 8c bf c6 f3 2b 3e ae a8 0e 3f d6 1a ea 3f
       -1.0981613 0.16792211 0.55726135 1.828944
000140 8a 2b 00 bf fe 0e b9 3f 78 2e 1f 3f b0 43 84 be
       -0.50066435 1.44577 0.6218028 -0.2583289
000150 fd a1 c0 3f 85 37 e3 bf cd ea b2 3f 4d d6 68 bf
       1.5049435 -1.7751318 1.3977906 -0.90952
000160 ae 07 1b 3f 11 6e a1 bf a0 7c af 3f d6 da 1e 40
       0.60558593 -1.2611715 1.3709908 2.4821067
000170 ba d0 63 3f 0e 93 ee 3f 2c c2 c9 bf 12 ef 84 3f
       0.88990366 1.8638628 -1.5762382 1.0385458
000180 c3 3c 9e bd 6c 30 5f 3f 3a f4 e3 be 7f 34 83 3f
       -0.07726433 0.8718326 -0.44522268 1.0250396
000190 9b e6 8c be 0a 16 3f bf 80 f0 56 3f 1b bb cf be
       -0.27519688 -0.74643004 0.83960724 -0.40572438
0001a0 80 b5 05 3f a9 bc 38 bf e5 9b 86 3f 8d eb 98 bf
       0.5223007 -0.7216287 1.0516325 -1.1946884
0001b0 98 dd b8 3d de b3 dd 3f d8 a7 b3 bd f1 9b 87 be
       0.09026641 1.7320516 -0.08772248 -0.2648616
0001c0 6f 77 c9 bf 55 c7 37 3f 63 6c 06 3f 5c 94 70 3f
       -1.5739573 0.7178853 0.52509135 0.9397638
0001d0 ba 60 a0 bd df 99 a1 3e 05 67 5d be e1 9e 71 3e
       -0.07830949 0.31562707 -0.2162133 0.23595764
0001e0 36 bd 56 3c 54 9c 8a 3e 25 26 41 3f c9 7d 00 bf
       0.013106635 0.27072394 0.7544883 -0.5019193
0001f0 16 b5 00 bf aa dd b2 3f 72 1e d7 bf 73 97 4a 3f
       -0.50276315 1.3973897 -1.6806166 0.79137343
000200 cd 07 7b bf 31 92 f8 be 22 b3 1d be b5 b3 d2 bf
       -0.9805878 -0.48549035 -0.15400365 -1.6461092
000210 25 b2 2c 3f ea 1b 61 bf 45 a2 9b 3f 1f 8d 13 bf
       0.67459327 -0.8793322 1.2158896 -0.5763721
000220 10 7f cf be f0 3c 42 be a2 bd da 3e a6 8d 21 bf
       -0.40526628 -0.18968558 0.42722803 -0.63106763
000230 a8 af 51 3f 57 c0 0c bf a2 de d9 be 8c 13 7e be
       0.81908655 -0.5498099 -0.42552668 -0.24812144
000240 b2 a6 f6 3d 93 8f 9f be 73 d7 63 bf e8 24 b7 3d
       0.12043513 -0.31164226 -0.89000624 0.08942586
000250 47 6f 23 3f 1a 50 67 bd 8d 08 c3 bf cb 82 1c be
       0.6384167 -0.056472875 -1.5236984 -0.15284269
000260 b2 c1 b9 3d aa c8 a2 be b2 ca 5b bf 50 dc 30 c0
       0.090701476 -0.3179372 -0.85856164 -2.7634468
000270 da ef 32 3e 23 6d fe be f9 d5 de bd a1 fa 75 bf
       0.17474309 -0.4969264 -0.10880656 -0.96085554
000280 08 33 55 3f 13 33 80 be a5 8c ea be 5b 1e f4 3e
       0.8328099 -0.25038967 -0.45810428 0.4767941
000290 dc 44 70 3f fa 3b 7b 3f d3 32 3c 3f 6b bc dc bf
       0.9385507 0.9813839 0.7351505 -1.7245001
0002a0 92 d8 06 be eb 52 47 bf d1 07 d5 3c 8b 2d b5 3d
       -0.13168553 -0.778609 0.026004704 0.08846577
0002b0 9e 55 16 c0 d0 7b 9d bf cc 62 48 bf 59 10 c0 3d
       -2.3489757 -1.230341 -0.7827575 0.09378118
0002c0 bd c4 80 bf f8 b6 cf 3f 40 56 87 3f 9d 36 b8 3e
       -1.006004 1.6227713 1.0573196 0.35979167
0002d0 67 7a a2 be 1d 1e 6a 3f 31 e3 0c 40 a3 07 9d be
       -0.3173401 0.914522 2.2013667 -0.3066989
0002e0 73 f9 0f 3f 9c 4c 34 40 b0 38 e6 be 21 bd 00 bf
       0.56240004 2.8171759 -0.44965124 -0.5028859
0002f0 cc bf 0f c0 71 9d ac be 2f 2d d1 3e 72 08 ee 3e
       -2.2460814 -0.33713868 0.40854785 0.46490818
000300 b1 b0 6a be 4a db 53 be e4 85 7b 3f f7 e9 45 3f
       -0.22918965 -0.20689121 0.98251176 0.7731013
000310 5c c7 b6 3e b6 0b bf 3f bd e8 9b 3d 09 bd 03 bf
       0.35698974 1.4925449 0.07612751 -0.5146032
000320 60 01 16 40 35 66 4b 3f a2 01 e3 bc b6 d2 ee 3f
       2.343834 0.7945283 -0.02771074 1.8658054
000330 20 09 31 3f 29 12 3f 3f 9c 78 d1 bf ac 24 15 3f
       0.6915455 0.74637085 -1.6364932 0.5825908
000340 6c 35 53 bf 46 49 ca bf 8e 31 da be d5 df fa 39
       -0.8250339 -1.5803611 -0.42615932 0.00047850484
000350 cf 99 16 bd c4 23 47 bf b4 30 05 bf 0a f6 49 3e
       -0.036767777 -0.7778895 -0.5202744 0.19722763
000360 06 95 7a bf 1c 31 82 be b2 31 fd 3f 99 c0 40 3f
       -0.9788364 -0.25428092 1.9780791 0.7529388
000370 8e 76 9f 3f 75 ad fd 3e 9c 89 34 3f 9e f0 3a bf
       1.2458055 0.495464 0.70522475 -0.730234
000380 67 d4 77 3e e3 47 18 bf 0b 4b 76 bf e8 d5 73 3f
       0.24202119 -0.5948469 -0.96208256 0.9524827
000390 1a 04 8e 3e 7d 9e 27 3f 5d f1 de 3c 13 e4 bd bc
       0.27737504 0.6547621 0.0272147 -0.023180043
0003a0 32 d3 09 3e 1f be 3c 3e 38 0a e6 3e cf 37 2a 3f
       0.13459471 0.184319 0.4492967 0.6649141
0003b0 b8 49 80 bf 33 b4 5e 40 b2 56 cc 3e 8a 55 ac 3f
       -1.0022497 3.4797485 0.39909893 1.3463604
0003c0 38 65 1a 3e 93 cf 3a 3f 66 52 24 3f 2c 57 6d 3f
       0.15077674 0.72972983 0.6418823 0.9271114
0003d0 5c ee 76 3f ae 9f bc 3f 22 69 87 bf 12 c6 31 3f
       0.9645746 1.473623 -1.0578959 0.69442856
0003e0 60 ca e7 be 8a f9 37 bf 20 0e f1 bd d9 2d 6b 3f
       -0.45271587 -0.7186514 -0.11770272 0.9186683
0003f0 d6 a0 cf 3f 6e 39 f9 be 84 56 96 3e 3a 6e 77 bf
       1.6220958 -0.48676628 0.2936288 -0.9665257

mu.4.bias f4 [4]
000000 1d c2 6b 3e 85 ae ab 3d ad 03 86 3e 80 c8 92 bd
       0.23023267 0.08382896 0.2617468 -0.071671486
