ppo_critic_model_weights.pth (torch, 86898 bytes, 5 tensors)

v.0.weight f4 [128, 33]
-0.06615175 0.1045626 -0.095726654 -0.93543595 -0.37724078 0.029001111 0.35413763 -0.039415203
0.25791684 0.04851406 0.0039345166 0.031668503 -0.0413895 -0.08283463 0.040060658 0.09341963
0.031258605 0.12649757 -0.23269527 0.081176944 0.019128736 -0.023109403 -0.0022718466 -0.00738427
-0.00033350894 0.017055634 -0.020350853 0.32710946 -0.011317897 -0.79700905 -0.912546 0.43040115
0.032633286 0.77140313 -0.36319953 -0.73626906 -0.7443816 -0.14990334 -0.9840061 1.5681999
-0.17616613 0.8802359 -1.2880244 0.0023937444 0.01324453 0.067198746 -0.4244872 0.6059985
0.30645216 0.23527214 -0.030147053 0.30556914 -0.15569295 0.15140554 -0.17477465 0.07928381
-0.046875805 -0.05247072 0.047997925 -0.042291798 2.0986145 -0.05325122 -0.34720853 -1.642449
0.62656087 0.19266842 0.37086833 -0.7582433 1.464157 -1.4240364 -1.6836808 -1.2455468
0.400279 0.077480055 0.15135284 0.7354746 -0.20248343 0.11851313 -0.1619467 -0.27815852
1.0627929 -0.53988516 -0.2930175 -0.5298885 -0.27587807 -0.37311703 -0.13963209 -0.25259557
-0.0532669 0.16503939 -0.04855302 0.04559214 0.035671763 2.6503932 -0.047073927 0.92639357
-3.213203 1.0575358 -0.47238225 0.3486921 0.21874106 -0.2532182 -1.753582 -0.69180185
-0.7039611 -0.6984656 -0.14035037 -1.6618384 -0.37695724 -0.01801214 0.078824356 -0.14004143
-0.14021125 0.26641962 0.15741393 0.059409253 0.3852217 0.085467726 0.34222844 0.1139022
0.055147264 -0.057199597 -0.055308342 0.016550545 -0.0043308306 -0.0012157961 1.5159445 -0.05907051
2.261972 -2.133872 0.5341182 0.2818881 -0.13542005 -0.16929671 -0.10529285 -1.5493212
0.49696526 0.22362158 0.07966436 -0.076988466 -0.114967726 -0.1432054 0.06696134 0.025192412
-0.007867376 0.018199 0.23202711 0.088618055 0.013121132 -0.06011301 -0.0971361 0.26243582
-0.089365035 -0.035078008 0.17224944 0.019114308 0.013812374 0.031193644 0.015721453 -0.08282589
-0.037991412 -0.7225042 -1.0906478 -0.7534438 0.28007296 -0.0579421 -1.0865843 -1.1138252
-1.7524108 0.54084426 -0.65004855 0.47082797 -0.32615453 -0.80349267 -0.48672426 0.13378046
-0.0023760668 -0.06032167 0.033330966 0.9691387 0.66556334 -0.06568624 0.15917233 0.37989762
0.38753462 0.41624784 0.3103812 0.10089752 -0.053051814 0.19984978 -0.117613055 -0.15506352
2.1971784 -0.14381875 -0.36696422 -2.3368592 1.5185299 -0.21427155 -1.375763 -0.20979781
0.21286194 -1.0354846 -2.1397984 0.17342553 1.0697496 -0.13601582 -0.92694324 -0.73233116
0.20805407 0.008707261 -0.23630714 0.73558855 0.5798356 0.25798872 0.5925054 -0.14381716
-0.29816502 0.04079741 0.15995581 0.19973762 0.016218357 0.041371066 0.0995078 0.03370881
0.022257505 2.1909356 -0.05843662 0.12799096 -2.7973332 0.29678032 -0.5588827 1.9609582
0.29115936 -0.44351724 -1.2722454 -0.6213313 0.37037995 1.038113 0.29175907 -0.31427172
0.1682943 0.08733216 0.04155108 0.0056270924 -1.1596035 0.17867869 0.19842452 0.22996132
-0.06586514 -0.09739823 -0.7274867 -0.108354434 -0.18418123 -0.22691974 -0.029831108 -0.09752279
00000000: 927a 87bd eb24 d63d 560c c4bd bb78 6fbf
00000010: b425 c1be bd93 ed3c 8751 b53e d671 21bd
00000020: ad0d 843e aeb6 463d 1eed 803b d5b6 013d
00000030: 0988 29bd 34a5 a9bd a516 243d ca52 bf3d
00000040: 0609 003d 9488 013e ab47 6ebe 1940 a63d
00000050: deb3 9c3c ee4f bdbc 43e3 14bb bff7 f1bb
00000060: d0da aeb9 42b8 8b3c d5b6 a6bc e47a a73e
00000070: b36e 39bc c908 4cbf 9d9c 69bf 8a5d dc3e
00000080: 7baa 053d ad7a 453f 4af5 b9be 217c 3cbf
00000090: cb8f 3ebf 4380 19be d3e7 7bbf c6ba c83f
000000a0: e564 34be 2457 613f fcdd a4bf 5ee0 1c3b
000000b0: 96ff 583c 7f9f 893d 6356 d9be b822 1b3f
000000c0: 4ce7 9c3e 2eeb 703e f4f6 f6bc 8f73 9c3e
000000d0: f96d 1fbe 0e0a 1b3e 20f8 32be 8d5f a23d
000000e0: d800 40bd 8aeb 56bd 7999 443d 2a3a 2dbd
000000f0: b34f 0640 f41d 5abd 51c5 b1be c53b d2bf
00000100: 4b66 203f df4a 453e 74e2 bd3e 3c1c 42bf
00000110: 7f69 bb3f d346 b6bf da82 d7bf 146e 9fbf
00000120: 5ef1 cc3e ddad 9e3d 3dfc 1a3e 1048 3c3f
00000130: d157 4fbe 03b7 f23d 5bd5 25be cb6a 8ebe
00000140: 9909 883f ea35 0abf 6406 96be c6a6 07bf
00000150: e43f 8dbe 3209 bfbe b7fb 0ebe 3554 81be
00000160: 652e 5abd 1600 293e 88df 46bd d3be 3a3d
00000170: 8e1c 123d 0ba0 2940 97d0 40bd 2128 6d3f
00000180: 1ea5 4dc0 555d 873f 16dc f1be c587 b23e
00000190: a8fd 5f3e d1a5 81be 6075 e0bf ed19 31bf
000001a0: cb36 34bf a4ce 32bf 02b8 0fbe 1fb7 d4bf
000001b0: 8a00 c1be 328e 93bc aa6e a13d 0567 0fbe
000001c0: 8a93 0fbe 2768 883e 1e31 213e 1e57 733d
000001d0: c73b c53e b409 af3d 9138 af3e 8e45 e93d
000001e0: 19e2 613d 204a 6abd 008b 62bd 0295 873c
000001f0: a4e9 8dbb 595b 9fba 780a c23f ebf3 71bd
00000200: 26c4 1040 5c91 08c0 f8bb 083f a353 903e
00000210: 8eab 0abe 1e5c 2dbe c7a3 d7bd 2850 c6bf
00000220: 3b72 fe3e 0efd 643e 1127 a33d 21ac 9dbd
00000230: 3374 ebbd 70a4 12be 0723 893d 5160 ce3c
00000240: 2be6 00bc 1216 953c 8498 6d3e 627d b53d
00000250: 04fa 563c 0f39 76bd 4bef c6bd fd5d 863e
00000260: 0405 b7bd f5ad 0fbd 2862 303e 9c95 9c3c
00000270: 4c4d 623c d089 ff3c 47ca 803c 9fa0 a9bd
00000280: e29c 1bbd 09f6 38bf 599a 8bbf b1e1 40bf
00000290: b965 8f3e b254 6dbd 3215 8bbf d391 8ebf
000002a0: ff4e e0bf c574 0a3f 9569 26bf 5d10 f13e
000002b0: bafd a6be b2b1 4dbf ec33 f9be bffd 083e
000002c0: c9b7 1bbb db13 77bd 0d86 083d 7919 783f
000002d0: 5c62 2a3f 8286 86bd 12fe 223e f181 c23e
000002e0: f06a c63e 701e d53e 49ea 9e3e 5ca3 ce3d
000002f0: dc4c 59bd 6ca5 4c3e 1ddf f0bd f9c8 1ebe
00000300: 929e 0c40 3945 13be bce2 bbbe 1a8f 15c0
00000310: 305f c23f 006a 5bbe 0119 b0bf 3dd5 56be
00000320: 7bf8 593e c28a 84bf 75f2 08c0 7696 313e
00000330: 8eed 883f bb47 0bbe 274c 6dbf 0e7a 3bbf
00000340: 200c 553e e6a8 0e3c 80fa 71be 884f 3c3f
00000350: 1b70 143f 1917 843e 6fae 173f ce44 13be
00000360: 16a9 98be 2f1b 273d 75cb 233e 0588 4c3e
00000370: 5cdc 843c b574 293d bfca cb3d 4012 0a3d
00000380: 5f55 b63c 4a38 0c40 3d5b 6fbd 1010 033e
00000390: 8207 33c0 97f3 973e f012 0fbf ae00 fb3f
000003a0: d712 953e b114 e3be f0d8 a2bf 910f 1fbf
000003b0: 71a2 bd3e e3e0 843f 7261 953e 39e8 a0be
000003c0: 5755 2c3e 34db b23d 7731 2a3d 7963 b83b
000003d0: e36d 94bf 8cf7 363e cc2f 4b3e fb7a 6b3e
000003e0: 4de4 86bd b978 c7bd 923c 3abf eee8 ddbd
000003f0: 019a 3cbe a65d 68be 5e60 f4bc 07ba c7bd

v.0.bias f4 [128]
-1.1215714 -1.9618659 -2.0892704 -1.5270134 -1.8308898 -1.9835316 -2.9191575 -1.7471287
-1.7319094 -2.8393633 -2.3445926 -2.3409352 -2.0880158 -1.8443735 -2.6086206 -2.4249303
-1.4723027 -2.041324 -3.1942587 -0.984483 -2.282427 -2.4836617 -1.9250252 -2.39866
-2.6995153 -1.8641804 -2.2642624 -2.2899828 -0.7882352 -2.427845 -2.3016937 -1.5986605
-2.497398 -2.6997027 -1.7395774 -2.048436 -2.4432712 -3.5207694 -1.4518987 -2.6512208
-2.5168734 -2.4017482 -1.9601824 -2.346861 -1.9258769 -1.2885996 -2.1598916 -1.9971014
-2.8329892 -1.6240608 -1.9191997 -3.208774 -0.9160529 -2.392485 -1.7347566 -1.1541984
-2.6647456 -1.2831876 -2.3045998 -1.6677645 -2.5405312 -2.2960079 -1.0898992 -1.8935738
-3.085143 -1.552909 -2.001353 -2.168898 -1.7176584 -3.2531195 -1.3048905 -1.1191003
-1.5261933 -2.706294 -1.5774215 -1.9836293 -2.1650887 -1.9523048 -2.245686 -2.0471628
-1.8213549 -2.7009523 -3.1868126 -2.1198637 -1.2672086 -2.8162947 -0.7678862 -2.1537054
-1.9273126 -2.0775702 -2.077718 -1.4402261 -2.7286897 -3.293807 -3.0081193 -1.3194469
-1.8748521 -2.5332248 -2.9158204 -2.2561505 -1.9171743 -3.4862218 -2.3149233 -2.454269
-2.6339493 -2.2362602 -1.79663 -2.0920737 -1.5556765 -2.280951 -2.5928023 -3.10653
-1.3251354 -1.9725921 -1.6841905 -2.1115575 -2.1738923 -2.6874213 -2.1981337 -1.9042369
-2.5961702 -1.1016737 -1.9793122 -1.9834734 -2.553811 -1.604649 -2.1077583 -2.1907647
00000000: a78f 8fbf 6c1e fbbf 9bb6 05c0 2d75 c3bf
00000010: 995a eabf 5de4 fdbf 7ad3 3ac0 eaa1 dfbf
00000020: 35af ddbf 21b8 35c0 ce0d 16c0 e2d1 15c0
00000030: 0da2 05c0 6e14 ecbf a4f3 26c0 0f32 1bc0
00000040: 6a74 bcbf 0da5 02c0 bc6e 4cc0 1407 7cbf
00000050: 4913 12c0 50f4 1ec0 3a67 f6bf a583 19c0
00000060: dcc4 2cc0 779d eebf ade9 10c0 148f 12c0
00000070: c8c9 49bf d061 1bc0 f34e 13c0 e8a0 ccbf
00000080: 5ed5 1fc0 eec7 2cc0 79aa debf 9319 03c0
00000090: 8e5e 1cc0 4954 61c0 d1d7 b9bf 9aad 29c0
000000a0: 7414 21c0 3eb6 19c0 42e7 fabf f832 16c0
000000b0: 2283 f6bf d5f0 a4bf aa3b 0ac0 05a1 ffbf
000000c0: b24f 35c0 39e1 cfbf 56a8 f5bf 8e5c 4dc0
000000d0: 7182 6abf 791e 19c0 810c debf c6bc 93bf
000000e0: 318b 2ac0 7e3f a4bf 907e 13c0 4f79 d5bf
000000f0: 1098 22c0 cbf1 12c0 d181 8bbf a060 f2bf
00000100: fc72 45c0 b9c5 c6bf 2b16 00c0 3acf 0ac0
00000110: 3bdc dbbf 1c33 50c0 a706 a7bf ae3e 8fbf
00000120: 4d5a c3bf ec33 2dc0 f3e8 c9bf 91e7 fdbf
00000130: d090 0ac0 20e5 f9bf 52b9 0fc0 b704 03c0
00000140: 2822 e9bf 67dc 2cc0 bdf4 4bc0 d9ab 07c0
00000150: e433 a2bf 2c3e 34c0 3194 44bf 4fd6 09c0
00000160: 2eb2 f6bf e9f6 04c0 55f9 04c0 5459 b8bf
00000170: daa2 2ec0 bccd 52c0 0785 40c0 a3e3 a8bf
00000180: 27fb efbf 5b20 22c0 cd9c 3ac0 c564 10c0
00000190: f865 f5bf 421e 5fc0 b427 14c0 be12 1dc0
000001a0: a092 28c0 e31e 0fc0 f9f7 e5bf 89e4 05c0
000001b0: 6820 c7bf 1afb 11c0 79f0 25c0 63d1 46c0
000001c0: 099e a9bf e67d fcbf 8e93 d7bf c223 07c0
000001d0: 0d21 0bc0 b6fe 2bc0 39ae 0cc0 09be f3bf
000001e0: a727 26c0 a503 8dbf 1a5a fdbf 75e2 fdbf
000001f0: a471 23c0 2365 cdbf 83e5 06c0 7d35 0cc0

v.2.weight f4 [128, 128]
0.43295905 -1.0026317 0.24662262 -2.2137125 0.21302181 -1.1014436 0.84902096 0.17290808
-1.1069921 -1.3483435 -0.15546967 -0.48195675 -0.99404293 1.293054 -0.58456486 -0.869911
-0.21643585 -0.7165985 -0.68536425 -0.5212094 -1.1123558 -2.7100968 0.11179017 0.88267523
-0.26413944 -0.87937075 0.027968166 0.6828478 -0.19753496 -1.0550025 0.30086398 -0.33799654
-1.4239271 -1.6645916 0.08549506 -1.073231 -0.45276263 -0.004217338 -0.6651474 -0.9391898
-1.0322859 -1.1402107 -1.0500139 0.5596858 0.9020994 -0.6632468 -1.4155934 -0.7834278
0.27015743 0.37334746 0.03209779 0.6816808 -0.42772996 1.0622835 0.63748354 -0.2230602
0.45522052 -0.87253445 -0.7298394 1.5617025 -0.82011294 0.6238816 -0.087583944 0.0029461547
-1.3587719 -1.0750821 0.6081705 0.5201308 0.7026535 -0.99133945 -1.2900064 -0.3692158
0.10742928 0.7038111 -0.78714144 -1.3549227 0.06679561 1.1170537 0.21910475 -1.4761142
-1.0110861 2.0138862 -0.7911752 -0.28218767 -1.0672039 0.9645139 -1.1563354 -1.5996342
-0.8707453 0.33176148 -0.7496038 2.3686001 0.582039 0.7422091 -1.0515832 1.1455404
0.5501785 0.063087374 -1.2624612 0.45095262 -0.51238674 -0.48569316 -0.6856784 -0.97041976
-0.9523885 -0.22990093 -1.6518614 1.1207916 -1.5046818 0.54253954 0.1422332 -0.7672576
0.18569817 -1.6106168 0.4666472 0.35615772 -0.12507845 0.48071066 -0.79211754 0.42082587
-0.3611269 0.23835023 -1.1091807 -0.12381501 -1.5668844 0.29953045 -1.7145143 0.704408
-1.5099876 -0.41585454 -0.81993455 1.7320501 1.1731517 -1.234111 0.21675107 0.7834073
1.9068372 0.40519223 1.0233672 0.39653167 0.95933753 0.028936306 -1.5289652 0.5825255
1.0461426 1.6034083 -1.0742562 -1.6086951 -0.4155988 -0.64852023 -0.048125017 1.7602108
-1.4587375 0.34166843 -0.05025193 0.045611102 -1.8061135 -0.49955556 1.3047626 -0.012031295
-0.35640565 0.6297746 -0.20290065 -0.12973425 -0.88157064 -0.6299679 -0.54623127 -0.71696573
-0.9717897 -0.966209 0.46529108 0.80217123 -0.13126932 0.30980173 -0.74935955 0.3691142
-0.58739984 -1.7417219 -0.89348537 -1.3124777 -0.17012332 -1.5621167 -1.2188336 -1.2069424
-0.32411057 0.03376771 -0.2801855 -1.198318 -0.975849 -0.36305085 -0.3659477 -0.26326692
-0.006393839 -2.8357954 1.1955922 -2.7930574 -0.4177813 -1.8354602 0.033229977 1.4977012
1.0707446 -0.70141387 -0.39477578 0.30246758 -0.72865444 -0.12193133 0.27823994 -1.4090059
-1.1914655 -0.5089062 -0.7049493 -0.78377974 0.03496176 -0.7341806 -0.8960997 0.10944823
-0.39306828 -2.5631416 1.2641219 -0.84704804 0.0767133 -1.8590963 0.5711384 -1.1198723
0.67131925 -2.015798 0.8584934 0.11296577 -1.7439975 0.0077854265 -0.74265224 1.2278847
-1.9396492 1.1832414 -0.78788495 0.33336908 0.60517895 -0.85454595 -0.32098776 -0.23243533
0.46957475 -2.132314 -1.8928778 -1.0064193 -0.20362686 -1.1494445 1.1750715 0.61153
1.1281333 -0.2941015 -0.6937458 -0.9064509 -1.2529845 -1.8018503 0.2879124 0.4688711
00000000: cfac dd3e 3c56 80bf a48a 7c3e 77ad 0dc0
00000010: 6422 5a3e 1bfc 8cbf 7059 593f d10e 313e
00000020: ebb1 8dbf 8596 acbf 7133 1fbe 09c3 f6be
00000030: 9979 7ebf cb82 a53f 0ba6 15bf 7db2 5ebf
00000040: 5ca1 5dbe 0073 37bf 0874 2fbf fb6d 05bf
00000050: ad61 8ebf 3a72 2dc0 3ff2 e43d 01f7 613f
00000060: 493d 87be 711e 61bf 7f1d e53c 1dcf 2e3f
00000070: 9b46 4abe 520a 87bf d80a 9a3e e20d adbe
00000080: 3e43 b6bf 5611 d5bf 0918 af3d a25f 89bf
00000090: 81d0 e7be 9831 8abb 1a47 2abf be6e 70bf
000000a0: f221 84bf 6df2 91bf db66 86bf 9247 0f3f
000000b0: fcef 663f 8bca 29bf 2a32 b5bf b98e 48bf
000000c0: 1352 8a3e 6627 bf3e f978 033d a282 2e3f
000000d0: 6cff dabe e8f8 873f 1f32 233f e569 64be
000000e0: aa12 e93e 6b5e 5fbf c1d6 3abf dee5 c73f
000000f0: ecf2 51bf b4b6 1f3f 365f b3bd 4614 413b
00000100: 3dec adbf 4a9c 89bf 10b1 1b3f 4b27 053f
00000110: 1ae1 333f 6cc8 7dbf ee1e a5bf da09 bdbe
00000120: e203 dc3d f72c 343f 1a82 49bf 1b6e adbf
00000130: 23cc 883d 9efb 8e3f ff5c 603e 4ff1 bcbf
00000140: 456b 81bf 83e3 0040 758a 4abf e77a 90be
00000150: 239a 88bf 62ea 763f cc02 94bf d0c0 ccbf
00000160: 2ae9 5ebf a4dc a93e 09e6 3fbf 2597 1740
00000170: 8200 153f 6a01 3e3f 479a 86bf 11a1 923f
00000180: 80d8 0c3f f433 813d 5498 a1bf 43e3 e63e
00000190: c72b 03bf c6ac f8be 9f88 2fbf 6e6d 78bf
000001a0: bccf 73bf 266b 6bbe 3270 d3bf 1976 8f3f
000001b0: 6a99 c0bf dfe3 0a3f 94a5 113e fe6a 44bf
000001c0: a927 3e3e b128 cebf 62ec ee3e 4e5a b63e
000001d0: 9114 00be b51f f63e 37c8 4abf 7d76 d73e
000001e0: a0e5 b8be 1512 743e a2f9 8dbf b992 fdbd
000001f0: ab8f c8bf 0e5c 993e 3475 dbbf 1554 343f
00000200: 4647 c1bf e3ea d4be 3be7 51bf d1b3 dd3f
00000210: d629 963f 59f7 9dbf fef3 5d3e 618d 483f
00000220: 3e13 f43f 5b75 cf3e b2fd 823f 3306 cb3e
00000230: 2597 753f d50b ed3c 22b5 c3bf 6420 153f
00000240: 00e8 853f 7c3c cd3f 3a81 89bf b9e9 cdbf
00000250: 5ec9 d4be 6c05 26bf bd1e 45bd 964e e13f
00000260: e9b7 babf 2aef ae3e f8d4 4dbd b5d2 3a3d
00000270: ba2e e7bf bfc5 ffbe 7602 a73f e91e 45bc
00000280: cd7a b6be e838 213f 30c5 4fbe 0ed9 04be
00000290: 9dae 61bf 9445 21bf d0d5 0bbf 118b 37bf
000002a0: 36c7 78bf 7959 77bf a23a ee3e 185b 4d3f
000002b0: 776b 06be 559e 9e3e 07d6 3fbf 89fc bc3e
000002c0: d65f 16bf bef0 debf 75bb 64bf 45ff a7bf
000002d0: cf34 2ebe 71f3 c7bf bd02 9cbf 177d 9abf
000002e0: d2f1 a5be 0350 0a3d 7974 8fbe 7c62 99bf
000002f0: 3dd1 79bf cde1 b9be 7f5d bbbe ecca 86be
00000300: 6983 d1bb ac7d 35c0 2a09 993f 74c1 32c0
00000310: 6ee7 d5be 5cf0 eabf 281c 083d acb4 bf3f
00000320: 290e 893f dc8f 33bf 0d20 cabe 08dd 9a3e
00000330: 1989 3abf 22b7 f9bd 7775 8e3e 4e5a b4bf
00000340: f181 98bf ad47 02bf 8f77 34bf caa5 48bf
00000350: 1034 0f3d 43f3 3bbf ca66 65bf 6526 e03d
00000360: 3f40 c9be 830a 24c0 bfce a13f 24d8 58bf
00000370: dd1b 9d3d def6 edbf 2036 123f fa57 8fbf
00000380: 94db 2b3f d602 01c0 39c6 5b3f 995a e73d
00000390: 4f3b dfbf e41c ff3b 751e 3ebf 532b 9d3f
000003a0: 6d46 f8bf 7474 973f d4b2 49bf 5aaf aa3e
000003b0: 02ed 1a3f 86c3 5abf 8258 a4be 8703 6ebe
000003c0: 1a6c f03e d577 08c0 d249 f2bf 59d2 80bf
000003d0: 8f83 50be ff20 93bf be68 963f 3b8d 1c3f
000003e0: ac66 903f 7994 96be 5399 31bf 2b0d 68bf
000003f0: cc61 a0bf 08a3 e6bf 4169 933e df0f f03e

v.2.bias f4 [128]
-1.1851541 -0.70455927 -0.7692064 -1.4403919 -1.0530585 -1.2050983 -0.52658224 -0.9360727
-1.3575854 -0.667812 -1.8582261 -0.48393735 -1.3315797 -1.1869177 -0.8176088 -1.3811707
-0.6108798 -0.81430036 -0.7623503 -1.438322 -0.43182138 -0.58411217 -0.9197444 -0.8723501
-0.1951928 -1.3313861 -1.0545017 -0.97361255 -1.1605579 -0.63334906 -0.93923706 -1.107295
-1.484271 -0.45244998 -1.0087001 -0.739685 -0.7400281 -0.7692337 -0.72878873 -0.64957464
-0.5231755 -0.94995725 -0.5475968 -0.6922612 -0.5845505 -0.92041 -1.1582701 -1.2468809
-0.8443223 -0.6303097 -0.70273954 -0.721337 -0.8122407 -0.82115954 -1.4150413 -1.1596562
-0.8732903 -0.48513857 -1.3511875 -1.557839 -1.6400019 -1.5056572 -1.0375233 -0.9324148
-1.4993129 -0.85280585 -0.6140497 -1.5009907 -0.9385806 -1.3084338 -0.54434586 -0.61328745
-0.60818446 -0.95788544 -1.0126705 -0.78691614 -0.33710068 -1.2796384 -0.5163042 -0.84046125
-0.7713335 -1.4846091 -1.2073865 -1.0873581 -1.1317132 -0.73513293 -0.8872064 -0.6079508
-1.0562731 -0.320571 -1.2281923 -0.7447405 -0.6516368 -0.6757113 -1.1247971 -1.2095972
-0.83054733 -1.4644258 -1.0266917 -1.219286 -0.72677994 -1.4547637 -0.7736121 -1.0900236
-0.9809327 -0.7173014 -0.4570709 -1.0408102 -0.958287 -1.2282618 -0.70471245 -1.3335049
-0.7691508 -0.4479157 -0.9689584 -0.8860812 -0.94540316 -0.83689594 -0.97547865 -1.6204777
-0.41905078 -0.6817909 -1.6879969 -0.982232 -0.5762564 -0.9883128 -1.655837 -1.2636981
00000000: 21b3 97bf ff5d 34bf b6ea 44bf c35e b8bf
00000010: 9fca 86bf a940 9abf 18ce 06bf 76a2 6fbf
00000020: 5cc5 adbf baf5 2abf 5ada edbf a3c6 f7be
00000030: 3471 aabf ebec 97bf cf4e 51bf 34ca b0bf
00000040: 9e62 1cbf fd75 50bf 6429 43bf ef1a b8bf
00000050: b117 ddbe 6088 15bf 5e74 6bbf 5652 5fbf
00000060: 9fe0 47be dc6a aabf e9f9 86bf ac3e 79bf
00000070: 298d 94bf 2a23 22bf d771 70bf d8bb 8dbf
00000080: 98fc bdbf 86a7 e7be 161d 81bf ff5b 3dbf
00000090: 7b72 3dbf 80ec 44bf e691 3abf 864a 26bf
000000a0: d4ee 05bf 6630 73bf 4e2f 0cbf 0838 31bf
000000b0: 1aa5 15bf fd9f 6bbf 3242 94bf cb99 9fbf
000000c0: 8225 58bf fa5b 21bf bde6 33bf 8ba9 38bf
000000d0: 02ef 4fbf 8337 52bf 1320 b5bf 9d6f 94bf
000000e0: f48f 5fbf 1564 f8be b6f3 acbf 4567 c7bf
000000f0: 95eb d1bf 60b9 c0bf 90cd 84bf bdb2 6ebf
00000100: 7ce9 bfbf 7c51 5abf 5c32 1dbf 7720 c0bf
00000110: d146 70bf c27a a7bf 405a 0bbf 6800 1dbf
00000120: fab1 1bbf fb37 75bf 309f 81bf 5673 49bf
00000130: 7698 acbe 31cb a3bf 832c 04bf 7828 57bf
00000140: 1d76 45bf ac07 bebf a48b 9abf 8d2e 8bbf
00000150: fadb 90bf ac31 3cbf f51f 63bf aaa2 1bbf
00000160: f533 87bf e221 a4be 6835 9dbf 50a7 3ebf
00000170: abd1 26bf 6afb 2cbf 5af9 8fbf 15d4 9abf
00000180: c09e 54bf 4e72 bbbf a26a 83bf 9011 9cbf
00000190: 400e 3abf b235 babf 710b 46bf e585 8bbf
000001a0: 681e 7bbf 11a1 37bf 3205 eabe 4539 85bf
000001b0: 4c52 75bf af37 9dbf 0968 34bf 4ab0 aabf
000001c0: 11e7 44bf 3555 e5be a80d 78bf 38d6 62bf
000001d0: f105 72bf d03e 56bf f8b8 79bf d06b cfbf
000001e0: d38d d6be d989 2ebf 4810 d8bf 8e73 7bbf
000001f0: 8a85 13bf 1102 7dbf 78f2 d3bf dcc0 a1bf

v.4.weight f4 [1, 128]
0.029576492 0.017758176 -0.013461903 0.086554684 0.07022907 0.008319898 0.07275191 0.072498426
-0.034034133 -0.029276852 -0.012195628 0.02839566 -0.045332894 0.12799464 0.18190439 0.14769842
0.16882245 0.010849891 -0.020068664 -0.011941526 -0.039271925 -0.12108406 -0.18177035 0.0011708084
0.045562506 0.1164079 0.023963034 0.08249302 0.0012467785 -0.122176684 -0.03252028 -0.050951015
-0.65758395 -0.12343514 -0.077445075 -0.118798666 0.0151922265 0.008792254 0.08632248 -0.021415371
0.029503834 -0.010335569 -0.020915492 0.1392303 0.015268164 0.057782322 -0.06349089 0.01575573
-0.055761524 0.06342605 -0.050697178 -0.0820076 0.023994349 -0.046049718 0.004207333 -0.010692663
0.008915552 -0.014317119 0.033285134 -0.04539526 0.0006331474 0.045291055 0.033561733 0.08064729
-0.42341697 -0.05472992 0.08720016 0.06281855 0.046704557 -0.044686764 -0.006817261 -0.013973332
-0.02697849 0.038367644 0.10168692 0.07187132 -0.069186196 -0.09757449 -0.051902033 0.11483751
0.10755566 0.04260352 -0.12904613 -0.024898566 -0.0023951442 0.016626818 -0.0016963559 0.13959342
0.03993822 -0.04423953 0.08434135 -0.03002799 0.014964676 0.056079686 0.07094669 -0.16520476
-0.047317028 -0.13329144 0.013191025 0.01916021 -0.073160484 0.05003343 -0.079057686 -0.070831686
0.08762289 -0.00025736948 -0.03256016 0.5304017 0.036722604 -0.008432247 -0.07197812 0.08109348
-0.014382536 -0.03133796 -0.059212405 -0.026345216 0.0027426647 0.048123147 0.098705634 0.012762734
0.05496341 0.061977703 0.17089264 0.09767888 -0.033219866 0.23222984 -0.004951847 -0.04788018
00000000: 664a f23c 9879 913c 508f 5cbc 9543 b13d
00000010: 42d4 8f3d 2e50 083c f4fe 943d 0e7a 943d
00000020: 6067 0bbd 02d6 efbc 2cd0 47bc 049e e83c
00000030: fcae 39bd 0711 033e 2545 3a3e 413e 173e
00000040: cbdf 2c3e bec3 313c 0a67 a4bc 64a6 43bc
00000050: 99db 20bd ebfa f7bd 0222 3abe d075 993a
00000060: c09f 3a3d 4467 ee3d 204e c43c 1af2 a83d
00000070: f26a a33a c537 fabd fc33 05bd 03b2 50bd
00000080: 6c57 28bf 90cb fcbd 869b 9ebd b74c f3bd
00000090: d1e8 783c 630d 103c d7c9 b03d 4a6f afbc
000000a0: 06b2 f13c 8556 29bc f756 abbc 6392 0e3e
000000b0: 5227 7a3c 28ad 6c3d 8307 82bd 2912 813c
000000c0: 3266 64bd 84e5 813d d8a7 4fbd 9af3 a7bd
000000d0: cc8f c43c a19e 3cbd abdd 893b 4730 2fbc
000000e0: 8912 123c 5992 6abc fe55 083d 61f0 39bd
000000f0: cef9 253a 1d83 393d 0778 093d 682a a53d
00000100: 1cca d8be 7b2c 60bd ff95 b23d 03a7 803d
00000110: 474d 3f3d 7809 37bd 5563 dfbb 67f0 64bc
00000120: ff01 ddbc 6427 1d3d 3b41 d03d 4531 933d
00000130: 7eb1 8dbd 22d5 c7bd 3a97 54bd ee2f eb3d
00000140: 2446 dc3d 0781 2e3d ab24 04be 14f8 cbbc
00000150: daf7 1cbb f734 883c 4258 deba 94f1 0e3e
00000160: 4296 233d 8234 35bd 28bb ac3d 42fd f5bc
00000170: 672e 753c d0b3 653d 804c 913d 702b 29be
00000180: 80cf 41bd 8d7d 08be 2b1f 583c dff5 9c3c
00000190: 2ad5 95bd dbef 4c3d ffe8 a1bd 3410 91bd
000001a0: a173 b33d 8cef 86b9 cd5d 05bd 68c8 073f
000001b0: 716a 163d 6827 0abc 4469 93bd 5714 a63d
000001c0: baa4 6bbc 3c5c 00bd b588 72bd ecd1 d7bc
000001d0: 47be 333b c71c 453d 2e26 ca3d c91a 513c
000001e0: 5021 613d 55dc 7d3d 7bfe 2e3e dd0b c83d
000001f0: 8e11 08bd a9cd 6d3e 1a43 a2bb 021e 44bd
